{"format": "graph-model", "generatedBy": "2.19.0", "convertedBy": "TensorFlow.js Converter v4.22.0", "signature": {"inputs": {"input_layer_3": {"name": "input_layer_3:0", "dtype": "DT_FLOAT", "tensorShape": {"dim": [{"size": "-1"}, {"size": "128"}, {"size": "10"}]}}}, "outputs": {"output_0": {"name": "Identity:0", "dtype": "DT_FLOAT", "tensorShape": {"dim": [{"size": "-1"}, {"size": "4"}]}}}}, "modelTopology": {"node": [{"name": "StatefulPartitionedCall/BiLSTM_Forecaster_1/self_attention_layer_1_1/MatMul/ReadVariableOp", "op": "Const", "attr": {"value": {"tensor": {"dtype": "DT_FLOAT", "tensorShape": {"dim": [{"size": "64"}, {"size": "64"}]}}}, "dtype": {"type": "DT_FLOAT"}}}, {"name": "StatefulPartitionedCall/BiLSTM_Forecaster_1/self_attention_layer_1_1/MatMul_1/ReadVariableOp", "op": "Const", "attr": {"value": {"tensor": {"dtype": "DT_FLOAT", "tensorShape": {"dim": [{"size": "64"}, {"size": "64"}]}}}, "dtype": {"type": "DT_FLOAT"}}}, {"name": "ConstantFolding/StatefulPartitionedCall/BiLSTM_Forecaster_1/self_attention_layer_1_1/truediv_recip", "op": "Const", "attr": {"value": {"tensor": {"dtype": "DT_FLOAT", "tensorShape": {}}}, "dtype": {"type": "DT_FLOAT"}}}, {"name": "StatefulPartitionedCall/BiLSTM_Forecaster_1/bidirectional_3_1/forward_lstm_3_1/TensorArrayV2Stack/TensorListStack/element_shape", "op": "Const", "attr": {"value": {"tensor": {"dtype": "DT_INT32", "tensorShape": {"dim": [{"size": "2"}]}}}, "dtype": {"type": "DT_INT32"}}}, {"name": "StatefulPartitionedCall/BiLSTM_Forecaster_1/bidirectional_3_1/forward_lstm_3_1/transpose_1/perm", "op": "Const", "attr": {"value": {"tensor": {"dtype": "DT_INT32", "tensorShape": {"dim": [{"size": "3"}]}}}, "dtype": {"type": "DT_INT32"}}}, {"name": "StatefulPartitionedCall/BiLSTM_Forecaster_1/bidirectional_3_1/backward_lstm_3_1/TensorArrayV2Stack/TensorListStack/element_shape", "op": "Const", "attr": {"value": {"tensor": {"dtype": "DT_INT32", "tensorShape": {"dim": [{"size": "2"}]}}}, "dtype": {"type": "DT_INT32"}}}, {"name": "StatefulPartitionedCall/BiLSTM_Forecaster_1/bidirectional_3_1/backward_lstm_3_1/transpose_1/perm", "op": "Const", "attr": {"value": {"tensor": {"dtype": "DT_INT32", "tensorShape": {"dim": [{"size": "3"}]}}}, "dtype": {"type": "DT_INT32"}}}, {"name": "StatefulPartitionedCall/BiLSTM_Forecaster_1/bidirectional_3_1/ReverseV2/axis", "op": "Const", "attr": {"value": {"tensor": {"dtype": "DT_INT32", "tensorShape": {"dim": [{"size": "1"}]}}}, "dtype": {"type": "DT_INT32"}}}, {"name": "StatefulPartitionedCall/BiLSTM_Forecaster_1/bidirectional_3_1/concat/axis", "op": "Const", "attr": {"value": {"tensor": {"dtype": "DT_INT32", "tensorShape": {}}}, "dtype": {"type": "DT_INT32"}}}, {"name": "StatefulPartitionedCall/BiLSTM_Forecaster_1/self_attention_layer_1_1/MatMul_2/ReadVariableOp", "op": "Const", "attr": {"value": {"tensor": {"dtype": "DT_FLOAT", "tensorShape": {"dim": [{"size": "64"}, {"size": "64"}]}}}, "dtype": {"type": "DT_FLOAT"}}}, {"name": "StatefulPartitionedCall/BiLSTM_Forecaster_1/global_average_pooling1d_1_1/Mean/reduction_indices", "op": "Const", "attr": {"value": {"tensor": {"dtype": "DT_INT32", "tensorShape": {}}}, "dtype": {"type": "DT_INT32"}}}, {"name": "StatefulPartitionedCall/BiLSTM_Forecaster_1/dense_8_1/Cast/ReadVariableOp", "op": "Const", "attr": {"value": {"tensor": {"dtype": "DT_FLOAT", "tensorShape": {"dim": [{"size": "64"}, {"size": "64"}]}}}, "dtype": {"type": "DT_FLOAT"}}}, {"name": "StatefulPartitionedCall/BiLSTM_Forecaster_1/dense_8_1/BiasAdd/ReadVariableOp", "op": "Const", "attr": {"value": {"tensor": {"dtype": "DT_FLOAT", "tensorShape": {"dim": [{"size": "64"}]}}}, "dtype": {"type": "DT_FLOAT"}}}, {"name": "StatefulPartitionedCall/BiLSTM_Forecaster_1/dense_9_1/Cast/ReadVariableOp", "op": "Const", "attr": {"value": {"tensor": {"dtype": "DT_FLOAT", "tensorShape": {"dim": [{"size": "64"}, {"size": "4"}]}}}, "dtype": {"type": "DT_FLOAT"}}}, {"name": "StatefulPartitionedCall/BiLSTM_Forecaster_1/dense_9_1/BiasAdd/ReadVariableOp", "op": "Const", "attr": {"value": {"tensor": {"dtype": "DT_FLOAT", "tensorShape": {"dim": [{"size": "4"}]}}}, "dtype": {"type": "DT_FLOAT"}}}, {"name": "StatefulPartitionedCall/BiLSTM_Forecaster_1/bidirectional_3_1/backward_lstm_3_1/Max", "op": "Const", "attr": {"value": {"tensor": {"dtype": "DT_INT32", "tensorShape": {}}}, "dtype": {"type": "DT_INT32"}}}, {"name": "StatefulPartitionedCall/BiLSTM_Forecaster_1/bidirectional_3_1/backward_lstm_3_1/while/loop_counter", "op": "Const", "attr": {"value": {"tensor": {"dtype": "DT_INT32", "tensorShape": {}}}, "_has_manual_control_dependencies": {"b": true}, "dtype": {"type": "DT_INT32"}}}, {"name": "StatefulPartitionedCall/BiLSTM_Forecaster_1/bidirectional_3_1/backward_lstm_3_1/time", "op": "Const", "attr": {"value": {"tensor": {"dtype": "DT_INT32", "tensorShape": {}}}, "_has_manual_control_dependencies": {"b": true}, "dtype": {"type": "DT_INT32"}}}, {"name": "Func/StatefulPartitionedCall/input/_10", "op": "Const", "attr": {"value": {"tensor": {"dtype": "DT_FLOAT", "tensorShape": {"dim": [{"size": "128"}, {"size": "128"}]}}}, "dtype": {"type": "DT_FLOAT"}}}, {"name": "Func/StatefulPartitionedCall/input/_11", "op": "Const", "attr": {"value": {"tensor": {"dtype": "DT_FLOAT", "tensorShape": {"dim": [{"size": "32"}, {"size": "128"}]}}}, "dtype": {"type": "DT_FLOAT"}}}, {"name": "Func/StatefulPartitionedCall/input/_12", "op": "Const", "attr": {"value": {"tensor": {"dtype": "DT_FLOAT", "tensorShape": {"dim": [{"size": "128"}]}}}, "dtype": {"type": "DT_FLOAT"}}}, {"name": "StatefulPartitionedCall/BiLSTM_Forecaster_1/bidirectional_3_1/backward_lstm_3_1/transpose/perm", "op": "Const", "attr": {"value": {"tensor": {"dtype": "DT_INT32", "tensorShape": {"dim": [{"size": "3"}]}}}, "dtype": {"type": "DT_INT32"}}}, {"name": "StatefulPartitionedCall/BiLSTM_Forecaster_1/bidirectional_3_1/backward_lstm_3_1/ReverseV2/axis", "op": "Const", "attr": {"value": {"tensor": {"dtype": "DT_INT32", "tensorShape": {"dim": [{"size": "1"}]}}}, "dtype": {"type": "DT_INT32"}}}, {"name": "StatefulPartitionedCall/BiLSTM_Forecaster_1/bidirectional_3_1/backward_lstm_3_1/TensorArrayUnstack/TensorListFromTensor/element_shape", "op": "Const", "attr": {"value": {"tensor": {"dtype": "DT_INT32", "tensorShape": {"dim": [{"size": "2"}]}}}, "dtype": {"type": "DT_INT32"}}}, {"name": "StatefulPartitionedCall/BiLSTM_Forecaster_1/bidirectional_3_1/backward_lstm_3_1/TensorArrayV2_1/element_shape", "op": "Const", "attr": {"value": {"tensor": {"dtype": "DT_INT32", "tensorShape": {"dim": [{"size": "2"}]}}}, "dtype": {"type": "DT_INT32"}}}, {"name": "StatefulPartitionedCall/BiLSTM_Forecaster_1/bidirectional_3_1/backward_lstm_3_1/TensorArrayV2_1/num_elements", "op": "Const", "attr": {"value": {"tensor": {"dtype": "DT_INT32", "tensorShape": {}}}, "dtype": {"type": "DT_INT32"}}}, {"name": "StatefulPartitionedCall/BiLSTM_Forecaster_1/bidirectional_3_1/backward_lstm_3_1/zeros/packed/1", "op": "Const", "attr": {"value": {"tensor": {"dtype": "DT_INT32", "tensorShape": {}}}, "dtype": {"type": "DT_INT32"}}}, {"name": "StatefulPartitionedCall/BiLSTM_Forecaster_1/bidirectional_3_1/backward_lstm_3_1/zeros/Const", "op": "Const", "attr": {"value": {"tensor": {"dtype": "DT_FLOAT", "tensorShape": {}}}, "dtype": {"type": "DT_FLOAT"}}}, {"name": "StatefulPartitionedCall/BiLSTM_Forecaster_1/bidirectional_3_1/backward_lstm_3_1/strided_slice/stack", "op": "Const", "attr": {"value": {"tensor": {"dtype": "DT_INT32", "tensorShape": {"dim": [{"size": "1"}]}}}, "dtype": {"type": "DT_INT32"}}}, {"name": "StatefulPartitionedCall/BiLSTM_Forecaster_1/bidirectional_3_1/backward_lstm_3_1/strided_slice/stack_1", "op": "Const", "attr": {"value": {"tensor": {"dtype": "DT_INT32", "tensorShape": {"dim": [{"size": "1"}]}}}, "dtype": {"type": "DT_INT32"}}}, {"name": "StatefulPartitionedCall/BiLSTM_Forecaster_1/bidirectional_3_1/backward_lstm_3_1/strided_slice/stack_2", "op": "Const", "attr": {"value": {"tensor": {"dtype": "DT_INT32", "tensorShape": {"dim": [{"size": "1"}]}}}, "dtype": {"type": "DT_INT32"}}}, {"name": "StatefulPartitionedCall/BiLSTM_Forecaster_1/bidirectional_3_1/backward_lstm_3_1/zeros_1/packed/1", "op": "Const", "attr": {"value": {"tensor": {"dtype": "DT_INT32", "tensorShape": {}}}, "dtype": {"type": "DT_INT32"}}}, {"name": "StatefulPartitionedCall/BiLSTM_Forecaster_1/bidirectional_3_1/backward_lstm_3_1/zeros_1/Const", "op": "Const", "attr": {"value": {"tensor": {"dtype": "DT_FLOAT", "tensorShape": {}}}, "dtype": {"type": "DT_FLOAT"}}}, {"name": "StatefulPartitionedCall/BiLSTM_Forecaster_1/bidirectional_3_1/forward_lstm_3_1/Max", "op": "Const", "attr": {"value": {"tensor": {"dtype": "DT_INT32", "tensorShape": {}}}, "dtype": {"type": "DT_INT32"}}}, {"name": "StatefulPartitionedCall/BiLSTM_Forecaster_1/bidirectional_3_1/forward_lstm_3_1/while/loop_counter", "op": "Const", "attr": {"value": {"tensor": {"dtype": "DT_INT32", "tensorShape": {}}}, "_has_manual_control_dependencies": {"b": true}, "dtype": {"type": "DT_INT32"}}}, {"name": "StatefulPartitionedCall/BiLSTM_Forecaster_1/bidirectional_3_1/forward_lstm_3_1/time", "op": "Const", "attr": {"value": {"tensor": {"dtype": "DT_INT32", "tensorShape": {}}}, "_has_manual_control_dependencies": {"b": true}, "dtype": {"type": "DT_INT32"}}}, {"name": "Func/StatefulPartitionedCall/input/_7", "op": "Const", "attr": {"value": {"tensor": {"dtype": "DT_FLOAT", "tensorShape": {"dim": [{"size": "128"}, {"size": "128"}]}}}, "dtype": {"type": "DT_FLOAT"}}}, {"name": "Func/StatefulPartitionedCall/input/_8", "op": "Const", "attr": {"value": {"tensor": {"dtype": "DT_FLOAT", "tensorShape": {"dim": [{"size": "32"}, {"size": "128"}]}}}, "dtype": {"type": "DT_FLOAT"}}}, {"name": "Func/StatefulPartitionedCall/input/_9", "op": "Const", "attr": {"value": {"tensor": {"dtype": "DT_FLOAT", "tensorShape": {"dim": [{"size": "128"}]}}}, "dtype": {"type": "DT_FLOAT"}}}, {"name": "StatefulPartitionedCall/BiLSTM_Forecaster_1/bidirectional_3_1/forward_lstm_3_1/transpose/perm", "op": "Const", "attr": {"value": {"tensor": {"dtype": "DT_INT32", "tensorShape": {"dim": [{"size": "3"}]}}}, "dtype": {"type": "DT_INT32"}}}, {"name": "StatefulPartitionedCall/BiLSTM_Forecaster_1/bidirectional_3_1/forward_lstm_3_1/TensorArrayUnstack/TensorListFromTensor/element_shape", "op": "Const", "attr": {"value": {"tensor": {"dtype": "DT_INT32", "tensorShape": {"dim": [{"size": "2"}]}}}, "dtype": {"type": "DT_INT32"}}}, {"name": "StatefulPartitionedCall/BiLSTM_Forecaster_1/bidirectional_3_1/forward_lstm_3_1/TensorArrayV2_1/element_shape", "op": "Const", "attr": {"value": {"tensor": {"dtype": "DT_INT32", "tensorShape": {"dim": [{"size": "2"}]}}}, "dtype": {"type": "DT_INT32"}}}, {"name": "StatefulPartitionedCall/BiLSTM_Forecaster_1/bidirectional_3_1/forward_lstm_3_1/TensorArrayV2_1/num_elements", "op": "Const", "attr": {"value": {"tensor": {"dtype": "DT_INT32", "tensorShape": {}}}, "dtype": {"type": "DT_INT32"}}}, {"name": "StatefulPartitionedCall/BiLSTM_Forecaster_1/bidirectional_3_1/forward_lstm_3_1/zeros/packed/1", "op": "Const", "attr": {"value": {"tensor": {"dtype": "DT_INT32", "tensorShape": {}}}, "dtype": {"type": "DT_INT32"}}}, {"name": "StatefulPartitionedCall/BiLSTM_Forecaster_1/bidirectional_3_1/forward_lstm_3_1/zeros/Const", "op": "Const", "attr": {"value": {"tensor": {"dtype": "DT_FLOAT", "tensorShape": {}}}, "dtype": {"type": "DT_FLOAT"}}}, {"name": "StatefulPartitionedCall/BiLSTM_Forecaster_1/bidirectional_2_1/forward_lstm_2_1/Max", "op": "Const", "attr": {"value": {"tensor": {"dtype": "DT_INT32", "tensorShape": {}}}, "dtype": {"type": "DT_INT32"}}}, {"name": "StatefulPartitionedCall/BiLSTM_Forecaster_1/bidirectional_2_1/forward_lstm_2_1/while/loop_counter", "op": "Const", "attr": {"value": {"tensor": {"dtype": "DT_INT32", "tensorShape": {}}}, "_has_manual_control_dependencies": {"b": true}, "dtype": {"type": "DT_INT32"}}}, {"name": "StatefulPartitionedCall/BiLSTM_Forecaster_1/bidirectional_2_1/forward_lstm_2_1/time", "op": "Const", "attr": {"value": {"tensor": {"dtype": "DT_INT32", "tensorShape": {}}}, "_has_manual_control_dependencies": {"b": true}, "dtype": {"type": "DT_INT32"}}}, {"name": "Func/StatefulPartitionedCall/input/_1", "op": "Const", "attr": {"value": {"tensor": {"dtype": "DT_FLOAT", "tensorShape": {"dim": [{"size": "10"}, {"size": "256"}]}}}, "dtype": {"type": "DT_FLOAT"}}}, {"name": "Func/StatefulPartitionedCall/input/_2", "op": "Const", "attr": {"value": {"tensor": {"dtype": "DT_FLOAT", "tensorShape": {"dim": [{"size": "64"}, {"size": "256"}]}}}, "dtype": {"type": "DT_FLOAT"}}}, {"name": "Func/StatefulPartitionedCall/input/_3", "op": "Const", "attr": {"value": {"tensor": {"dtype": "DT_FLOAT", "tensorShape": {"dim": [{"size": "256"}]}}}, "dtype": {"type": "DT_FLOAT"}}}, {"name": "StatefulPartitionedCall/BiLSTM_Forecaster_1/bidirectional_2_1/forward_lstm_2_1/transpose/perm", "op": "Const", "attr": {"value": {"tensor": {"dtype": "DT_INT32", "tensorShape": {"dim": [{"size": "3"}]}}}, "dtype": {"type": "DT_INT32"}}}, {"name": "StatefulPartitionedCall/BiLSTM_Forecaster_1/bidirectional_2_1/forward_lstm_2_1/TensorArrayUnstack/TensorListFromTensor/element_shape", "op": "Const", "attr": {"value": {"tensor": {"dtype": "DT_INT32", "tensorShape": {"dim": [{"size": "2"}]}}}, "dtype": {"type": "DT_INT32"}}}, {"name": "StatefulPartitionedCall/BiLSTM_Forecaster_1/bidirectional_2_1/forward_lstm_2_1/TensorArrayV2_1/element_shape", "op": "Const", "attr": {"value": {"tensor": {"dtype": "DT_INT32", "tensorShape": {"dim": [{"size": "2"}]}}}, "dtype": {"type": "DT_INT32"}}}, {"name": "StatefulPartitionedCall/BiLSTM_Forecaster_1/bidirectional_2_1/forward_lstm_2_1/TensorArrayV2_1/num_elements", "op": "Const", "attr": {"value": {"tensor": {"dtype": "DT_INT32", "tensorShape": {}}}, "dtype": {"type": "DT_INT32"}}}, {"name": "StatefulPartitionedCall/BiLSTM_Forecaster_1/bidirectional_2_1/forward_lstm_2_1/zeros/packed/1", "op": "Const", "attr": {"value": {"tensor": {"dtype": "DT_INT32", "tensorShape": {}}}, "dtype": {"type": "DT_INT32"}}}, {"name": "StatefulPartitionedCall/BiLSTM_Forecaster_1/bidirectional_2_1/forward_lstm_2_1/zeros/Const", "op": "Const", "attr": {"value": {"tensor": {"dtype": "DT_FLOAT", "tensorShape": {}}}, "dtype": {"type": "DT_FLOAT"}}}, {"name": "StatefulPartitionedCall/BiLSTM_Forecaster_1/bidirectional_2_1/forward_lstm_2_1/strided_slice/stack", "op": "Const", "attr": {"value": {"tensor": {"dtype": "DT_INT32", "tensorShape": {"dim": [{"size": "1"}]}}}, "dtype": {"type": "DT_INT32"}}}, {"name": "StatefulPartitionedCall/BiLSTM_Forecaster_1/bidirectional_2_1/forward_lstm_2_1/strided_slice/stack_1", "op": "Const", "attr": {"value": {"tensor": {"dtype": "DT_INT32", "tensorShape": {"dim": [{"size": "1"}]}}}, "dtype": {"type": "DT_INT32"}}}, {"name": "StatefulPartitionedCall/BiLSTM_Forecaster_1/bidirectional_2_1/forward_lstm_2_1/strided_slice/stack_2", "op": "Const", "attr": {"value": {"tensor": {"dtype": "DT_INT32", "tensorShape": {"dim": [{"size": "1"}]}}}, "dtype": {"type": "DT_INT32"}}}, {"name": "StatefulPartitionedCall/BiLSTM_Forecaster_1/bidirectional_2_1/forward_lstm_2_1/zeros_1/packed/1", "op": "Const", "attr": {"value": {"tensor": {"dtype": "DT_INT32", "tensorShape": {}}}, "dtype": {"type": "DT_INT32"}}}, {"name": "StatefulPartitionedCall/BiLSTM_Forecaster_1/bidirectional_2_1/forward_lstm_2_1/zeros_1/Const", "op": "Const", "attr": {"value": {"tensor": {"dtype": "DT_FLOAT", "tensorShape": {}}}, "dtype": {"type": "DT_FLOAT"}}}, {"name": "StatefulPartitionedCall/BiLSTM_Forecaster_1/bidirectional_2_1/forward_lstm_2_1/TensorArrayV2Stack/TensorListStack/element_shape", "op": "Const", "attr": {"value": {"tensor": {"dtype": "DT_INT32", "tensorShape": {"dim": [{"size": "2"}]}}}, "dtype": {"type": "DT_INT32"}}}, {"name": "StatefulPartitionedCall/BiLSTM_Forecaster_1/bidirectional_2_1/forward_lstm_2_1/transpose_1/perm", "op": "Const", "attr": {"value": {"tensor": {"dtype": "DT_INT32", "tensorShape": {"dim": [{"size": "3"}]}}}, "dtype": {"type": "DT_INT32"}}}, {"name": "StatefulPartitionedCall/BiLSTM_Forecaster_1/bidirectional_2_1/backward_lstm_2_1/Max", "op": "Const", "attr": {"value": {"tensor": {"dtype": "DT_INT32", "tensorShape": {}}}, "dtype": {"type": "DT_INT32"}}}, {"name": "StatefulPartitionedCall/BiLSTM_Forecaster_1/bidirectional_2_1/backward_lstm_2_1/while/loop_counter", "op": "Const", "attr": {"value": {"tensor": {"dtype": "DT_INT32", "tensorShape": {}}}, "_has_manual_control_dependencies": {"b": true}, "dtype": {"type": "DT_INT32"}}}, {"name": "StatefulPartitionedCall/BiLSTM_Forecaster_1/bidirectional_2_1/backward_lstm_2_1/time", "op": "Const", "attr": {"value": {"tensor": {"dtype": "DT_INT32", "tensorShape": {}}}, "_has_manual_control_dependencies": {"b": true}, "dtype": {"type": "DT_INT32"}}}, {"name": "Func/StatefulPartitionedCall/input/_4", "op": "Const", "attr": {"value": {"tensor": {"dtype": "DT_FLOAT", "tensorShape": {"dim": [{"size": "10"}, {"size": "256"}]}}}, "dtype": {"type": "DT_FLOAT"}}}, {"name": "Func/StatefulPartitionedCall/input/_5", "op": "Const", "attr": {"value": {"tensor": {"dtype": "DT_FLOAT", "tensorShape": {"dim": [{"size": "64"}, {"size": "256"}]}}}, "dtype": {"type": "DT_FLOAT"}}}, {"name": "Func/StatefulPartitionedCall/input/_6", "op": "Const", "attr": {"value": {"tensor": {"dtype": "DT_FLOAT", "tensorShape": {"dim": [{"size": "256"}]}}}, "dtype": {"type": "DT_FLOAT"}}}, {"name": "StatefulPartitionedCall/BiLSTM_Forecaster_1/bidirectional_2_1/backward_lstm_2_1/transpose/perm", "op": "Const", "attr": {"value": {"tensor": {"dtype": "DT_INT32", "tensorShape": {"dim": [{"size": "3"}]}}}, "dtype": {"type": "DT_INT32"}}}, {"name": "StatefulPartitionedCall/BiLSTM_Forecaster_1/bidirectional_2_1/backward_lstm_2_1/ReverseV2/axis", "op": "Const", "attr": {"value": {"tensor": {"dtype": "DT_INT32", "tensorShape": {"dim": [{"size": "1"}]}}}, "dtype": {"type": "DT_INT32"}}}, {"name": "StatefulPartitionedCall/BiLSTM_Forecaster_1/bidirectional_2_1/backward_lstm_2_1/TensorArrayUnstack/TensorListFromTensor/element_shape", "op": "Const", "attr": {"value": {"tensor": {"dtype": "DT_INT32", "tensorShape": {"dim": [{"size": "2"}]}}}, "dtype": {"type": "DT_INT32"}}}, {"name": "StatefulPartitionedCall/BiLSTM_Forecaster_1/bidirectional_2_1/backward_lstm_2_1/TensorArrayV2_1/element_shape", "op": "Const", "attr": {"value": {"tensor": {"dtype": "DT_INT32", "tensorShape": {"dim": [{"size": "2"}]}}}, "dtype": {"type": "DT_INT32"}}}, {"name": "StatefulPartitionedCall/BiLSTM_Forecaster_1/bidirectional_2_1/backward_lstm_2_1/TensorArrayV2_1/num_elements", "op": "Const", "attr": {"value": {"tensor": {"dtype": "DT_INT32", "tensorShape": {}}}, "dtype": {"type": "DT_INT32"}}}, {"name": "StatefulPartitionedCall/BiLSTM_Forecaster_1/bidirectional_2_1/backward_lstm_2_1/zeros/packed/1", "op": "Const", "attr": {"value": {"tensor": {"dtype": "DT_INT32", "tensorShape": {}}}, "dtype": {"type": "DT_INT32"}}}, {"name": "StatefulPartitionedCall/BiLSTM_Forecaster_1/bidirectional_2_1/backward_lstm_2_1/zeros/Const", "op": "Const", "attr": {"value": {"tensor": {"dtype": "DT_FLOAT", "tensorShape": {}}}, "dtype": {"type": "DT_FLOAT"}}}, {"name": "StatefulPartitionedCall/BiLSTM_Forecaster_1/bidirectional_2_1/backward_lstm_2_1/strided_slice/stack", "op": "Const", "attr": {"value": {"tensor": {"dtype": "DT_INT32", "tensorShape": {"dim": [{"size": "1"}]}}}, "dtype": {"type": "DT_INT32"}}}, {"name": "StatefulPartitionedCall/BiLSTM_Forecaster_1/bidirectional_2_1/backward_lstm_2_1/strided_slice/stack_1", "op": "Const", "attr": {"value": {"tensor": {"dtype": "DT_INT32", "tensorShape": {"dim": [{"size": "1"}]}}}, "dtype": {"type": "DT_INT32"}}}, {"name": "StatefulPartitionedCall/BiLSTM_Forecaster_1/bidirectional_2_1/backward_lstm_2_1/strided_slice/stack_2", "op": "Const", "attr": {"value": {"tensor": {"dtype": "DT_INT32", "tensorShape": {"dim": [{"size": "1"}]}}}, "dtype": {"type": "DT_INT32"}}}, {"name": "StatefulPartitionedCall/BiLSTM_Forecaster_1/bidirectional_2_1/backward_lstm_2_1/zeros_1/packed/1", "op": "Const", "attr": {"value": {"tensor": {"dtype": "DT_INT32", "tensorShape": {}}}, "dtype": {"type": "DT_INT32"}}}, {"name": "StatefulPartitionedCall/BiLSTM_Forecaster_1/bidirectional_2_1/backward_lstm_2_1/zeros_1/Const", "op": "Const", "attr": {"value": {"tensor": {"dtype": "DT_FLOAT", "tensorShape": {}}}, "dtype": {"type": "DT_FLOAT"}}}, {"name": "StatefulPartitionedCall/BiLSTM_Forecaster_1/bidirectional_2_1/backward_lstm_2_1/TensorArrayV2Stack/TensorListStack/element_shape", "op": "Const", "attr": {"value": {"tensor": {"dtype": "DT_INT32", "tensorShape": {"dim": [{"size": "2"}]}}}, "dtype": {"type": "DT_INT32"}}}, {"name": "StatefulPartitionedCall/BiLSTM_Forecaster_1/bidirectional_2_1/backward_lstm_2_1/transpose_1/perm", "op": "Const", "attr": {"value": {"tensor": {"dtype": "DT_INT32", "tensorShape": {"dim": [{"size": "3"}]}}}, "dtype": {"type": "DT_INT32"}}}, {"name": "StatefulPartitionedCall/BiLSTM_Forecaster_1/bidirectional_2_1/ReverseV2/axis", "op": "Const", "attr": {"value": {"tensor": {"dtype": "DT_INT32", "tensorShape": {"dim": [{"size": "1"}]}}}, "dtype": {"type": "DT_INT32"}}}, {"name": "StatefulPartitionedCall/BiLSTM_Forecaster_1/bidirectional_2_1/concat/axis", "op": "Const", "attr": {"value": {"tensor": {"dtype": "DT_INT32", "tensorShape": {}}}, "dtype": {"type": "DT_INT32"}}}, {"name": "StatefulPartitionedCall/BiLSTM_Forecaster_1/bidirectional_3_1/forward_lstm_3_1/strided_slice/stack", "op": "Const", "attr": {"value": {"tensor": {"dtype": "DT_INT32", "tensorShape": {"dim": [{"size": "1"}]}}}, "dtype": {"type": "DT_INT32"}}}, {"name": "StatefulPartitionedCall/BiLSTM_Forecaster_1/bidirectional_3_1/forward_lstm_3_1/strided_slice/stack_1", "op": "Const", "attr": {"value": {"tensor": {"dtype": "DT_INT32", "tensorShape": {"dim": [{"size": "1"}]}}}, "dtype": {"type": "DT_INT32"}}}, {"name": "StatefulPartitionedCall/BiLSTM_Forecaster_1/bidirectional_3_1/forward_lstm_3_1/strided_slice/stack_2", "op": "Const", "attr": {"value": {"tensor": {"dtype": "DT_INT32", "tensorShape": {"dim": [{"size": "1"}]}}}, "dtype": {"type": "DT_INT32"}}}, {"name": "StatefulPartitionedCall/BiLSTM_Forecaster_1/bidirectional_3_1/forward_lstm_3_1/zeros_1/packed/1", "op": "Const", "attr": {"value": {"tensor": {"dtype": "DT_INT32", "tensorShape": {}}}, "dtype": {"type": "DT_INT32"}}}, {"name": "StatefulPartitionedCall/BiLSTM_Forecaster_1/bidirectional_3_1/forward_lstm_3_1/zeros_1/Const", "op": "Const", "attr": {"value": {"tensor": {"dtype": "DT_FLOAT", "tensorShape": {}}}, "dtype": {"type": "DT_FLOAT"}}}, {"name": "input_layer_3", "op": "Placeholder", "attr": {"shape": {"shape": {"dim": [{"size": "-1"}, {"size": "128"}, {"size": "10"}]}}, "dtype": {"type": "DT_FLOAT"}}}, {"name": "StatefulPartitionedCall/BiLSTM_Forecaster_1/bidirectional_3_1/backward_lstm_3_1/TensorArrayV2_1", "op": "TensorListReserve", "input": ["StatefulPartitionedCall/BiLSTM_Forecaster_1/bidirectional_3_1/backward_lstm_3_1/TensorArrayV2_1/element_shape", "StatefulPartitionedCall/BiLSTM_Forecaster_1/bidirectional_3_1/backward_lstm_3_1/TensorArrayV2_1/num_elements"], "attr": {"shape_type": {"type": "DT_INT32"}, "_has_manual_control_dependencies": {"b": true}, "element_dtype": {"type": "DT_FLOAT"}}, "experimentalType": {"typeId": "TFT_PRODUCT", "args": [{"typeId": "TFT_ARRAY", "args": [{"typeId": "TFT_TENSOR", "args": [{"typeId": "TFT_FLOAT"}]}]}]}}, {"name": "StatefulPartitionedCall/BiLSTM_Forecaster_1/bidirectional_3_1/forward_lstm_3_1/TensorArrayV2_1", "op": "TensorListReserve", "input": ["StatefulPartitionedCall/BiLSTM_Forecaster_1/bidirectional_3_1/forward_lstm_3_1/TensorArrayV2_1/element_shape", "StatefulPartitionedCall/BiLSTM_Forecaster_1/bidirectional_3_1/forward_lstm_3_1/TensorArrayV2_1/num_elements"], "attr": {"shape_type": {"type": "DT_INT32"}, "_has_manual_control_dependencies": {"b": true}, "element_dtype": {"type": "DT_FLOAT"}}, "experimentalType": {"typeId": "TFT_PRODUCT", "args": [{"typeId": "TFT_ARRAY", "args": [{"typeId": "TFT_TENSOR", "args": [{"typeId": "TFT_FLOAT"}]}]}]}}, {"name": "StatefulPartitionedCall/BiLSTM_Forecaster_1/bidirectional_2_1/forward_lstm_2_1/TensorArrayV2_1", "op": "TensorListReserve", "input": ["StatefulPartitionedCall/BiLSTM_Forecaster_1/bidirectional_2_1/forward_lstm_2_1/TensorArrayV2_1/element_shape", "StatefulPartitionedCall/BiLSTM_Forecaster_1/bidirectional_2_1/forward_lstm_2_1/TensorArrayV2_1/num_elements"], "attr": {"shape_type": {"type": "DT_INT32"}, "_has_manual_control_dependencies": {"b": true}, "element_dtype": {"type": "DT_FLOAT"}}, "experimentalType": {"typeId": "TFT_PRODUCT", "args": [{"typeId": "TFT_ARRAY", "args": [{"typeId": "TFT_TENSOR", "args": [{"typeId": "TFT_FLOAT"}]}]}]}}, {"name": "StatefulPartitionedCall/BiLSTM_Forecaster_1/bidirectional_2_1/backward_lstm_2_1/TensorArrayV2_1", "op": "TensorListReserve", "input": ["StatefulPartitionedCall/BiLSTM_Forecaster_1/bidirectional_2_1/backward_lstm_2_1/TensorArrayV2_1/element_shape", "StatefulPartitionedCall/BiLSTM_Forecaster_1/bidirectional_2_1/backward_lstm_2_1/TensorArrayV2_1/num_elements"], "attr": {"shape_type": {"type": "DT_INT32"}, "_has_manual_control_dependencies": {"b": true}, "element_dtype": {"type": "DT_FLOAT"}}, "experimentalType": {"typeId": "TFT_PRODUCT", "args": [{"typeId": "TFT_ARRAY", "args": [{"typeId": "TFT_TENSOR", "args": [{"typeId": "TFT_FLOAT"}]}]}]}}, {"name": "StatefulPartitionedCall/BiLSTM_Forecaster_1/bidirectional_2_1/forward_lstm_2_1/transpose", "op": "Transpose", "input": ["input_layer_3", "StatefulPartitionedCall/BiLSTM_Forecaster_1/bidirectional_2_1/forward_lstm_2_1/transpose/perm"], "attr": {"Tperm": {"type": "DT_INT32"}, "T": {"type": "DT_FLOAT"}}}, {"name": "StatefulPartitionedCall/BiLSTM_Forecaster_1/bidirectional_2_1/forward_lstm_2_1/Shape", "op": "Shape", "input": ["input_layer_3"], "attr": {"T": {"type": "DT_FLOAT"}, "out_type": {"type": "DT_INT32"}}, "experimentalType": {"typeId": "TFT_PRODUCT", "args": [{"typeId": "TFT_SHAPE_TENSOR", "args": [{"typeId": "TFT_INT32"}]}]}}, {"name": "StatefulPartitionedCall/BiLSTM_Forecaster_1/bidirectional_2_1/backward_lstm_2_1/transpose", "op": "Transpose", "input": ["input_layer_3", "StatefulPartitionedCall/BiLSTM_Forecaster_1/bidirectional_2_1/backward_lstm_2_1/transpose/perm"], "attr": {"Tperm": {"type": "DT_INT32"}, "T": {"type": "DT_FLOAT"}}}, {"name": "StatefulPartitionedCall/BiLSTM_Forecaster_1/bidirectional_2_1/backward_lstm_2_1/Shape", "op": "Shape", "input": ["input_layer_3"], "attr": {"T": {"type": "DT_FLOAT"}, "out_type": {"type": "DT_INT32"}}, "experimentalType": {"typeId": "TFT_PRODUCT", "args": [{"typeId": "TFT_SHAPE_TENSOR", "args": [{"typeId": "TFT_INT32"}]}]}}, {"name": "StatefulPartitionedCall/BiLSTM_Forecaster_1/bidirectional_2_1/forward_lstm_2_1/TensorArrayUnstack/TensorListFromTensor", "op": "TensorListFromTensor", "input": ["StatefulPartitionedCall/BiLSTM_Forecaster_1/bidirectional_2_1/forward_lstm_2_1/transpose", "StatefulPartitionedCall/BiLSTM_Forecaster_1/bidirectional_2_1/forward_lstm_2_1/TensorArrayUnstack/TensorListFromTensor/element_shape"], "attr": {"shape_type": {"type": "DT_INT32"}, "_has_manual_control_dependencies": {"b": true}, "element_dtype": {"type": "DT_FLOAT"}}, "experimentalType": {"typeId": "TFT_PRODUCT", "args": [{"typeId": "TFT_ARRAY", "args": [{"typeId": "TFT_TENSOR", "args": [{"typeId": "TFT_FLOAT"}]}]}]}}, {"name": "StatefulPartitionedCall/BiLSTM_Forecaster_1/bidirectional_2_1/forward_lstm_2_1/strided_slice", "op": "StridedSlice", "input": ["StatefulPartitionedCall/BiLSTM_Forecaster_1/bidirectional_2_1/forward_lstm_2_1/Shape", "StatefulPartitionedCall/BiLSTM_Forecaster_1/bidirectional_2_1/forward_lstm_2_1/strided_slice/stack", "StatefulPartitionedCall/BiLSTM_Forecaster_1/bidirectional_2_1/forward_lstm_2_1/strided_slice/stack_1", "StatefulPartitionedCall/BiLSTM_Forecaster_1/bidirectional_2_1/forward_lstm_2_1/strided_slice/stack_2"], "attr": {"shrink_axis_mask": {"i": "1"}, "new_axis_mask": {"i": "0"}, "Index": {"type": "DT_INT32"}, "begin_mask": {"i": "0"}, "T": {"type": "DT_INT32"}, "end_mask": {"i": "0"}, "ellipsis_mask": {"i": "0"}}}, {"name": "StatefulPartitionedCall/BiLSTM_Forecaster_1/bidirectional_2_1/backward_lstm_2_1/ReverseV2", "op": "ReverseV2", "input": ["StatefulPartitionedCall/BiLSTM_Forecaster_1/bidirectional_2_1/backward_lstm_2_1/transpose", "StatefulPartitionedCall/BiLSTM_Forecaster_1/bidirectional_2_1/backward_lstm_2_1/ReverseV2/axis"], "attr": {"T": {"type": "DT_FLOAT"}, "Tidx": {"type": "DT_INT32"}}}, {"name": "StatefulPartitionedCall/BiLSTM_Forecaster_1/bidirectional_2_1/backward_lstm_2_1/strided_slice", "op": "StridedSlice", "input": ["StatefulPartitionedCall/BiLSTM_Forecaster_1/bidirectional_2_1/backward_lstm_2_1/Shape", "StatefulPartitionedCall/BiLSTM_Forecaster_1/bidirectional_2_1/backward_lstm_2_1/strided_slice/stack", "StatefulPartitionedCall/BiLSTM_Forecaster_1/bidirectional_2_1/backward_lstm_2_1/strided_slice/stack_1", "StatefulPartitionedCall/BiLSTM_Forecaster_1/bidirectional_2_1/backward_lstm_2_1/strided_slice/stack_2"], "attr": {"shrink_axis_mask": {"i": "1"}, "Index": {"type": "DT_INT32"}, "new_axis_mask": {"i": "0"}, "begin_mask": {"i": "0"}, "end_mask": {"i": "0"}, "T": {"type": "DT_INT32"}, "ellipsis_mask": {"i": "0"}}}, {"name": "StatefulPartitionedCall/BiLSTM_Forecaster_1/bidirectional_2_1/forward_lstm_2_1/zeros/packed", "op": "Pack", "input": ["StatefulPartitionedCall/BiLSTM_Forecaster_1/bidirectional_2_1/forward_lstm_2_1/strided_slice", "StatefulPartitionedCall/BiLSTM_Forecaster_1/bidirectional_2_1/forward_lstm_2_1/zeros/packed/1"], "attr": {"N": {"i": "2"}, "axis": {"i": "0"}, "T": {"type": "DT_INT32"}}}, {"name": "StatefulPartitionedCall/BiLSTM_Forecaster_1/bidirectional_2_1/forward_lstm_2_1/zeros_1/packed", "op": "Pack", "input": ["StatefulPartitionedCall/BiLSTM_Forecaster_1/bidirectional_2_1/forward_lstm_2_1/strided_slice", "StatefulPartitionedCall/BiLSTM_Forecaster_1/bidirectional_2_1/forward_lstm_2_1/zeros_1/packed/1"], "attr": {"N": {"i": "2"}, "axis": {"i": "0"}, "T": {"type": "DT_INT32"}}}, {"name": "StatefulPartitionedCall/BiLSTM_Forecaster_1/bidirectional_2_1/backward_lstm_2_1/TensorArrayUnstack/TensorListFromTensor", "op": "TensorListFromTensor", "input": ["StatefulPartitionedCall/BiLSTM_Forecaster_1/bidirectional_2_1/backward_lstm_2_1/ReverseV2", "StatefulPartitionedCall/BiLSTM_Forecaster_1/bidirectional_2_1/backward_lstm_2_1/TensorArrayUnstack/TensorListFromTensor/element_shape"], "attr": {"shape_type": {"type": "DT_INT32"}, "_has_manual_control_dependencies": {"b": true}, "element_dtype": {"type": "DT_FLOAT"}}, "experimentalType": {"typeId": "TFT_PRODUCT", "args": [{"typeId": "TFT_ARRAY", "args": [{"typeId": "TFT_TENSOR", "args": [{"typeId": "TFT_FLOAT"}]}]}]}}, {"name": "StatefulPartitionedCall/BiLSTM_Forecaster_1/bidirectional_2_1/backward_lstm_2_1/zeros/packed", "op": "Pack", "input": ["StatefulPartitionedCall/BiLSTM_Forecaster_1/bidirectional_2_1/backward_lstm_2_1/strided_slice", "StatefulPartitionedCall/BiLSTM_Forecaster_1/bidirectional_2_1/backward_lstm_2_1/zeros/packed/1"], "attr": {"N": {"i": "2"}, "axis": {"i": "0"}, "T": {"type": "DT_INT32"}}}, {"name": "StatefulPartitionedCall/BiLSTM_Forecaster_1/bidirectional_2_1/backward_lstm_2_1/zeros_1/packed", "op": "Pack", "input": ["StatefulPartitionedCall/BiLSTM_Forecaster_1/bidirectional_2_1/backward_lstm_2_1/strided_slice", "StatefulPartitionedCall/BiLSTM_Forecaster_1/bidirectional_2_1/backward_lstm_2_1/zeros_1/packed/1"], "attr": {"N": {"i": "2"}, "axis": {"i": "0"}, "T": {"type": "DT_INT32"}}}, {"name": "StatefulPartitionedCall/BiLSTM_Forecaster_1/bidirectional_2_1/forward_lstm_2_1/zeros", "op": "Fill", "input": ["StatefulPartitionedCall/BiLSTM_Forecaster_1/bidirectional_2_1/forward_lstm_2_1/zeros/packed", "StatefulPartitionedCall/BiLSTM_Forecaster_1/bidirectional_2_1/forward_lstm_2_1/zeros/Const"], "attr": {"_has_manual_control_dependencies": {"b": true}, "T": {"type": "DT_FLOAT"}, "index_type": {"type": "DT_INT32"}}}, {"name": "StatefulPartitionedCall/BiLSTM_Forecaster_1/bidirectional_2_1/forward_lstm_2_1/zeros_1", "op": "Fill", "input": ["StatefulPartitionedCall/BiLSTM_Forecaster_1/bidirectional_2_1/forward_lstm_2_1/zeros_1/packed", "StatefulPartitionedCall/BiLSTM_Forecaster_1/bidirectional_2_1/forward_lstm_2_1/zeros_1/Const"], "attr": {"_has_manual_control_dependencies": {"b": true}, "T": {"type": "DT_FLOAT"}, "index_type": {"type": "DT_INT32"}}}, {"name": "StatefulPartitionedCall/BiLSTM_Forecaster_1/bidirectional_2_1/backward_lstm_2_1/zeros", "op": "Fill", "input": ["StatefulPartitionedCall/BiLSTM_Forecaster_1/bidirectional_2_1/backward_lstm_2_1/zeros/packed", "StatefulPartitionedCall/BiLSTM_Forecaster_1/bidirectional_2_1/backward_lstm_2_1/zeros/Const"], "attr": {"_has_manual_control_dependencies": {"b": true}, "T": {"type": "DT_FLOAT"}, "index_type": {"type": "DT_INT32"}}}, {"name": "StatefulPartitionedCall/BiLSTM_Forecaster_1/bidirectional_2_1/backward_lstm_2_1/zeros_1", "op": "Fill", "input": ["StatefulPartitionedCall/BiLSTM_Forecaster_1/bidirectional_2_1/backward_lstm_2_1/zeros_1/packed", "StatefulPartitionedCall/BiLSTM_Forecaster_1/bidirectional_2_1/backward_lstm_2_1/zeros_1/Const"], "attr": {"_has_manual_control_dependencies": {"b": true}, "T": {"type": "DT_FLOAT"}, "index_type": {"type": "DT_INT32"}}}, {"name": "StatefulPartitionedCall/BiLSTM_Forecaster_1/bidirectional_2_1/forward_lstm_2_1/while/LoopControlInputs/_34", "op": "NoOp", "input": [], "attr": {"_has_manual_control_dependencies": {"b": true}}}, {"name": "StatefulPartitionedCall/BiLSTM_Forecaster_1/bidirectional_2_1/backward_lstm_2_1/while/LoopControlInputs/_78", "op": "NoOp", "input": [], "attr": {"_has_manual_control_dependencies": {"b": true}}}, {"name": "StatefulPartitionedCall/BiLSTM_Forecaster_1/bidirectional_2_1/forward_lstm_2_1/while/enter/_27", "op": "Enter", "input": ["StatefulPartitionedCall/BiLSTM_Forecaster_1/bidirectional_2_1/forward_lstm_2_1/TensorArrayV2_1"], "attr": {"is_constant": {"b": false}, "frame_name": {"s": "U3RhdGVmdWxQYXJ0aXRpb25lZENhbGwvQmlMU1RNX0ZvcmVjYXN0ZXJfMS9iaWRpcmVjdGlvbmFsXzJfMS9mb3J3YXJkX2xzdG1fMl8xL3doaWxl"}, "T": {"type": "DT_VARIANT"}, "parallel_iterations": {"i": "32"}}}, {"name": "StatefulPartitionedCall/BiLSTM_Forecaster_1/bidirectional_2_1/forward_lstm_2_1/while/enter/_30", "op": "Enter", "input": ["StatefulPartitionedCall/BiLSTM_Forecaster_1/bidirectional_2_1/forward_lstm_2_1/TensorArrayUnstack/TensorListFromTensor"], "attr": {"is_constant": {"b": false}, "frame_name": {"s": "U3RhdGVmdWxQYXJ0aXRpb25lZENhbGwvQmlMU1RNX0ZvcmVjYXN0ZXJfMS9iaWRpcmVjdGlvbmFsXzJfMS9mb3J3YXJkX2xzdG1fMl8xL3doaWxl"}, "T": {"type": "DT_VARIANT"}, "parallel_iterations": {"i": "32"}}}, {"name": "StatefulPartitionedCall/BiLSTM_Forecaster_1/bidirectional_2_1/forward_lstm_2_1/while/enter/_25", "op": "Enter", "input": ["StatefulPartitionedCall/BiLSTM_Forecaster_1/bidirectional_2_1/forward_lstm_2_1/Max"], "attr": {"is_constant": {"b": false}, "frame_name": {"s": "U3RhdGVmdWxQYXJ0aXRpb25lZENhbGwvQmlMU1RNX0ZvcmVjYXN0ZXJfMS9iaWRpcmVjdGlvbmFsXzJfMS9mb3J3YXJkX2xzdG1fMl8xL3doaWxl"}, "T": {"type": "DT_INT32"}, "parallel_iterations": {"i": "32"}}}, {"name": "StatefulPartitionedCall/BiLSTM_Forecaster_1/bidirectional_2_1/forward_lstm_2_1/while/enter/_24", "op": "Enter", "input": ["StatefulPartitionedCall/BiLSTM_Forecaster_1/bidirectional_2_1/forward_lstm_2_1/while/loop_counter"], "attr": {"is_constant": {"b": false}, "frame_name": {"s": "U3RhdGVmdWxQYXJ0aXRpb25lZENhbGwvQmlMU1RNX0ZvcmVjYXN0ZXJfMS9iaWRpcmVjdGlvbmFsXzJfMS9mb3J3YXJkX2xzdG1fMl8xL3doaWxl"}, "T": {"type": "DT_INT32"}, "parallel_iterations": {"i": "32"}}}, {"name": "StatefulPartitionedCall/BiLSTM_Forecaster_1/bidirectional_2_1/forward_lstm_2_1/while/enter/_28", "op": "Enter", "input": ["StatefulPartitionedCall/BiLSTM_Forecaster_1/bidirectional_2_1/forward_lstm_2_1/zeros"], "attr": {"is_constant": {"b": false}, "frame_name": {"s": "U3RhdGVmdWxQYXJ0aXRpb25lZENhbGwvQmlMU1RNX0ZvcmVjYXN0ZXJfMS9iaWRpcmVjdGlvbmFsXzJfMS9mb3J3YXJkX2xzdG1fMl8xL3doaWxl"}, "T": {"type": "DT_FLOAT"}, "parallel_iterations": {"i": "32"}}}, {"name": "StatefulPartitionedCall/BiLSTM_Forecaster_1/bidirectional_2_1/forward_lstm_2_1/while/enter/_29", "op": "Enter", "input": ["StatefulPartitionedCall/BiLSTM_Forecaster_1/bidirectional_2_1/forward_lstm_2_1/zeros_1"], "attr": {"is_constant": {"b": false}, "frame_name": {"s": "U3RhdGVmdWxQYXJ0aXRpb25lZENhbGwvQmlMU1RNX0ZvcmVjYXN0ZXJfMS9iaWRpcmVjdGlvbmFsXzJfMS9mb3J3YXJkX2xzdG1fMl8xL3doaWxl"}, "T": {"type": "DT_FLOAT"}, "parallel_iterations": {"i": "32"}}}, {"name": "StatefulPartitionedCall/BiLSTM_Forecaster_1/bidirectional_2_1/forward_lstm_2_1/while/enter/_26", "op": "Enter", "input": ["StatefulPartitionedCall/BiLSTM_Forecaster_1/bidirectional_2_1/forward_lstm_2_1/time"], "attr": {"is_constant": {"b": false}, "frame_name": {"s": "U3RhdGVmdWxQYXJ0aXRpb25lZENhbGwvQmlMU1RNX0ZvcmVjYXN0ZXJfMS9iaWRpcmVjdGlvbmFsXzJfMS9mb3J3YXJkX2xzdG1fMl8xL3doaWxl"}, "T": {"type": "DT_INT32"}, "parallel_iterations": {"i": "32"}}}, {"name": "StatefulPartitionedCall/BiLSTM_Forecaster_1/bidirectional_2_1/forward_lstm_2_1/while/enter/_31", "op": "Enter", "input": ["Func/StatefulPartitionedCall/input/_1"], "attr": {"is_constant": {"b": true}, "_has_manual_control_dependencies": {"b": true}, "T": {"type": "DT_FLOAT"}, "frame_name": {"s": "U3RhdGVmdWxQYXJ0aXRpb25lZENhbGwvQmlMU1RNX0ZvcmVjYXN0ZXJfMS9iaWRpcmVjdGlvbmFsXzJfMS9mb3J3YXJkX2xzdG1fMl8xL3doaWxl"}, "parallel_iterations": {"i": "32"}}}, {"name": "StatefulPartitionedCall/BiLSTM_Forecaster_1/bidirectional_2_1/forward_lstm_2_1/while/enter/_32", "op": "Enter", "input": ["Func/StatefulPartitionedCall/input/_2"], "attr": {"is_constant": {"b": true}, "_has_manual_control_dependencies": {"b": true}, "T": {"type": "DT_FLOAT"}, "frame_name": {"s": "U3RhdGVmdWxQYXJ0aXRpb25lZENhbGwvQmlMU1RNX0ZvcmVjYXN0ZXJfMS9iaWRpcmVjdGlvbmFsXzJfMS9mb3J3YXJkX2xzdG1fMl8xL3doaWxl"}, "parallel_iterations": {"i": "32"}}}, {"name": "StatefulPartitionedCall/BiLSTM_Forecaster_1/bidirectional_2_1/forward_lstm_2_1/while/enter/_33", "op": "Enter", "input": ["Func/StatefulPartitionedCall/input/_3"], "attr": {"is_constant": {"b": true}, "_has_manual_control_dependencies": {"b": true}, "T": {"type": "DT_FLOAT"}, "frame_name": {"s": "U3RhdGVmdWxQYXJ0aXRpb25lZENhbGwvQmlMU1RNX0ZvcmVjYXN0ZXJfMS9iaWRpcmVjdGlvbmFsXzJfMS9mb3J3YXJkX2xzdG1fMl8xL3doaWxl"}, "parallel_iterations": {"i": "32"}}}, {"name": "StatefulPartitionedCall/BiLSTM_Forecaster_1/bidirectional_2_1/backward_lstm_2_1/while/enter/_71", "op": "Enter", "input": ["StatefulPartitionedCall/BiLSTM_Forecaster_1/bidirectional_2_1/backward_lstm_2_1/TensorArrayV2_1"], "attr": {"is_constant": {"b": false}, "frame_name": {"s": "U3RhdGVmdWxQYXJ0aXRpb25lZENhbGwvQmlMU1RNX0ZvcmVjYXN0ZXJfMS9iaWRpcmVjdGlvbmFsXzJfMS9iYWNrd2FyZF9sc3RtXzJfMS93aGlsZQ=="}, "T": {"type": "DT_VARIANT"}, "parallel_iterations": {"i": "32"}}}, {"name": "StatefulPartitionedCall/BiLSTM_Forecaster_1/bidirectional_2_1/backward_lstm_2_1/while/enter/_74", "op": "Enter", "input": ["StatefulPartitionedCall/BiLSTM_Forecaster_1/bidirectional_2_1/backward_lstm_2_1/TensorArrayUnstack/TensorListFromTensor"], "attr": {"is_constant": {"b": false}, "frame_name": {"s": "U3RhdGVmdWxQYXJ0aXRpb25lZENhbGwvQmlMU1RNX0ZvcmVjYXN0ZXJfMS9iaWRpcmVjdGlvbmFsXzJfMS9iYWNrd2FyZF9sc3RtXzJfMS93aGlsZQ=="}, "T": {"type": "DT_VARIANT"}, "parallel_iterations": {"i": "32"}}}, {"name": "StatefulPartitionedCall/BiLSTM_Forecaster_1/bidirectional_2_1/backward_lstm_2_1/while/enter/_69", "op": "Enter", "input": ["StatefulPartitionedCall/BiLSTM_Forecaster_1/bidirectional_2_1/backward_lstm_2_1/Max"], "attr": {"is_constant": {"b": false}, "frame_name": {"s": "U3RhdGVmdWxQYXJ0aXRpb25lZENhbGwvQmlMU1RNX0ZvcmVjYXN0ZXJfMS9iaWRpcmVjdGlvbmFsXzJfMS9iYWNrd2FyZF9sc3RtXzJfMS93aGlsZQ=="}, "T": {"type": "DT_INT32"}, "parallel_iterations": {"i": "32"}}}, {"name": "StatefulPartitionedCall/BiLSTM_Forecaster_1/bidirectional_2_1/backward_lstm_2_1/while/enter/_68", "op": "Enter", "input": ["StatefulPartitionedCall/BiLSTM_Forecaster_1/bidirectional_2_1/backward_lstm_2_1/while/loop_counter"], "attr": {"is_constant": {"b": false}, "frame_name": {"s": "U3RhdGVmdWxQYXJ0aXRpb25lZENhbGwvQmlMU1RNX0ZvcmVjYXN0ZXJfMS9iaWRpcmVjdGlvbmFsXzJfMS9iYWNrd2FyZF9sc3RtXzJfMS93aGlsZQ=="}, "T": {"type": "DT_INT32"}, "parallel_iterations": {"i": "32"}}}, {"name": "StatefulPartitionedCall/BiLSTM_Forecaster_1/bidirectional_2_1/backward_lstm_2_1/while/enter/_72", "op": "Enter", "input": ["StatefulPartitionedCall/BiLSTM_Forecaster_1/bidirectional_2_1/backward_lstm_2_1/zeros"], "attr": {"is_constant": {"b": false}, "frame_name": {"s": "U3RhdGVmdWxQYXJ0aXRpb25lZENhbGwvQmlMU1RNX0ZvcmVjYXN0ZXJfMS9iaWRpcmVjdGlvbmFsXzJfMS9iYWNrd2FyZF9sc3RtXzJfMS93aGlsZQ=="}, "T": {"type": "DT_FLOAT"}, "parallel_iterations": {"i": "32"}}}, {"name": "StatefulPartitionedCall/BiLSTM_Forecaster_1/bidirectional_2_1/backward_lstm_2_1/while/enter/_73", "op": "Enter", "input": ["StatefulPartitionedCall/BiLSTM_Forecaster_1/bidirectional_2_1/backward_lstm_2_1/zeros_1"], "attr": {"is_constant": {"b": false}, "frame_name": {"s": "U3RhdGVmdWxQYXJ0aXRpb25lZENhbGwvQmlMU1RNX0ZvcmVjYXN0ZXJfMS9iaWRpcmVjdGlvbmFsXzJfMS9iYWNrd2FyZF9sc3RtXzJfMS93aGlsZQ=="}, "T": {"type": "DT_FLOAT"}, "parallel_iterations": {"i": "32"}}}, {"name": "StatefulPartitionedCall/BiLSTM_Forecaster_1/bidirectional_2_1/backward_lstm_2_1/while/enter/_70", "op": "Enter", "input": ["StatefulPartitionedCall/BiLSTM_Forecaster_1/bidirectional_2_1/backward_lstm_2_1/time"], "attr": {"is_constant": {"b": false}, "frame_name": {"s": "U3RhdGVmdWxQYXJ0aXRpb25lZENhbGwvQmlMU1RNX0ZvcmVjYXN0ZXJfMS9iaWRpcmVjdGlvbmFsXzJfMS9iYWNrd2FyZF9sc3RtXzJfMS93aGlsZQ=="}, "T": {"type": "DT_INT32"}, "parallel_iterations": {"i": "32"}}}, {"name": "StatefulPartitionedCall/BiLSTM_Forecaster_1/bidirectional_2_1/backward_lstm_2_1/while/enter/_75", "op": "Enter", "input": ["Func/StatefulPartitionedCall/input/_4"], "attr": {"is_constant": {"b": true}, "frame_name": {"s": "U3RhdGVmdWxQYXJ0aXRpb25lZENhbGwvQmlMU1RNX0ZvcmVjYXN0ZXJfMS9iaWRpcmVjdGlvbmFsXzJfMS9iYWNrd2FyZF9sc3RtXzJfMS93aGlsZQ=="}, "T": {"type": "DT_FLOAT"}, "_has_manual_control_dependencies": {"b": true}, "parallel_iterations": {"i": "32"}}}, {"name": "StatefulPartitionedCall/BiLSTM_Forecaster_1/bidirectional_2_1/backward_lstm_2_1/while/enter/_76", "op": "Enter", "input": ["Func/StatefulPartitionedCall/input/_5"], "attr": {"is_constant": {"b": true}, "frame_name": {"s": "U3RhdGVmdWxQYXJ0aXRpb25lZENhbGwvQmlMU1RNX0ZvcmVjYXN0ZXJfMS9iaWRpcmVjdGlvbmFsXzJfMS9iYWNrd2FyZF9sc3RtXzJfMS93aGlsZQ=="}, "T": {"type": "DT_FLOAT"}, "_has_manual_control_dependencies": {"b": true}, "parallel_iterations": {"i": "32"}}}, {"name": "StatefulPartitionedCall/BiLSTM_Forecaster_1/bidirectional_2_1/backward_lstm_2_1/while/enter/_77", "op": "Enter", "input": ["Func/StatefulPartitionedCall/input/_6"], "attr": {"is_constant": {"b": true}, "_has_manual_control_dependencies": {"b": true}, "T": {"type": "DT_FLOAT"}, "frame_name": {"s": "U3RhdGVmdWxQYXJ0aXRpb25lZENhbGwvQmlMU1RNX0ZvcmVjYXN0ZXJfMS9iaWRpcmVjdGlvbmFsXzJfMS9iYWNrd2FyZF9sc3RtXzJfMS93aGlsZQ=="}, "parallel_iterations": {"i": "32"}}}, {"name": "StatefulPartitionedCall/BiLSTM_Forecaster_1/bidirectional_2_1/forward_lstm_2_1/while/merge/_38", "op": "Merge", "input": ["StatefulPartitionedCall/BiLSTM_Forecaster_1/bidirectional_2_1/forward_lstm_2_1/while/enter/_27", "StatefulPartitionedCall/BiLSTM_Forecaster_1/bidirectional_2_1/forward_lstm_2_1/while/next_iteration/_62"], "attr": {"N": {"i": "2"}, "_has_manual_control_dependencies": {"b": true}, "T": {"type": "DT_VARIANT"}}}, {"name": "StatefulPartitionedCall/BiLSTM_Forecaster_1/bidirectional_2_1/forward_lstm_2_1/while/merge/_41", "op": "Merge", "input": ["StatefulPartitionedCall/BiLSTM_Forecaster_1/bidirectional_2_1/forward_lstm_2_1/while/enter/_30", "StatefulPartitionedCall/BiLSTM_Forecaster_1/bidirectional_2_1/forward_lstm_2_1/while/next_iteration/_65"], "attr": {"N": {"i": "2"}, "_has_manual_control_dependencies": {"b": true}, "T": {"type": "DT_VARIANT"}}}, {"name": "StatefulPartitionedCall/BiLSTM_Forecaster_1/bidirectional_2_1/forward_lstm_2_1/while/merge/_36", "op": "Merge", "input": ["StatefulPartitionedCall/BiLSTM_Forecaster_1/bidirectional_2_1/forward_lstm_2_1/while/enter/_25", "StatefulPartitionedCall/BiLSTM_Forecaster_1/bidirectional_2_1/forward_lstm_2_1/while/next_iteration/_60"], "attr": {"N": {"i": "2"}, "_has_manual_control_dependencies": {"b": true}, "T": {"type": "DT_INT32"}}}, {"name": "StatefulPartitionedCall/BiLSTM_Forecaster_1/bidirectional_2_1/forward_lstm_2_1/while/merge/_35", "op": "Merge", "input": ["StatefulPartitionedCall/BiLSTM_Forecaster_1/bidirectional_2_1/forward_lstm_2_1/while/enter/_24", "StatefulPartitionedCall/BiLSTM_Forecaster_1/bidirectional_2_1/forward_lstm_2_1/while/next_iteration/_59"], "attr": {"N": {"i": "2"}, "_has_manual_control_dependencies": {"b": true}, "T": {"type": "DT_INT32"}}}, {"name": "StatefulPartitionedCall/BiLSTM_Forecaster_1/bidirectional_2_1/forward_lstm_2_1/while/merge/_39", "op": "Merge", "input": ["StatefulPartitionedCall/BiLSTM_Forecaster_1/bidirectional_2_1/forward_lstm_2_1/while/enter/_28", "StatefulPartitionedCall/BiLSTM_Forecaster_1/bidirectional_2_1/forward_lstm_2_1/while/next_iteration/_63"], "attr": {"N": {"i": "2"}, "_has_manual_control_dependencies": {"b": true}, "T": {"type": "DT_FLOAT"}}}, {"name": "StatefulPartitionedCall/BiLSTM_Forecaster_1/bidirectional_2_1/forward_lstm_2_1/while/merge/_40", "op": "Merge", "input": ["StatefulPartitionedCall/BiLSTM_Forecaster_1/bidirectional_2_1/forward_lstm_2_1/while/enter/_29", "StatefulPartitionedCall/BiLSTM_Forecaster_1/bidirectional_2_1/forward_lstm_2_1/while/next_iteration/_64"], "attr": {"N": {"i": "2"}, "_has_manual_control_dependencies": {"b": true}, "T": {"type": "DT_FLOAT"}}}, {"name": "StatefulPartitionedCall/BiLSTM_Forecaster_1/bidirectional_2_1/forward_lstm_2_1/while/merge/_37", "op": "Merge", "input": ["StatefulPartitionedCall/BiLSTM_Forecaster_1/bidirectional_2_1/forward_lstm_2_1/while/enter/_26", "StatefulPartitionedCall/BiLSTM_Forecaster_1/bidirectional_2_1/forward_lstm_2_1/while/next_iteration/_61"], "attr": {"N": {"i": "2"}, "_has_manual_control_dependencies": {"b": true}, "T": {"type": "DT_INT32"}}}, {"name": "StatefulPartitionedCall/BiLSTM_Forecaster_1/bidirectional_2_1/backward_lstm_2_1/while/merge/_82", "op": "Merge", "input": ["StatefulPartitionedCall/BiLSTM_Forecaster_1/bidirectional_2_1/backward_lstm_2_1/while/enter/_71", "StatefulPartitionedCall/BiLSTM_Forecaster_1/bidirectional_2_1/backward_lstm_2_1/while/next_iteration/_106"], "attr": {"N": {"i": "2"}, "_has_manual_control_dependencies": {"b": true}, "T": {"type": "DT_VARIANT"}}}, {"name": "StatefulPartitionedCall/BiLSTM_Forecaster_1/bidirectional_2_1/backward_lstm_2_1/while/merge/_85", "op": "Merge", "input": ["StatefulPartitionedCall/BiLSTM_Forecaster_1/bidirectional_2_1/backward_lstm_2_1/while/enter/_74", "StatefulPartitionedCall/BiLSTM_Forecaster_1/bidirectional_2_1/backward_lstm_2_1/while/next_iteration/_109"], "attr": {"N": {"i": "2"}, "_has_manual_control_dependencies": {"b": true}, "T": {"type": "DT_VARIANT"}}}, {"name": "StatefulPartitionedCall/BiLSTM_Forecaster_1/bidirectional_2_1/backward_lstm_2_1/while/merge/_80", "op": "Merge", "input": ["StatefulPartitionedCall/BiLSTM_Forecaster_1/bidirectional_2_1/backward_lstm_2_1/while/enter/_69", "StatefulPartitionedCall/BiLSTM_Forecaster_1/bidirectional_2_1/backward_lstm_2_1/while/next_iteration/_104"], "attr": {"N": {"i": "2"}, "_has_manual_control_dependencies": {"b": true}, "T": {"type": "DT_INT32"}}}, {"name": "StatefulPartitionedCall/BiLSTM_Forecaster_1/bidirectional_2_1/backward_lstm_2_1/while/merge/_79", "op": "Merge", "input": ["StatefulPartitionedCall/BiLSTM_Forecaster_1/bidirectional_2_1/backward_lstm_2_1/while/enter/_68", "StatefulPartitionedCall/BiLSTM_Forecaster_1/bidirectional_2_1/backward_lstm_2_1/while/next_iteration/_103"], "attr": {"N": {"i": "2"}, "_has_manual_control_dependencies": {"b": true}, "T": {"type": "DT_INT32"}}}, {"name": "StatefulPartitionedCall/BiLSTM_Forecaster_1/bidirectional_2_1/backward_lstm_2_1/while/merge/_83", "op": "Merge", "input": ["StatefulPartitionedCall/BiLSTM_Forecaster_1/bidirectional_2_1/backward_lstm_2_1/while/enter/_72", "StatefulPartitionedCall/BiLSTM_Forecaster_1/bidirectional_2_1/backward_lstm_2_1/while/next_iteration/_107"], "attr": {"N": {"i": "2"}, "_has_manual_control_dependencies": {"b": true}, "T": {"type": "DT_FLOAT"}}}, {"name": "StatefulPartitionedCall/BiLSTM_Forecaster_1/bidirectional_2_1/backward_lstm_2_1/while/merge/_84", "op": "Merge", "input": ["StatefulPartitionedCall/BiLSTM_Forecaster_1/bidirectional_2_1/backward_lstm_2_1/while/enter/_73", "StatefulPartitionedCall/BiLSTM_Forecaster_1/bidirectional_2_1/backward_lstm_2_1/while/next_iteration/_108"], "attr": {"N": {"i": "2"}, "_has_manual_control_dependencies": {"b": true}, "T": {"type": "DT_FLOAT"}}}, {"name": "StatefulPartitionedCall/BiLSTM_Forecaster_1/bidirectional_2_1/backward_lstm_2_1/while/merge/_81", "op": "Merge", "input": ["StatefulPartitionedCall/BiLSTM_Forecaster_1/bidirectional_2_1/backward_lstm_2_1/while/enter/_70", "StatefulPartitionedCall/BiLSTM_Forecaster_1/bidirectional_2_1/backward_lstm_2_1/while/next_iteration/_105"], "attr": {"N": {"i": "2"}, "_has_manual_control_dependencies": {"b": true}, "T": {"type": "DT_INT32"}}}, {"name": "Func/StatefulPartitionedCall/BiLSTM_Forecaster_1/bidirectional_2_1/forward_lstm_2_1/while/cond/_22/input_control_node/_198", "op": "NoOp", "input": [], "attr": {"_has_manual_control_dependencies": {"b": true}}}, {"name": "Func/StatefulPartitionedCall/BiLSTM_Forecaster_1/bidirectional_2_1/backward_lstm_2_1/while/cond/_66/input_control_node/_232", "op": "NoOp", "input": [], "attr": {"_has_manual_control_dependencies": {"b": true}}}, {"name": "StatefulPartitionedCall/BiLSTM_Forecaster_1/bidirectional_2_1/forward_lstm_2_1/while/cond/_22/BiLSTM_Forecaster_1/bidirectional_2_1/forward_lstm_2_1/while/Less_1", "op": "Less", "input": ["StatefulPartitionedCall/BiLSTM_Forecaster_1/bidirectional_2_1/forward_lstm_2_1/while/merge/_35", "StatefulPartitionedCall/BiLSTM_Forecaster_1/bidirectional_2_1/forward_lstm_2_1/while/merge/_36"], "attr": {"T": {"type": "DT_INT32"}}}, {"name": "StatefulPartitionedCall/BiLSTM_Forecaster_1/bidirectional_2_1/forward_lstm_2_1/while/cond/_22/BiLSTM_Forecaster_1/bidirectional_2_1/forward_lstm_2_1/while/Less/y", "op": "Const", "input": [], "attr": {"value": {"tensor": {"dtype": "DT_INT32", "tensorShape": {}}}, "dtype": {"type": "DT_INT32"}}}, {"name": "StatefulPartitionedCall/BiLSTM_Forecaster_1/bidirectional_2_1/backward_lstm_2_1/while/cond/_66/BiLSTM_Forecaster_1/bidirectional_2_1/backward_lstm_2_1/while/Less_1", "op": "Less", "input": ["StatefulPartitionedCall/BiLSTM_Forecaster_1/bidirectional_2_1/backward_lstm_2_1/while/merge/_79", "StatefulPartitionedCall/BiLSTM_Forecaster_1/bidirectional_2_1/backward_lstm_2_1/while/merge/_80"], "attr": {"T": {"type": "DT_INT32"}}}, {"name": "StatefulPartitionedCall/BiLSTM_Forecaster_1/bidirectional_2_1/backward_lstm_2_1/while/cond/_66/BiLSTM_Forecaster_1/bidirectional_2_1/backward_lstm_2_1/while/Less/y", "op": "Const", "input": [], "attr": {"value": {"tensor": {"dtype": "DT_INT32", "tensorShape": {}}}, "dtype": {"type": "DT_INT32"}}}, {"name": "StatefulPartitionedCall/BiLSTM_Forecaster_1/bidirectional_2_1/forward_lstm_2_1/while/cond/_22/BiLSTM_Forecaster_1/bidirectional_2_1/forward_lstm_2_1/while/Less", "op": "Less", "input": ["StatefulPartitionedCall/BiLSTM_Forecaster_1/bidirectional_2_1/forward_lstm_2_1/while/merge/_37", "StatefulPartitionedCall/BiLSTM_Forecaster_1/bidirectional_2_1/forward_lstm_2_1/while/cond/_22/BiLSTM_Forecaster_1/bidirectional_2_1/forward_lstm_2_1/while/Less/y"], "attr": {"T": {"type": "DT_INT32"}}}, {"name": "StatefulPartitionedCall/BiLSTM_Forecaster_1/bidirectional_2_1/backward_lstm_2_1/while/cond/_66/BiLSTM_Forecaster_1/bidirectional_2_1/backward_lstm_2_1/while/Less", "op": "Less", "input": ["StatefulPartitionedCall/BiLSTM_Forecaster_1/bidirectional_2_1/backward_lstm_2_1/while/merge/_81", "StatefulPartitionedCall/BiLSTM_Forecaster_1/bidirectional_2_1/backward_lstm_2_1/while/cond/_66/BiLSTM_Forecaster_1/bidirectional_2_1/backward_lstm_2_1/while/Less/y"], "attr": {"T": {"type": "DT_INT32"}}}, {"name": "StatefulPartitionedCall/BiLSTM_Forecaster_1/bidirectional_2_1/forward_lstm_2_1/while/cond/_22/BiLSTM_Forecaster_1/bidirectional_2_1/forward_lstm_2_1/while/LogicalAnd", "op": "LogicalAnd", "input": ["StatefulPartitionedCall/BiLSTM_Forecaster_1/bidirectional_2_1/forward_lstm_2_1/while/cond/_22/BiLSTM_Forecaster_1/bidirectional_2_1/forward_lstm_2_1/while/Less_1", "StatefulPartitionedCall/BiLSTM_Forecaster_1/bidirectional_2_1/forward_lstm_2_1/while/cond/_22/BiLSTM_Forecaster_1/bidirectional_2_1/forward_lstm_2_1/while/Less"]}, {"name": "StatefulPartitionedCall/BiLSTM_Forecaster_1/bidirectional_2_1/backward_lstm_2_1/while/cond/_66/BiLSTM_Forecaster_1/bidirectional_2_1/backward_lstm_2_1/while/LogicalAnd", "op": "LogicalAnd", "input": ["StatefulPartitionedCall/BiLSTM_Forecaster_1/bidirectional_2_1/backward_lstm_2_1/while/cond/_66/BiLSTM_Forecaster_1/bidirectional_2_1/backward_lstm_2_1/while/Less_1", "StatefulPartitionedCall/BiLSTM_Forecaster_1/bidirectional_2_1/backward_lstm_2_1/while/cond/_66/BiLSTM_Forecaster_1/bidirectional_2_1/backward_lstm_2_1/while/Less"]}, {"name": "StatefulPartitionedCall/BiLSTM_Forecaster_1/bidirectional_2_1/forward_lstm_2_1/while/LoopCond/_42", "op": "LoopCond", "input": ["StatefulPartitionedCall/BiLSTM_Forecaster_1/bidirectional_2_1/forward_lstm_2_1/while/cond/_22/BiLSTM_Forecaster_1/bidirectional_2_1/forward_lstm_2_1/while/LogicalAnd"]}, {"name": "StatefulPartitionedCall/BiLSTM_Forecaster_1/bidirectional_2_1/backward_lstm_2_1/while/LoopCond/_86", "op": "LoopCond", "input": ["StatefulPartitionedCall/BiLSTM_Forecaster_1/bidirectional_2_1/backward_lstm_2_1/while/cond/_66/BiLSTM_Forecaster_1/bidirectional_2_1/backward_lstm_2_1/while/LogicalAnd"]}, {"name": "StatefulPartitionedCall/BiLSTM_Forecaster_1/bidirectional_2_1/forward_lstm_2_1/while/StatefulPartitionedCall/BiLSTM_Forecaster_1/bidirectional_2_1/forward_lstm_2_1/Max_switch/_44", "op": "Switch", "input": ["StatefulPartitionedCall/BiLSTM_Forecaster_1/bidirectional_2_1/forward_lstm_2_1/while/merge/_36", "StatefulPartitionedCall/BiLSTM_Forecaster_1/bidirectional_2_1/forward_lstm_2_1/while/LoopCond/_42"], "attr": {"_has_manual_control_dependencies": {"b": true}, "T": {"type": "DT_INT32"}}}, {"name": "StatefulPartitionedCall/BiLSTM_Forecaster_1/bidirectional_2_1/forward_lstm_2_1/while/StatefulPartitionedCall/BiLSTM_Forecaster_1/bidirectional_2_1/forward_lstm_2_1/while/loop_counter_switch/_43", "op": "Switch", "input": ["StatefulPartitionedCall/BiLSTM_Forecaster_1/bidirectional_2_1/forward_lstm_2_1/while/merge/_35", "StatefulPartitionedCall/BiLSTM_Forecaster_1/bidirectional_2_1/forward_lstm_2_1/while/LoopCond/_42"], "attr": {"T": {"type": "DT_INT32"}}}, {"name": "StatefulPartitionedCall/BiLSTM_Forecaster_1/bidirectional_2_1/forward_lstm_2_1/while/StatefulPartitionedCall/BiLSTM_Forecaster_1/bidirectional_2_1/forward_lstm_2_1/zeros_1_switch/_48", "op": "Switch", "input": ["StatefulPartitionedCall/BiLSTM_Forecaster_1/bidirectional_2_1/forward_lstm_2_1/while/merge/_40", "StatefulPartitionedCall/BiLSTM_Forecaster_1/bidirectional_2_1/forward_lstm_2_1/while/LoopCond/_42"], "attr": {"_has_manual_control_dependencies": {"b": true}, "T": {"type": "DT_FLOAT"}}}, {"name": "StatefulPartitionedCall/BiLSTM_Forecaster_1/bidirectional_2_1/forward_lstm_2_1/while/StatefulPartitionedCall/BiLSTM_Forecaster_1/bidirectional_2_1/forward_lstm_2_1/TensorArrayUnstack/TensorListFromTensor_switch/_49", "op": "Switch", "input": ["StatefulPartitionedCall/BiLSTM_Forecaster_1/bidirectional_2_1/forward_lstm_2_1/while/merge/_41", "StatefulPartitionedCall/BiLSTM_Forecaster_1/bidirectional_2_1/forward_lstm_2_1/while/LoopCond/_42"], "attr": {"_has_manual_control_dependencies": {"b": true}, "T": {"type": "DT_VARIANT"}}}, {"name": "StatefulPartitionedCall/BiLSTM_Forecaster_1/bidirectional_2_1/forward_lstm_2_1/while/StatefulPartitionedCall/BiLSTM_Forecaster_1/bidirectional_2_1/forward_lstm_2_1/time_switch/_45", "op": "Switch", "input": ["StatefulPartitionedCall/BiLSTM_Forecaster_1/bidirectional_2_1/forward_lstm_2_1/while/merge/_37", "StatefulPartitionedCall/BiLSTM_Forecaster_1/bidirectional_2_1/forward_lstm_2_1/while/LoopCond/_42"], "attr": {"_has_manual_control_dependencies": {"b": true}, "T": {"type": "DT_INT32"}}}, {"name": "StatefulPartitionedCall/BiLSTM_Forecaster_1/bidirectional_2_1/forward_lstm_2_1/while/StatefulPartitionedCall/BiLSTM_Forecaster_1/bidirectional_2_1/forward_lstm_2_1/zeros_switch/_47", "op": "Switch", "input": ["StatefulPartitionedCall/BiLSTM_Forecaster_1/bidirectional_2_1/forward_lstm_2_1/while/merge/_39", "StatefulPartitionedCall/BiLSTM_Forecaster_1/bidirectional_2_1/forward_lstm_2_1/while/LoopCond/_42"], "attr": {"_has_manual_control_dependencies": {"b": true}, "T": {"type": "DT_FLOAT"}}}, {"name": "StatefulPartitionedCall/BiLSTM_Forecaster_1/bidirectional_2_1/forward_lstm_2_1/while/StatefulPartitionedCall/BiLSTM_Forecaster_1/bidirectional_2_1/forward_lstm_2_1/TensorArrayV2_1_switch/_46", "op": "Switch", "input": ["StatefulPartitionedCall/BiLSTM_Forecaster_1/bidirectional_2_1/forward_lstm_2_1/while/merge/_38", "StatefulPartitionedCall/BiLSTM_Forecaster_1/bidirectional_2_1/forward_lstm_2_1/while/LoopCond/_42"], "attr": {"_has_manual_control_dependencies": {"b": true}, "T": {"type": "DT_VARIANT"}}}, {"name": "StatefulPartitionedCall/BiLSTM_Forecaster_1/bidirectional_2_1/backward_lstm_2_1/while/StatefulPartitionedCall/BiLSTM_Forecaster_1/bidirectional_2_1/backward_lstm_2_1/Max_switch/_88", "op": "Switch", "input": ["StatefulPartitionedCall/BiLSTM_Forecaster_1/bidirectional_2_1/backward_lstm_2_1/while/merge/_80", "StatefulPartitionedCall/BiLSTM_Forecaster_1/bidirectional_2_1/backward_lstm_2_1/while/LoopCond/_86"], "attr": {"T": {"type": "DT_INT32"}}}, {"name": "StatefulPartitionedCall/BiLSTM_Forecaster_1/bidirectional_2_1/backward_lstm_2_1/while/StatefulPartitionedCall/BiLSTM_Forecaster_1/bidirectional_2_1/backward_lstm_2_1/while/loop_counter_switch/_87", "op": "Switch", "input": ["StatefulPartitionedCall/BiLSTM_Forecaster_1/bidirectional_2_1/backward_lstm_2_1/while/merge/_79", "StatefulPartitionedCall/BiLSTM_Forecaster_1/bidirectional_2_1/backward_lstm_2_1/while/LoopCond/_86"], "attr": {"T": {"type": "DT_INT32"}}}, {"name": "StatefulPartitionedCall/BiLSTM_Forecaster_1/bidirectional_2_1/backward_lstm_2_1/while/StatefulPartitionedCall/BiLSTM_Forecaster_1/bidirectional_2_1/backward_lstm_2_1/zeros_1_switch/_92", "op": "Switch", "input": ["StatefulPartitionedCall/BiLSTM_Forecaster_1/bidirectional_2_1/backward_lstm_2_1/while/merge/_84", "StatefulPartitionedCall/BiLSTM_Forecaster_1/bidirectional_2_1/backward_lstm_2_1/while/LoopCond/_86"], "attr": {"T": {"type": "DT_FLOAT"}}}, {"name": "StatefulPartitionedCall/BiLSTM_Forecaster_1/bidirectional_2_1/backward_lstm_2_1/while/StatefulPartitionedCall/BiLSTM_Forecaster_1/bidirectional_2_1/backward_lstm_2_1/TensorArrayUnstack/TensorListFromTensor_switch/_93", "op": "Switch", "input": ["StatefulPartitionedCall/BiLSTM_Forecaster_1/bidirectional_2_1/backward_lstm_2_1/while/merge/_85", "StatefulPartitionedCall/BiLSTM_Forecaster_1/bidirectional_2_1/backward_lstm_2_1/while/LoopCond/_86"], "attr": {"T": {"type": "DT_VARIANT"}}}, {"name": "StatefulPartitionedCall/BiLSTM_Forecaster_1/bidirectional_2_1/backward_lstm_2_1/while/StatefulPartitionedCall/BiLSTM_Forecaster_1/bidirectional_2_1/backward_lstm_2_1/time_switch/_89", "op": "Switch", "input": ["StatefulPartitionedCall/BiLSTM_Forecaster_1/bidirectional_2_1/backward_lstm_2_1/while/merge/_81", "StatefulPartitionedCall/BiLSTM_Forecaster_1/bidirectional_2_1/backward_lstm_2_1/while/LoopCond/_86"], "attr": {"T": {"type": "DT_INT32"}}}, {"name": "StatefulPartitionedCall/BiLSTM_Forecaster_1/bidirectional_2_1/backward_lstm_2_1/while/StatefulPartitionedCall/BiLSTM_Forecaster_1/bidirectional_2_1/backward_lstm_2_1/zeros_switch/_91", "op": "Switch", "input": ["StatefulPartitionedCall/BiLSTM_Forecaster_1/bidirectional_2_1/backward_lstm_2_1/while/merge/_83", "StatefulPartitionedCall/BiLSTM_Forecaster_1/bidirectional_2_1/backward_lstm_2_1/while/LoopCond/_86"], "attr": {"T": {"type": "DT_FLOAT"}}}, {"name": "StatefulPartitionedCall/BiLSTM_Forecaster_1/bidirectional_2_1/backward_lstm_2_1/while/StatefulPartitionedCall/BiLSTM_Forecaster_1/bidirectional_2_1/backward_lstm_2_1/TensorArrayV2_1_switch/_90", "op": "Switch", "input": ["StatefulPartitionedCall/BiLSTM_Forecaster_1/bidirectional_2_1/backward_lstm_2_1/while/merge/_82", "StatefulPartitionedCall/BiLSTM_Forecaster_1/bidirectional_2_1/backward_lstm_2_1/while/LoopCond/_86"], "attr": {"T": {"type": "DT_VARIANT"}}}, {"name": "StatefulPartitionedCall/BiLSTM_Forecaster_1/bidirectional_2_1/forward_lstm_2_1/while/exit/_52", "op": "Exit", "input": ["StatefulPartitionedCall/BiLSTM_Forecaster_1/bidirectional_2_1/forward_lstm_2_1/while/StatefulPartitionedCall/BiLSTM_Forecaster_1/bidirectional_2_1/forward_lstm_2_1/Max_switch/_44"], "attr": {"_has_manual_control_dependencies": {"b": true}, "T": {"type": "DT_INT32"}}}, {"name": "StatefulPartitionedCall/BiLSTM_Forecaster_1/bidirectional_2_1/forward_lstm_2_1/while/exit/_51", "op": "Exit", "input": ["StatefulPartitionedCall/BiLSTM_Forecaster_1/bidirectional_2_1/forward_lstm_2_1/while/StatefulPartitionedCall/BiLSTM_Forecaster_1/bidirectional_2_1/forward_lstm_2_1/while/loop_counter_switch/_43"], "attr": {"_has_manual_control_dependencies": {"b": true}, "T": {"type": "DT_INT32"}}}, {"name": "StatefulPartitionedCall/BiLSTM_Forecaster_1/bidirectional_2_1/forward_lstm_2_1/while/loop_body_control/_50", "op": "Identity", "input": ["StatefulPartitionedCall/BiLSTM_Forecaster_1/bidirectional_2_1/forward_lstm_2_1/while/StatefulPartitionedCall/BiLSTM_Forecaster_1/bidirectional_2_1/forward_lstm_2_1/while/loop_counter_switch/_43:1"], "attr": {"_has_manual_control_dependencies": {"b": true}, "T": {"type": "DT_INT32"}}}, {"name": "StatefulPartitionedCall/BiLSTM_Forecaster_1/bidirectional_2_1/forward_lstm_2_1/while/exit/_56", "op": "Exit", "input": ["StatefulPartitionedCall/BiLSTM_Forecaster_1/bidirectional_2_1/forward_lstm_2_1/while/StatefulPartitionedCall/BiLSTM_Forecaster_1/bidirectional_2_1/forward_lstm_2_1/zeros_1_switch/_48"], "attr": {"_has_manual_control_dependencies": {"b": true}, "T": {"type": "DT_FLOAT"}}}, {"name": "StatefulPartitionedCall/BiLSTM_Forecaster_1/bidirectional_2_1/forward_lstm_2_1/while/exit/_57", "op": "Exit", "input": ["StatefulPartitionedCall/BiLSTM_Forecaster_1/bidirectional_2_1/forward_lstm_2_1/while/StatefulPartitionedCall/BiLSTM_Forecaster_1/bidirectional_2_1/forward_lstm_2_1/TensorArrayUnstack/TensorListFromTensor_switch/_49"], "attr": {"_has_manual_control_dependencies": {"b": true}, "T": {"type": "DT_VARIANT"}}}, {"name": "StatefulPartitionedCall/BiLSTM_Forecaster_1/bidirectional_2_1/forward_lstm_2_1/while/exit/_53", "op": "Exit", "input": ["StatefulPartitionedCall/BiLSTM_Forecaster_1/bidirectional_2_1/forward_lstm_2_1/while/StatefulPartitionedCall/BiLSTM_Forecaster_1/bidirectional_2_1/forward_lstm_2_1/time_switch/_45"], "attr": {"_has_manual_control_dependencies": {"b": true}, "T": {"type": "DT_INT32"}}}, {"name": "StatefulPartitionedCall/BiLSTM_Forecaster_1/bidirectional_2_1/forward_lstm_2_1/while/exit/_55", "op": "Exit", "input": ["StatefulPartitionedCall/BiLSTM_Forecaster_1/bidirectional_2_1/forward_lstm_2_1/while/StatefulPartitionedCall/BiLSTM_Forecaster_1/bidirectional_2_1/forward_lstm_2_1/zeros_switch/_47"], "attr": {"_has_manual_control_dependencies": {"b": true}, "T": {"type": "DT_FLOAT"}}}, {"name": "StatefulPartitionedCall/BiLSTM_Forecaster_1/bidirectional_2_1/forward_lstm_2_1/while/exit/_54", "op": "Exit", "input": ["StatefulPartitionedCall/BiLSTM_Forecaster_1/bidirectional_2_1/forward_lstm_2_1/while/StatefulPartitionedCall/BiLSTM_Forecaster_1/bidirectional_2_1/forward_lstm_2_1/TensorArrayV2_1_switch/_46"], "attr": {"_has_manual_control_dependencies": {"b": true}, "T": {"type": "DT_VARIANT"}}}, {"name": "StatefulPartitionedCall/BiLSTM_Forecaster_1/bidirectional_2_1/backward_lstm_2_1/while/exit/_96", "op": "Exit", "input": ["StatefulPartitionedCall/BiLSTM_Forecaster_1/bidirectional_2_1/backward_lstm_2_1/while/StatefulPartitionedCall/BiLSTM_Forecaster_1/bidirectional_2_1/backward_lstm_2_1/Max_switch/_88"], "attr": {"_has_manual_control_dependencies": {"b": true}, "T": {"type": "DT_INT32"}}}, {"name": "StatefulPartitionedCall/BiLSTM_Forecaster_1/bidirectional_2_1/backward_lstm_2_1/while/exit/_95", "op": "Exit", "input": ["StatefulPartitionedCall/BiLSTM_Forecaster_1/bidirectional_2_1/backward_lstm_2_1/while/StatefulPartitionedCall/BiLSTM_Forecaster_1/bidirectional_2_1/backward_lstm_2_1/while/loop_counter_switch/_87"], "attr": {"_has_manual_control_dependencies": {"b": true}, "T": {"type": "DT_INT32"}}}, {"name": "StatefulPartitionedCall/BiLSTM_Forecaster_1/bidirectional_2_1/backward_lstm_2_1/while/loop_body_control/_94", "op": "Identity", "input": ["StatefulPartitionedCall/BiLSTM_Forecaster_1/bidirectional_2_1/backward_lstm_2_1/while/StatefulPartitionedCall/BiLSTM_Forecaster_1/bidirectional_2_1/backward_lstm_2_1/while/loop_counter_switch/_87:1"], "attr": {"_has_manual_control_dependencies": {"b": true}, "T": {"type": "DT_INT32"}}}, {"name": "StatefulPartitionedCall/BiLSTM_Forecaster_1/bidirectional_2_1/backward_lstm_2_1/while/exit/_100", "op": "Exit", "input": ["StatefulPartitionedCall/BiLSTM_Forecaster_1/bidirectional_2_1/backward_lstm_2_1/while/StatefulPartitionedCall/BiLSTM_Forecaster_1/bidirectional_2_1/backward_lstm_2_1/zeros_1_switch/_92"], "attr": {"_has_manual_control_dependencies": {"b": true}, "T": {"type": "DT_FLOAT"}}}, {"name": "StatefulPartitionedCall/BiLSTM_Forecaster_1/bidirectional_2_1/backward_lstm_2_1/while/exit/_101", "op": "Exit", "input": ["StatefulPartitionedCall/BiLSTM_Forecaster_1/bidirectional_2_1/backward_lstm_2_1/while/StatefulPartitionedCall/BiLSTM_Forecaster_1/bidirectional_2_1/backward_lstm_2_1/TensorArrayUnstack/TensorListFromTensor_switch/_93"], "attr": {"_has_manual_control_dependencies": {"b": true}, "T": {"type": "DT_VARIANT"}}}, {"name": "StatefulPartitionedCall/BiLSTM_Forecaster_1/bidirectional_2_1/backward_lstm_2_1/while/exit/_97", "op": "Exit", "input": ["StatefulPartitionedCall/BiLSTM_Forecaster_1/bidirectional_2_1/backward_lstm_2_1/while/StatefulPartitionedCall/BiLSTM_Forecaster_1/bidirectional_2_1/backward_lstm_2_1/time_switch/_89"], "attr": {"_has_manual_control_dependencies": {"b": true}, "T": {"type": "DT_INT32"}}}, {"name": "StatefulPartitionedCall/BiLSTM_Forecaster_1/bidirectional_2_1/backward_lstm_2_1/while/exit/_99", "op": "Exit", "input": ["StatefulPartitionedCall/BiLSTM_Forecaster_1/bidirectional_2_1/backward_lstm_2_1/while/StatefulPartitionedCall/BiLSTM_Forecaster_1/bidirectional_2_1/backward_lstm_2_1/zeros_switch/_91"], "attr": {"_has_manual_control_dependencies": {"b": true}, "T": {"type": "DT_FLOAT"}}}, {"name": "StatefulPartitionedCall/BiLSTM_Forecaster_1/bidirectional_2_1/backward_lstm_2_1/while/exit/_98", "op": "Exit", "input": ["StatefulPartitionedCall/BiLSTM_Forecaster_1/bidirectional_2_1/backward_lstm_2_1/while/StatefulPartitionedCall/BiLSTM_Forecaster_1/bidirectional_2_1/backward_lstm_2_1/TensorArrayV2_1_switch/_90"], "attr": {"_has_manual_control_dependencies": {"b": true}, "T": {"type": "DT_VARIANT"}}}, {"name": "Func/StatefulPartitionedCall/BiLSTM_Forecaster_1/bidirectional_2_1/forward_lstm_2_1/while/body/_23/input_control_node/_210", "op": "NoOp", "input": [], "attr": {"_has_manual_control_dependencies": {"b": true}}}, {"name": "StatefulPartitionedCall/BiLSTM_Forecaster_1/bidirectional_2_1/forward_lstm_2_1/TensorArrayV2Stack/TensorListStack", "op": "TensorListStack", "input": ["StatefulPartitionedCall/BiLSTM_Forecaster_1/bidirectional_2_1/forward_lstm_2_1/while/exit/_54", "StatefulPartitionedCall/BiLSTM_Forecaster_1/bidirectional_2_1/forward_lstm_2_1/TensorArrayV2Stack/TensorListStack/element_shape"], "attr": {"num_elements": {"i": "128"}, "element_dtype": {"type": "DT_FLOAT"}}}, {"name": "Func/StatefulPartitionedCall/BiLSTM_Forecaster_1/bidirectional_2_1/backward_lstm_2_1/while/body/_67/input_control_node/_244", "op": "NoOp", "input": [], "attr": {"_has_manual_control_dependencies": {"b": true}}}, {"name": "StatefulPartitionedCall/BiLSTM_Forecaster_1/bidirectional_2_1/backward_lstm_2_1/TensorArrayV2Stack/TensorListStack", "op": "TensorListStack", "input": ["StatefulPartitionedCall/BiLSTM_Forecaster_1/bidirectional_2_1/backward_lstm_2_1/while/exit/_98", "StatefulPartitionedCall/BiLSTM_Forecaster_1/bidirectional_2_1/backward_lstm_2_1/TensorArrayV2Stack/TensorListStack/element_shape"], "attr": {"num_elements": {"i": "128"}, "element_dtype": {"type": "DT_FLOAT"}}}, {"name": "StatefulPartitionedCall/BiLSTM_Forecaster_1/bidirectional_2_1/forward_lstm_2_1/while/body/_23/BiLSTM_Forecaster_1/bidirectional_2_1/forward_lstm_2_1/while/add_1/y", "op": "Const", "input": [], "attr": {"value": {"tensor": {"dtype": "DT_INT32", "tensorShape": {}}}, "dtype": {"type": "DT_INT32"}}}, {"name": "StatefulPartitionedCall/BiLSTM_Forecaster_1/bidirectional_2_1/forward_lstm_2_1/while/body/_23/BiLSTM_Forecaster_1/bidirectional_2_1/forward_lstm_2_1/while/lstm_cell_1/split/split_dim", "op": "Const", "input": [], "attr": {"value": {"tensor": {"dtype": "DT_INT32", "tensorShape": {}}}, "dtype": {"type": "DT_INT32"}}}, {"name": "StatefulPartitionedCall/BiLSTM_Forecaster_1/bidirectional_2_1/forward_lstm_2_1/while/body/_23/BiLSTM_Forecaster_1/bidirectional_2_1/forward_lstm_2_1/while/add/y", "op": "Const", "input": [], "attr": {"value": {"tensor": {"dtype": "DT_INT32", "tensorShape": {}}}, "dtype": {"type": "DT_INT32"}}}, {"name": "Func/StatefulPartitionedCall/BiLSTM_Forecaster_1/bidirectional_2_1/forward_lstm_2_1/while/body/_23/input/_213", "op": "Identity", "input": ["StatefulPartitionedCall/BiLSTM_Forecaster_1/bidirectional_2_1/forward_lstm_2_1/while/StatefulPartitionedCall/BiLSTM_Forecaster_1/bidirectional_2_1/forward_lstm_2_1/time_switch/_45:1"], "attr": {"T": {"type": "DT_INT32"}}}, {"name": "StatefulPartitionedCall/BiLSTM_Forecaster_1/bidirectional_2_1/forward_lstm_2_1/while/body/_23/BiLSTM_Forecaster_1/bidirectional_2_1/forward_lstm_2_1/while/TensorArrayV2Read/TensorListGetItem/element_shape", "op": "Const", "input": [], "attr": {"value": {"tensor": {"dtype": "DT_INT32", "tensorShape": {"dim": [{"size": "2"}]}}}, "dtype": {"type": "DT_INT32"}}}, {"name": "StatefulPartitionedCall/BiLSTM_Forecaster_1/bidirectional_2_1/forward_lstm_2_1/while/body/_23/BiLSTM_Forecaster_1/bidirectional_2_1/forward_lstm_2_1/while/lstm_cell_1/Cast/ReadVariableOp", "op": "Const", "input": [], "attr": {"value": {"tensor": {"dtype": "DT_FLOAT", "tensorShape": {"dim": [{"size": "10"}, {"size": "256"}]}}}, "dtype": {"type": "DT_FLOAT"}}}, {"name": "StatefulPartitionedCall/BiLSTM_Forecaster_1/bidirectional_2_1/forward_lstm_2_1/while/body/_23/BiLSTM_Forecaster_1/bidirectional_2_1/forward_lstm_2_1/while/lstm_cell_1/Cast_1/ReadVariableOp", "op": "Const", "input": [], "attr": {"value": {"tensor": {"dtype": "DT_FLOAT", "tensorShape": {"dim": [{"size": "64"}, {"size": "256"}]}}}, "dtype": {"type": "DT_FLOAT"}}}, {"name": "StatefulPartitionedCall/BiLSTM_Forecaster_1/bidirectional_2_1/forward_lstm_2_1/while/body/_23/BiLSTM_Forecaster_1/bidirectional_2_1/forward_lstm_2_1/while/lstm_cell_1/add_1/ReadVariableOp", "op": "Const", "input": [], "attr": {"value": {"tensor": {"dtype": "DT_FLOAT", "tensorShape": {"dim": [{"size": "256"}]}}}, "dtype": {"type": "DT_FLOAT"}}}, {"name": "StatefulPartitionedCall/BiLSTM_Forecaster_1/bidirectional_2_1/forward_lstm_2_1/transpose_1", "op": "Transpose", "input": ["StatefulPartitionedCall/BiLSTM_Forecaster_1/bidirectional_2_1/forward_lstm_2_1/TensorArrayV2Stack/TensorListStack", "StatefulPartitionedCall/BiLSTM_Forecaster_1/bidirectional_2_1/forward_lstm_2_1/transpose_1/perm"], "attr": {"Tperm": {"type": "DT_INT32"}, "T": {"type": "DT_FLOAT"}}}, {"name": "StatefulPartitionedCall/BiLSTM_Forecaster_1/bidirectional_2_1/backward_lstm_2_1/while/body/_67/BiLSTM_Forecaster_1/bidirectional_2_1/backward_lstm_2_1/while/add_1/y", "op": "Const", "input": [], "attr": {"value": {"tensor": {"dtype": "DT_INT32", "tensorShape": {}}}, "dtype": {"type": "DT_INT32"}}}, {"name": "StatefulPartitionedCall/BiLSTM_Forecaster_1/bidirectional_2_1/backward_lstm_2_1/while/body/_67/BiLSTM_Forecaster_1/bidirectional_2_1/backward_lstm_2_1/while/lstm_cell_1/split/split_dim", "op": "Const", "input": [], "attr": {"value": {"tensor": {"dtype": "DT_INT32", "tensorShape": {}}}, "dtype": {"type": "DT_INT32"}}}, {"name": "StatefulPartitionedCall/BiLSTM_Forecaster_1/bidirectional_2_1/backward_lstm_2_1/while/body/_67/BiLSTM_Forecaster_1/bidirectional_2_1/backward_lstm_2_1/while/add/y", "op": "Const", "input": [], "attr": {"value": {"tensor": {"dtype": "DT_INT32", "tensorShape": {}}}, "dtype": {"type": "DT_INT32"}}}, {"name": "Func/StatefulPartitionedCall/BiLSTM_Forecaster_1/bidirectional_2_1/backward_lstm_2_1/while/body/_67/input/_247", "op": "Identity", "input": ["StatefulPartitionedCall/BiLSTM_Forecaster_1/bidirectional_2_1/backward_lstm_2_1/while/StatefulPartitionedCall/BiLSTM_Forecaster_1/bidirectional_2_1/backward_lstm_2_1/time_switch/_89:1"], "attr": {"T": {"type": "DT_INT32"}}}, {"name": "StatefulPartitionedCall/BiLSTM_Forecaster_1/bidirectional_2_1/backward_lstm_2_1/while/body/_67/BiLSTM_Forecaster_1/bidirectional_2_1/backward_lstm_2_1/while/TensorArrayV2Read/TensorListGetItem/element_shape", "op": "Const", "input": [], "attr": {"value": {"tensor": {"dtype": "DT_INT32", "tensorShape": {"dim": [{"size": "2"}]}}}, "dtype": {"type": "DT_INT32"}}}, {"name": "StatefulPartitionedCall/BiLSTM_Forecaster_1/bidirectional_2_1/backward_lstm_2_1/while/body/_67/BiLSTM_Forecaster_1/bidirectional_2_1/backward_lstm_2_1/while/lstm_cell_1/Cast/ReadVariableOp", "op": "Const", "input": [], "attr": {"value": {"tensor": {"dtype": "DT_FLOAT", "tensorShape": {"dim": [{"size": "10"}, {"size": "256"}]}}}, "dtype": {"type": "DT_FLOAT"}}}, {"name": "StatefulPartitionedCall/BiLSTM_Forecaster_1/bidirectional_2_1/backward_lstm_2_1/while/body/_67/BiLSTM_Forecaster_1/bidirectional_2_1/backward_lstm_2_1/while/lstm_cell_1/Cast_1/ReadVariableOp", "op": "Const", "input": [], "attr": {"value": {"tensor": {"dtype": "DT_FLOAT", "tensorShape": {"dim": [{"size": "64"}, {"size": "256"}]}}}, "dtype": {"type": "DT_FLOAT"}}}, {"name": "StatefulPartitionedCall/BiLSTM_Forecaster_1/bidirectional_2_1/backward_lstm_2_1/while/body/_67/BiLSTM_Forecaster_1/bidirectional_2_1/backward_lstm_2_1/while/lstm_cell_1/add_1/ReadVariableOp", "op": "Const", "input": [], "attr": {"value": {"tensor": {"dtype": "DT_FLOAT", "tensorShape": {"dim": [{"size": "256"}]}}}, "dtype": {"type": "DT_FLOAT"}}}, {"name": "StatefulPartitionedCall/BiLSTM_Forecaster_1/bidirectional_2_1/backward_lstm_2_1/transpose_1", "op": "Transpose", "input": ["StatefulPartitionedCall/BiLSTM_Forecaster_1/bidirectional_2_1/backward_lstm_2_1/TensorArrayV2Stack/TensorListStack", "StatefulPartitionedCall/BiLSTM_Forecaster_1/bidirectional_2_1/backward_lstm_2_1/transpose_1/perm"], "attr": {"Tperm": {"type": "DT_INT32"}, "T": {"type": "DT_FLOAT"}}}, {"name": "StatefulPartitionedCall/BiLSTM_Forecaster_1/bidirectional_2_1/forward_lstm_2_1/while/body/_23/BiLSTM_Forecaster_1/bidirectional_2_1/forward_lstm_2_1/while/add_1", "op": "AddV2", "input": ["StatefulPartitionedCall/BiLSTM_Forecaster_1/bidirectional_2_1/forward_lstm_2_1/while/StatefulPartitionedCall/BiLSTM_Forecaster_1/bidirectional_2_1/forward_lstm_2_1/while/loop_counter_switch/_43:1", "StatefulPartitionedCall/BiLSTM_Forecaster_1/bidirectional_2_1/forward_lstm_2_1/while/body/_23/BiLSTM_Forecaster_1/bidirectional_2_1/forward_lstm_2_1/while/add_1/y"], "attr": {"T": {"type": "DT_INT32"}}}, {"name": "StatefulPartitionedCall/BiLSTM_Forecaster_1/bidirectional_2_1/forward_lstm_2_1/while/body/_23/BiLSTM_Forecaster_1/bidirectional_2_1/forward_lstm_2_1/while/add", "op": "AddV2", "input": ["Func/StatefulPartitionedCall/BiLSTM_Forecaster_1/bidirectional_2_1/forward_lstm_2_1/while/body/_23/input/_213", "StatefulPartitionedCall/BiLSTM_Forecaster_1/bidirectional_2_1/forward_lstm_2_1/while/body/_23/BiLSTM_Forecaster_1/bidirectional_2_1/forward_lstm_2_1/while/add/y"], "attr": {"T": {"type": "DT_INT32"}}}, {"name": "StatefulPartitionedCall/BiLSTM_Forecaster_1/bidirectional_2_1/forward_lstm_2_1/while/body/_23/BiLSTM_Forecaster_1/bidirectional_2_1/forward_lstm_2_1/while/TensorArrayV2Read/TensorListGetItem", "op": "TensorListGetItem", "input": ["StatefulPartitionedCall/BiLSTM_Forecaster_1/bidirectional_2_1/forward_lstm_2_1/while/StatefulPartitionedCall/BiLSTM_Forecaster_1/bidirectional_2_1/forward_lstm_2_1/TensorArrayUnstack/TensorListFromTensor_switch/_49:1", "Func/StatefulPartitionedCall/BiLSTM_Forecaster_1/bidirectional_2_1/forward_lstm_2_1/while/body/_23/input/_213", "StatefulPartitionedCall/BiLSTM_Forecaster_1/bidirectional_2_1/forward_lstm_2_1/while/body/_23/BiLSTM_Forecaster_1/bidirectional_2_1/forward_lstm_2_1/while/TensorArrayV2Read/TensorListGetItem/element_shape"], "attr": {"element_dtype": {"type": "DT_FLOAT"}}}, {"name": "StatefulPartitionedCall/BiLSTM_Forecaster_1/bidirectional_2_1/forward_lstm_2_1/while/body/_23/BiLSTM_Forecaster_1/bidirectional_2_1/forward_lstm_2_1/while/lstm_cell_1/MatMul_1", "op": "MatMul", "input": ["StatefulPartitionedCall/BiLSTM_Forecaster_1/bidirectional_2_1/forward_lstm_2_1/while/StatefulPartitionedCall/BiLSTM_Forecaster_1/bidirectional_2_1/forward_lstm_2_1/zeros_switch/_47:1", "StatefulPartitionedCall/BiLSTM_Forecaster_1/bidirectional_2_1/forward_lstm_2_1/while/body/_23/BiLSTM_Forecaster_1/bidirectional_2_1/forward_lstm_2_1/while/lstm_cell_1/Cast_1/ReadVariableOp"], "device": "/device:CPU:0", "attr": {"transpose_a": {"b": false}, "grad_a": {"b": false}, "T": {"type": "DT_FLOAT"}, "grad_b": {"b": false}, "transpose_b": {"b": false}}}, {"name": "Func/StatefulPartitionedCall/BiLSTM_Forecaster_1/bidirectional_2_1/forward_lstm_2_1/while/body/_23/output_control_node/_231", "op": "NoOp", "input": [], "attr": {"_has_manual_control_dependencies": {"b": true}}}, {"name": "StatefulPartitionedCall/BiLSTM_Forecaster_1/bidirectional_2_1/forward_lstm_2_1/while/body/_23/BiLSTM_Forecaster_1/bidirectional_2_1/forward_lstm_2_1/while/NoOp", "op": "NoOp", "input": [], "attr": {"_has_manual_control_dependencies": {"b": true}}}, {"name": "StatefulPartitionedCall/BiLSTM_Forecaster_1/bidirectional_2_1/backward_lstm_2_1/while/body/_67/BiLSTM_Forecaster_1/bidirectional_2_1/backward_lstm_2_1/while/add_1", "op": "AddV2", "input": ["StatefulPartitionedCall/BiLSTM_Forecaster_1/bidirectional_2_1/backward_lstm_2_1/while/StatefulPartitionedCall/BiLSTM_Forecaster_1/bidirectional_2_1/backward_lstm_2_1/while/loop_counter_switch/_87:1", "StatefulPartitionedCall/BiLSTM_Forecaster_1/bidirectional_2_1/backward_lstm_2_1/while/body/_67/BiLSTM_Forecaster_1/bidirectional_2_1/backward_lstm_2_1/while/add_1/y"], "attr": {"T": {"type": "DT_INT32"}}}, {"name": "StatefulPartitionedCall/BiLSTM_Forecaster_1/bidirectional_2_1/backward_lstm_2_1/while/body/_67/BiLSTM_Forecaster_1/bidirectional_2_1/backward_lstm_2_1/while/add", "op": "AddV2", "input": ["Func/StatefulPartitionedCall/BiLSTM_Forecaster_1/bidirectional_2_1/backward_lstm_2_1/while/body/_67/input/_247", "StatefulPartitionedCall/BiLSTM_Forecaster_1/bidirectional_2_1/backward_lstm_2_1/while/body/_67/BiLSTM_Forecaster_1/bidirectional_2_1/backward_lstm_2_1/while/add/y"], "attr": {"T": {"type": "DT_INT32"}}}, {"name": "StatefulPartitionedCall/BiLSTM_Forecaster_1/bidirectional_2_1/backward_lstm_2_1/while/body/_67/BiLSTM_Forecaster_1/bidirectional_2_1/backward_lstm_2_1/while/TensorArrayV2Read/TensorListGetItem", "op": "TensorListGetItem", "input": ["StatefulPartitionedCall/BiLSTM_Forecaster_1/bidirectional_2_1/backward_lstm_2_1/while/StatefulPartitionedCall/BiLSTM_Forecaster_1/bidirectional_2_1/backward_lstm_2_1/TensorArrayUnstack/TensorListFromTensor_switch/_93:1", "Func/StatefulPartitionedCall/BiLSTM_Forecaster_1/bidirectional_2_1/backward_lstm_2_1/while/body/_67/input/_247", "StatefulPartitionedCall/BiLSTM_Forecaster_1/bidirectional_2_1/backward_lstm_2_1/while/body/_67/BiLSTM_Forecaster_1/bidirectional_2_1/backward_lstm_2_1/while/TensorArrayV2Read/TensorListGetItem/element_shape"], "attr": {"element_dtype": {"type": "DT_FLOAT"}}}, {"name": "StatefulPartitionedCall/BiLSTM_Forecaster_1/bidirectional_2_1/backward_lstm_2_1/while/body/_67/BiLSTM_Forecaster_1/bidirectional_2_1/backward_lstm_2_1/while/lstm_cell_1/MatMul_1", "op": "MatMul", "input": ["StatefulPartitionedCall/BiLSTM_Forecaster_1/bidirectional_2_1/backward_lstm_2_1/while/StatefulPartitionedCall/BiLSTM_Forecaster_1/bidirectional_2_1/backward_lstm_2_1/zeros_switch/_91:1", "StatefulPartitionedCall/BiLSTM_Forecaster_1/bidirectional_2_1/backward_lstm_2_1/while/body/_67/BiLSTM_Forecaster_1/bidirectional_2_1/backward_lstm_2_1/while/lstm_cell_1/Cast_1/ReadVariableOp"], "device": "/device:CPU:0", "attr": {"grad_a": {"b": false}, "transpose_a": {"b": false}, "T": {"type": "DT_FLOAT"}, "grad_b": {"b": false}, "transpose_b": {"b": false}}}, {"name": "Func/StatefulPartitionedCall/BiLSTM_Forecaster_1/bidirectional_2_1/backward_lstm_2_1/while/body/_67/output_control_node/_265", "op": "NoOp", "input": [], "attr": {"_has_manual_control_dependencies": {"b": true}}}, {"name": "StatefulPartitionedCall/BiLSTM_Forecaster_1/bidirectional_2_1/backward_lstm_2_1/while/body/_67/BiLSTM_Forecaster_1/bidirectional_2_1/backward_lstm_2_1/while/NoOp", "op": "NoOp", "input": [], "attr": {"_has_manual_control_dependencies": {"b": true}}}, {"name": "StatefulPartitionedCall/BiLSTM_Forecaster_1/bidirectional_2_1/ReverseV2", "op": "ReverseV2", "input": ["StatefulPartitionedCall/BiLSTM_Forecaster_1/bidirectional_2_1/backward_lstm_2_1/transpose_1", "StatefulPartitionedCall/BiLSTM_Forecaster_1/bidirectional_2_1/ReverseV2/axis"], "attr": {"T": {"type": "DT_FLOAT"}, "Tidx": {"type": "DT_INT32"}}}, {"name": "StatefulPartitionedCall/BiLSTM_Forecaster_1/bidirectional_2_1/forward_lstm_2_1/while/body/_23/BiLSTM_Forecaster_1/bidirectional_2_1/forward_lstm_2_1/while/lstm_cell_1/add", "op": "AddV2", "input": ["StatefulPartitionedCall/BiLSTM_Forecaster_1/bidirectional_2_1/forward_lstm_2_1/while/body/_23/BiLSTM_Forecaster_1/bidirectional_2_1/forward_lstm_2_1/while/lstm_cell_1/add_1/ReadVariableOp", "StatefulPartitionedCall/BiLSTM_Forecaster_1/bidirectional_2_1/forward_lstm_2_1/while/body/_23/BiLSTM_Forecaster_1/bidirectional_2_1/forward_lstm_2_1/while/lstm_cell_1/MatMul_1"], "attr": {"T": {"type": "DT_FLOAT"}}}, {"name": "StatefulPartitionedCall/BiLSTM_Forecaster_1/bidirectional_2_1/forward_lstm_2_1/while/next_iteration/_65", "op": "NextIteration", "input": ["StatefulPartitionedCall/BiLSTM_Forecaster_1/bidirectional_2_1/forward_lstm_2_1/while/StatefulPartitionedCall/BiLSTM_Forecaster_1/bidirectional_2_1/forward_lstm_2_1/TensorArrayUnstack/TensorListFromTensor_switch/_49:1"], "attr": {"T": {"type": "DT_VARIANT"}}}, {"name": "StatefulPartitionedCall/BiLSTM_Forecaster_1/bidirectional_2_1/forward_lstm_2_1/while/next_iteration/_60", "op": "NextIteration", "input": ["StatefulPartitionedCall/BiLSTM_Forecaster_1/bidirectional_2_1/forward_lstm_2_1/while/StatefulPartitionedCall/BiLSTM_Forecaster_1/bidirectional_2_1/forward_lstm_2_1/Max_switch/_44:1"], "attr": {"T": {"type": "DT_INT32"}}}, {"name": "StatefulPartitionedCall/BiLSTM_Forecaster_1/bidirectional_2_1/forward_lstm_2_1/while/next_iteration/_59", "op": "NextIteration", "input": ["StatefulPartitionedCall/BiLSTM_Forecaster_1/bidirectional_2_1/forward_lstm_2_1/while/body/_23/BiLSTM_Forecaster_1/bidirectional_2_1/forward_lstm_2_1/while/add_1"], "attr": {"T": {"type": "DT_INT32"}}}, {"name": "StatefulPartitionedCall/BiLSTM_Forecaster_1/bidirectional_2_1/forward_lstm_2_1/while/next_iteration/_61", "op": "NextIteration", "input": ["StatefulPartitionedCall/BiLSTM_Forecaster_1/bidirectional_2_1/forward_lstm_2_1/while/body/_23/BiLSTM_Forecaster_1/bidirectional_2_1/forward_lstm_2_1/while/add"], "attr": {"T": {"type": "DT_INT32"}}}, {"name": "StatefulPartitionedCall/BiLSTM_Forecaster_1/bidirectional_2_1/backward_lstm_2_1/while/body/_67/BiLSTM_Forecaster_1/bidirectional_2_1/backward_lstm_2_1/while/lstm_cell_1/add", "op": "AddV2", "input": ["StatefulPartitionedCall/BiLSTM_Forecaster_1/bidirectional_2_1/backward_lstm_2_1/while/body/_67/BiLSTM_Forecaster_1/bidirectional_2_1/backward_lstm_2_1/while/lstm_cell_1/add_1/ReadVariableOp", "StatefulPartitionedCall/BiLSTM_Forecaster_1/bidirectional_2_1/backward_lstm_2_1/while/body/_67/BiLSTM_Forecaster_1/bidirectional_2_1/backward_lstm_2_1/while/lstm_cell_1/MatMul_1"], "attr": {"T": {"type": "DT_FLOAT"}}}, {"name": "StatefulPartitionedCall/BiLSTM_Forecaster_1/bidirectional_2_1/backward_lstm_2_1/while/next_iteration/_109", "op": "NextIteration", "input": ["StatefulPartitionedCall/BiLSTM_Forecaster_1/bidirectional_2_1/backward_lstm_2_1/while/StatefulPartitionedCall/BiLSTM_Forecaster_1/bidirectional_2_1/backward_lstm_2_1/TensorArrayUnstack/TensorListFromTensor_switch/_93:1"], "attr": {"T": {"type": "DT_VARIANT"}}}, {"name": "StatefulPartitionedCall/BiLSTM_Forecaster_1/bidirectional_2_1/backward_lstm_2_1/while/next_iteration/_104", "op": "NextIteration", "input": ["StatefulPartitionedCall/BiLSTM_Forecaster_1/bidirectional_2_1/backward_lstm_2_1/while/StatefulPartitionedCall/BiLSTM_Forecaster_1/bidirectional_2_1/backward_lstm_2_1/Max_switch/_88:1"], "attr": {"T": {"type": "DT_INT32"}}}, {"name": "StatefulPartitionedCall/BiLSTM_Forecaster_1/bidirectional_2_1/backward_lstm_2_1/while/next_iteration/_103", "op": "NextIteration", "input": ["StatefulPartitionedCall/BiLSTM_Forecaster_1/bidirectional_2_1/backward_lstm_2_1/while/body/_67/BiLSTM_Forecaster_1/bidirectional_2_1/backward_lstm_2_1/while/add_1"], "attr": {"T": {"type": "DT_INT32"}}}, {"name": "StatefulPartitionedCall/BiLSTM_Forecaster_1/bidirectional_2_1/backward_lstm_2_1/while/next_iteration/_105", "op": "NextIteration", "input": ["StatefulPartitionedCall/BiLSTM_Forecaster_1/bidirectional_2_1/backward_lstm_2_1/while/body/_67/BiLSTM_Forecaster_1/bidirectional_2_1/backward_lstm_2_1/while/add"], "attr": {"T": {"type": "DT_INT32"}}}, {"name": "StatefulPartitionedCall/BiLSTM_Forecaster_1/bidirectional_2_1/concat", "op": "ConcatV2", "input": ["StatefulPartitionedCall/BiLSTM_Forecaster_1/bidirectional_2_1/forward_lstm_2_1/transpose_1", "StatefulPartitionedCall/BiLSTM_Forecaster_1/bidirectional_2_1/ReverseV2", "StatefulPartitionedCall/BiLSTM_Forecaster_1/bidirectional_2_1/concat/axis"], "attr": {"N": {"i": "2"}, "Tidx": {"type": "DT_INT32"}, "T": {"type": "DT_FLOAT"}}}, {"name": "StatefulPartitionedCall/BiLSTM_Forecaster_1/bidirectional_2_1/forward_lstm_2_1/while/body/_23/BiLSTM_Forecaster_1/bidirectional_2_1/forward_lstm_2_1/while/lstm_cell_1/add_1", "op": "_FusedMatMul", "input": ["StatefulPartitionedCall/BiLSTM_Forecaster_1/bidirectional_2_1/forward_lstm_2_1/while/body/_23/BiLSTM_Forecaster_1/bidirectional_2_1/forward_lstm_2_1/while/TensorArrayV2Read/TensorListGetItem", "StatefulPartitionedCall/BiLSTM_Forecaster_1/bidirectional_2_1/forward_lstm_2_1/while/body/_23/BiLSTM_Forecaster_1/bidirectional_2_1/forward_lstm_2_1/while/lstm_cell_1/Cast/ReadVariableOp", "StatefulPartitionedCall/BiLSTM_Forecaster_1/bidirectional_2_1/forward_lstm_2_1/while/body/_23/BiLSTM_Forecaster_1/bidirectional_2_1/forward_lstm_2_1/while/lstm_cell_1/add"], "device": "/device:CPU:0", "attr": {"transpose_a": {"b": false}, "transpose_b": {"b": false}, "fused_ops": {"list": {"s": ["Qmlhc0FkZA=="]}}, "num_args": {"i": "1"}, "leakyrelu_alpha": {"f": 0.2}, "epsilon": {"f": 0.0}, "T": {"type": "DT_FLOAT"}}}, {"name": "StatefulPartitionedCall/BiLSTM_Forecaster_1/bidirectional_2_1/backward_lstm_2_1/while/body/_67/BiLSTM_Forecaster_1/bidirectional_2_1/backward_lstm_2_1/while/lstm_cell_1/add_1", "op": "_FusedMatMul", "input": ["StatefulPartitionedCall/BiLSTM_Forecaster_1/bidirectional_2_1/backward_lstm_2_1/while/body/_67/BiLSTM_Forecaster_1/bidirectional_2_1/backward_lstm_2_1/while/TensorArrayV2Read/TensorListGetItem", "StatefulPartitionedCall/BiLSTM_Forecaster_1/bidirectional_2_1/backward_lstm_2_1/while/body/_67/BiLSTM_Forecaster_1/bidirectional_2_1/backward_lstm_2_1/while/lstm_cell_1/Cast/ReadVariableOp", "StatefulPartitionedCall/BiLSTM_Forecaster_1/bidirectional_2_1/backward_lstm_2_1/while/body/_67/BiLSTM_Forecaster_1/bidirectional_2_1/backward_lstm_2_1/while/lstm_cell_1/add"], "device": "/device:CPU:0", "attr": {"transpose_a": {"b": false}, "transpose_b": {"b": false}, "fused_ops": {"list": {"s": ["Qmlhc0FkZA=="]}}, "num_args": {"i": "1"}, "leakyrelu_alpha": {"f": 0.2}, "epsilon": {"f": 0.0}, "T": {"type": "DT_FLOAT"}}}, {"name": "StatefulPartitionedCall/BiLSTM_Forecaster_1/bidirectional_3_1/backward_lstm_3_1/transpose", "op": "Transpose", "input": ["StatefulPartitionedCall/BiLSTM_Forecaster_1/bidirectional_2_1/concat", "StatefulPartitionedCall/BiLSTM_Forecaster_1/bidirectional_3_1/backward_lstm_3_1/transpose/perm"], "attr": {"Tperm": {"type": "DT_INT32"}, "T": {"type": "DT_FLOAT"}}}, {"name": "StatefulPartitionedCall/BiLSTM_Forecaster_1/bidirectional_3_1/backward_lstm_3_1/Shape", "op": "Shape", "input": ["StatefulPartitionedCall/BiLSTM_Forecaster_1/bidirectional_2_1/concat"], "attr": {"T": {"type": "DT_FLOAT"}, "out_type": {"type": "DT_INT32"}}, "experimentalType": {"typeId": "TFT_PRODUCT", "args": [{"typeId": "TFT_SHAPE_TENSOR", "args": [{"typeId": "TFT_INT32"}]}]}}, {"name": "StatefulPartitionedCall/BiLSTM_Forecaster_1/bidirectional_3_1/forward_lstm_3_1/transpose", "op": "Transpose", "input": ["StatefulPartitionedCall/BiLSTM_Forecaster_1/bidirectional_2_1/concat", "StatefulPartitionedCall/BiLSTM_Forecaster_1/bidirectional_3_1/forward_lstm_3_1/transpose/perm"], "attr": {"Tperm": {"type": "DT_INT32"}, "T": {"type": "DT_FLOAT"}}}, {"name": "StatefulPartitionedCall/BiLSTM_Forecaster_1/bidirectional_3_1/forward_lstm_3_1/Shape", "op": "Shape", "input": ["StatefulPartitionedCall/BiLSTM_Forecaster_1/bidirectional_2_1/concat"], "attr": {"T": {"type": "DT_FLOAT"}, "out_type": {"type": "DT_INT32"}}, "experimentalType": {"typeId": "TFT_PRODUCT", "args": [{"typeId": "TFT_SHAPE_TENSOR", "args": [{"typeId": "TFT_INT32"}]}]}}, {"name": "StatefulPartitionedCall/BiLSTM_Forecaster_1/bidirectional_2_1/forward_lstm_2_1/while/body/_23/BiLSTM_Forecaster_1/bidirectional_2_1/forward_lstm_2_1/while/lstm_cell_1/split", "op": "Split", "input": ["StatefulPartitionedCall/BiLSTM_Forecaster_1/bidirectional_2_1/forward_lstm_2_1/while/body/_23/BiLSTM_Forecaster_1/bidirectional_2_1/forward_lstm_2_1/while/lstm_cell_1/split/split_dim", "StatefulPartitionedCall/BiLSTM_Forecaster_1/bidirectional_2_1/forward_lstm_2_1/while/body/_23/BiLSTM_Forecaster_1/bidirectional_2_1/forward_lstm_2_1/while/lstm_cell_1/add_1"], "attr": {"num_split": {"i": "4"}, "T": {"type": "DT_FLOAT"}}}, {"name": "StatefulPartitionedCall/BiLSTM_Forecaster_1/bidirectional_2_1/backward_lstm_2_1/while/body/_67/BiLSTM_Forecaster_1/bidirectional_2_1/backward_lstm_2_1/while/lstm_cell_1/split", "op": "Split", "input": ["StatefulPartitionedCall/BiLSTM_Forecaster_1/bidirectional_2_1/backward_lstm_2_1/while/body/_67/BiLSTM_Forecaster_1/bidirectional_2_1/backward_lstm_2_1/while/lstm_cell_1/split/split_dim", "StatefulPartitionedCall/BiLSTM_Forecaster_1/bidirectional_2_1/backward_lstm_2_1/while/body/_67/BiLSTM_Forecaster_1/bidirectional_2_1/backward_lstm_2_1/while/lstm_cell_1/add_1"], "attr": {"num_split": {"i": "4"}, "T": {"type": "DT_FLOAT"}}}, {"name": "StatefulPartitionedCall/BiLSTM_Forecaster_1/bidirectional_3_1/backward_lstm_3_1/ReverseV2", "op": "ReverseV2", "input": ["StatefulPartitionedCall/BiLSTM_Forecaster_1/bidirectional_3_1/backward_lstm_3_1/transpose", "StatefulPartitionedCall/BiLSTM_Forecaster_1/bidirectional_3_1/backward_lstm_3_1/ReverseV2/axis"], "attr": {"T": {"type": "DT_FLOAT"}, "Tidx": {"type": "DT_INT32"}}}, {"name": "StatefulPartitionedCall/BiLSTM_Forecaster_1/bidirectional_3_1/backward_lstm_3_1/strided_slice", "op": "StridedSlice", "input": ["StatefulPartitionedCall/BiLSTM_Forecaster_1/bidirectional_3_1/backward_lstm_3_1/Shape", "StatefulPartitionedCall/BiLSTM_Forecaster_1/bidirectional_3_1/backward_lstm_3_1/strided_slice/stack", "StatefulPartitionedCall/BiLSTM_Forecaster_1/bidirectional_3_1/backward_lstm_3_1/strided_slice/stack_1", "StatefulPartitionedCall/BiLSTM_Forecaster_1/bidirectional_3_1/backward_lstm_3_1/strided_slice/stack_2"], "attr": {"shrink_axis_mask": {"i": "1"}, "new_axis_mask": {"i": "0"}, "Index": {"type": "DT_INT32"}, "begin_mask": {"i": "0"}, "end_mask": {"i": "0"}, "T": {"type": "DT_INT32"}, "ellipsis_mask": {"i": "0"}}}, {"name": "StatefulPartitionedCall/BiLSTM_Forecaster_1/bidirectional_3_1/forward_lstm_3_1/TensorArrayUnstack/TensorListFromTensor", "op": "TensorListFromTensor", "input": ["StatefulPartitionedCall/BiLSTM_Forecaster_1/bidirectional_3_1/forward_lstm_3_1/transpose", "StatefulPartitionedCall/BiLSTM_Forecaster_1/bidirectional_3_1/forward_lstm_3_1/TensorArrayUnstack/TensorListFromTensor/element_shape"], "attr": {"shape_type": {"type": "DT_INT32"}, "_has_manual_control_dependencies": {"b": true}, "element_dtype": {"type": "DT_FLOAT"}}, "experimentalType": {"typeId": "TFT_PRODUCT", "args": [{"typeId": "TFT_ARRAY", "args": [{"typeId": "TFT_TENSOR", "args": [{"typeId": "TFT_FLOAT"}]}]}]}}, {"name": "StatefulPartitionedCall/BiLSTM_Forecaster_1/bidirectional_3_1/forward_lstm_3_1/strided_slice", "op": "StridedSlice", "input": ["StatefulPartitionedCall/BiLSTM_Forecaster_1/bidirectional_3_1/forward_lstm_3_1/Shape", "StatefulPartitionedCall/BiLSTM_Forecaster_1/bidirectional_3_1/forward_lstm_3_1/strided_slice/stack", "StatefulPartitionedCall/BiLSTM_Forecaster_1/bidirectional_3_1/forward_lstm_3_1/strided_slice/stack_1", "StatefulPartitionedCall/BiLSTM_Forecaster_1/bidirectional_3_1/forward_lstm_3_1/strided_slice/stack_2"], "attr": {"shrink_axis_mask": {"i": "1"}, "new_axis_mask": {"i": "0"}, "Index": {"type": "DT_INT32"}, "begin_mask": {"i": "0"}, "end_mask": {"i": "0"}, "T": {"type": "DT_INT32"}, "ellipsis_mask": {"i": "0"}}}, {"name": "StatefulPartitionedCall/BiLSTM_Forecaster_1/bidirectional_2_1/forward_lstm_2_1/while/body/_23/BiLSTM_Forecaster_1/bidirectional_2_1/forward_lstm_2_1/while/lstm_cell_1/Sigmoid", "op": "Sigmoid", "input": ["StatefulPartitionedCall/BiLSTM_Forecaster_1/bidirectional_2_1/forward_lstm_2_1/while/body/_23/BiLSTM_Forecaster_1/bidirectional_2_1/forward_lstm_2_1/while/lstm_cell_1/split"], "attr": {"T": {"type": "DT_FLOAT"}}}, {"name": "StatefulPartitionedCall/BiLSTM_Forecaster_1/bidirectional_2_1/forward_lstm_2_1/while/body/_23/BiLSTM_Forecaster_1/bidirectional_2_1/forward_lstm_2_1/while/lstm_cell_1/Sigmoid_1", "op": "Sigmoid", "input": ["StatefulPartitionedCall/BiLSTM_Forecaster_1/bidirectional_2_1/forward_lstm_2_1/while/body/_23/BiLSTM_Forecaster_1/bidirectional_2_1/forward_lstm_2_1/while/lstm_cell_1/split:1"], "attr": {"T": {"type": "DT_FLOAT"}}}, {"name": "StatefulPartitionedCall/BiLSTM_Forecaster_1/bidirectional_2_1/forward_lstm_2_1/while/body/_23/BiLSTM_Forecaster_1/bidirectional_2_1/forward_lstm_2_1/while/lstm_cell_1/Tanh", "op": "Tanh", "input": ["StatefulPartitionedCall/BiLSTM_Forecaster_1/bidirectional_2_1/forward_lstm_2_1/while/body/_23/BiLSTM_Forecaster_1/bidirectional_2_1/forward_lstm_2_1/while/lstm_cell_1/split:2"], "attr": {"T": {"type": "DT_FLOAT"}}}, {"name": "StatefulPartitionedCall/BiLSTM_Forecaster_1/bidirectional_2_1/forward_lstm_2_1/while/body/_23/BiLSTM_Forecaster_1/bidirectional_2_1/forward_lstm_2_1/while/lstm_cell_1/Sigmoid_2", "op": "Sigmoid", "input": ["StatefulPartitionedCall/BiLSTM_Forecaster_1/bidirectional_2_1/forward_lstm_2_1/while/body/_23/BiLSTM_Forecaster_1/bidirectional_2_1/forward_lstm_2_1/while/lstm_cell_1/split:3"], "attr": {"T": {"type": "DT_FLOAT"}}}, {"name": "StatefulPartitionedCall/BiLSTM_Forecaster_1/bidirectional_2_1/backward_lstm_2_1/while/body/_67/BiLSTM_Forecaster_1/bidirectional_2_1/backward_lstm_2_1/while/lstm_cell_1/Sigmoid", "op": "Sigmoid", "input": ["StatefulPartitionedCall/BiLSTM_Forecaster_1/bidirectional_2_1/backward_lstm_2_1/while/body/_67/BiLSTM_Forecaster_1/bidirectional_2_1/backward_lstm_2_1/while/lstm_cell_1/split"], "attr": {"T": {"type": "DT_FLOAT"}}}, {"name": "StatefulPartitionedCall/BiLSTM_Forecaster_1/bidirectional_2_1/backward_lstm_2_1/while/body/_67/BiLSTM_Forecaster_1/bidirectional_2_1/backward_lstm_2_1/while/lstm_cell_1/Sigmoid_1", "op": "Sigmoid", "input": ["StatefulPartitionedCall/BiLSTM_Forecaster_1/bidirectional_2_1/backward_lstm_2_1/while/body/_67/BiLSTM_Forecaster_1/bidirectional_2_1/backward_lstm_2_1/while/lstm_cell_1/split:1"], "attr": {"T": {"type": "DT_FLOAT"}}}, {"name": "StatefulPartitionedCall/BiLSTM_Forecaster_1/bidirectional_2_1/backward_lstm_2_1/while/body/_67/BiLSTM_Forecaster_1/bidirectional_2_1/backward_lstm_2_1/while/lstm_cell_1/Tanh", "op": "Tanh", "input": ["StatefulPartitionedCall/BiLSTM_Forecaster_1/bidirectional_2_1/backward_lstm_2_1/while/body/_67/BiLSTM_Forecaster_1/bidirectional_2_1/backward_lstm_2_1/while/lstm_cell_1/split:2"], "attr": {"T": {"type": "DT_FLOAT"}}}, {"name": "StatefulPartitionedCall/BiLSTM_Forecaster_1/bidirectional_2_1/backward_lstm_2_1/while/body/_67/BiLSTM_Forecaster_1/bidirectional_2_1/backward_lstm_2_1/while/lstm_cell_1/Sigmoid_2", "op": "Sigmoid", "input": ["StatefulPartitionedCall/BiLSTM_Forecaster_1/bidirectional_2_1/backward_lstm_2_1/while/body/_67/BiLSTM_Forecaster_1/bidirectional_2_1/backward_lstm_2_1/while/lstm_cell_1/split:3"], "attr": {"T": {"type": "DT_FLOAT"}}}, {"name": "StatefulPartitionedCall/BiLSTM_Forecaster_1/bidirectional_3_1/backward_lstm_3_1/TensorArrayUnstack/TensorListFromTensor", "op": "TensorListFromTensor", "input": ["StatefulPartitionedCall/BiLSTM_Forecaster_1/bidirectional_3_1/backward_lstm_3_1/ReverseV2", "StatefulPartitionedCall/BiLSTM_Forecaster_1/bidirectional_3_1/backward_lstm_3_1/TensorArrayUnstack/TensorListFromTensor/element_shape"], "attr": {"shape_type": {"type": "DT_INT32"}, "_has_manual_control_dependencies": {"b": true}, "element_dtype": {"type": "DT_FLOAT"}}, "experimentalType": {"typeId": "TFT_PRODUCT", "args": [{"typeId": "TFT_ARRAY", "args": [{"typeId": "TFT_TENSOR", "args": [{"typeId": "TFT_FLOAT"}]}]}]}}, {"name": "StatefulPartitionedCall/BiLSTM_Forecaster_1/bidirectional_3_1/backward_lstm_3_1/zeros/packed", "op": "Pack", "input": ["StatefulPartitionedCall/BiLSTM_Forecaster_1/bidirectional_3_1/backward_lstm_3_1/strided_slice", "StatefulPartitionedCall/BiLSTM_Forecaster_1/bidirectional_3_1/backward_lstm_3_1/zeros/packed/1"], "attr": {"N": {"i": "2"}, "axis": {"i": "0"}, "T": {"type": "DT_INT32"}}}, {"name": "StatefulPartitionedCall/BiLSTM_Forecaster_1/bidirectional_3_1/backward_lstm_3_1/zeros_1/packed", "op": "Pack", "input": ["StatefulPartitionedCall/BiLSTM_Forecaster_1/bidirectional_3_1/backward_lstm_3_1/strided_slice", "StatefulPartitionedCall/BiLSTM_Forecaster_1/bidirectional_3_1/backward_lstm_3_1/zeros_1/packed/1"], "attr": {"N": {"i": "2"}, "axis": {"i": "0"}, "T": {"type": "DT_INT32"}}}, {"name": "StatefulPartitionedCall/BiLSTM_Forecaster_1/bidirectional_3_1/forward_lstm_3_1/zeros/packed", "op": "Pack", "input": ["StatefulPartitionedCall/BiLSTM_Forecaster_1/bidirectional_3_1/forward_lstm_3_1/strided_slice", "StatefulPartitionedCall/BiLSTM_Forecaster_1/bidirectional_3_1/forward_lstm_3_1/zeros/packed/1"], "attr": {"N": {"i": "2"}, "axis": {"i": "0"}, "T": {"type": "DT_INT32"}}}, {"name": "StatefulPartitionedCall/BiLSTM_Forecaster_1/bidirectional_3_1/forward_lstm_3_1/zeros_1/packed", "op": "Pack", "input": ["StatefulPartitionedCall/BiLSTM_Forecaster_1/bidirectional_3_1/forward_lstm_3_1/strided_slice", "StatefulPartitionedCall/BiLSTM_Forecaster_1/bidirectional_3_1/forward_lstm_3_1/zeros_1/packed/1"], "attr": {"N": {"i": "2"}, "axis": {"i": "0"}, "T": {"type": "DT_INT32"}}}, {"name": "StatefulPartitionedCall/BiLSTM_Forecaster_1/bidirectional_2_1/forward_lstm_2_1/while/body/_23/BiLSTM_Forecaster_1/bidirectional_2_1/forward_lstm_2_1/while/lstm_cell_1/mul", "op": "Mul", "input": ["StatefulPartitionedCall/BiLSTM_Forecaster_1/bidirectional_2_1/forward_lstm_2_1/while/body/_23/BiLSTM_Forecaster_1/bidirectional_2_1/forward_lstm_2_1/while/lstm_cell_1/Sigmoid_1", "StatefulPartitionedCall/BiLSTM_Forecaster_1/bidirectional_2_1/forward_lstm_2_1/while/StatefulPartitionedCall/BiLSTM_Forecaster_1/bidirectional_2_1/forward_lstm_2_1/zeros_1_switch/_48:1"], "attr": {"T": {"type": "DT_FLOAT"}}}, {"name": "StatefulPartitionedCall/BiLSTM_Forecaster_1/bidirectional_2_1/forward_lstm_2_1/while/body/_23/BiLSTM_Forecaster_1/bidirectional_2_1/forward_lstm_2_1/while/lstm_cell_1/mul_1", "op": "Mul", "input": ["StatefulPartitionedCall/BiLSTM_Forecaster_1/bidirectional_2_1/forward_lstm_2_1/while/body/_23/BiLSTM_Forecaster_1/bidirectional_2_1/forward_lstm_2_1/while/lstm_cell_1/Sigmoid", "StatefulPartitionedCall/BiLSTM_Forecaster_1/bidirectional_2_1/forward_lstm_2_1/while/body/_23/BiLSTM_Forecaster_1/bidirectional_2_1/forward_lstm_2_1/while/lstm_cell_1/Tanh"], "attr": {"T": {"type": "DT_FLOAT"}}}, {"name": "StatefulPartitionedCall/BiLSTM_Forecaster_1/bidirectional_2_1/backward_lstm_2_1/while/body/_67/BiLSTM_Forecaster_1/bidirectional_2_1/backward_lstm_2_1/while/lstm_cell_1/mul", "op": "Mul", "input": ["StatefulPartitionedCall/BiLSTM_Forecaster_1/bidirectional_2_1/backward_lstm_2_1/while/body/_67/BiLSTM_Forecaster_1/bidirectional_2_1/backward_lstm_2_1/while/lstm_cell_1/Sigmoid_1", "StatefulPartitionedCall/BiLSTM_Forecaster_1/bidirectional_2_1/backward_lstm_2_1/while/StatefulPartitionedCall/BiLSTM_Forecaster_1/bidirectional_2_1/backward_lstm_2_1/zeros_1_switch/_92:1"], "attr": {"T": {"type": "DT_FLOAT"}}}, {"name": "StatefulPartitionedCall/BiLSTM_Forecaster_1/bidirectional_2_1/backward_lstm_2_1/while/body/_67/BiLSTM_Forecaster_1/bidirectional_2_1/backward_lstm_2_1/while/lstm_cell_1/mul_1", "op": "Mul", "input": ["StatefulPartitionedCall/BiLSTM_Forecaster_1/bidirectional_2_1/backward_lstm_2_1/while/body/_67/BiLSTM_Forecaster_1/bidirectional_2_1/backward_lstm_2_1/while/lstm_cell_1/Sigmoid", "StatefulPartitionedCall/BiLSTM_Forecaster_1/bidirectional_2_1/backward_lstm_2_1/while/body/_67/BiLSTM_Forecaster_1/bidirectional_2_1/backward_lstm_2_1/while/lstm_cell_1/Tanh"], "attr": {"T": {"type": "DT_FLOAT"}}}, {"name": "StatefulPartitionedCall/BiLSTM_Forecaster_1/bidirectional_3_1/backward_lstm_3_1/zeros", "op": "Fill", "input": ["StatefulPartitionedCall/BiLSTM_Forecaster_1/bidirectional_3_1/backward_lstm_3_1/zeros/packed", "StatefulPartitionedCall/BiLSTM_Forecaster_1/bidirectional_3_1/backward_lstm_3_1/zeros/Const"], "attr": {"_has_manual_control_dependencies": {"b": true}, "T": {"type": "DT_FLOAT"}, "index_type": {"type": "DT_INT32"}}}, {"name": "StatefulPartitionedCall/BiLSTM_Forecaster_1/bidirectional_3_1/backward_lstm_3_1/zeros_1", "op": "Fill", "input": ["StatefulPartitionedCall/BiLSTM_Forecaster_1/bidirectional_3_1/backward_lstm_3_1/zeros_1/packed", "StatefulPartitionedCall/BiLSTM_Forecaster_1/bidirectional_3_1/backward_lstm_3_1/zeros_1/Const"], "attr": {"_has_manual_control_dependencies": {"b": true}, "T": {"type": "DT_FLOAT"}, "index_type": {"type": "DT_INT32"}}}, {"name": "StatefulPartitionedCall/BiLSTM_Forecaster_1/bidirectional_3_1/forward_lstm_3_1/zeros", "op": "Fill", "input": ["StatefulPartitionedCall/BiLSTM_Forecaster_1/bidirectional_3_1/forward_lstm_3_1/zeros/packed", "StatefulPartitionedCall/BiLSTM_Forecaster_1/bidirectional_3_1/forward_lstm_3_1/zeros/Const"], "attr": {"_has_manual_control_dependencies": {"b": true}, "T": {"type": "DT_FLOAT"}, "index_type": {"type": "DT_INT32"}}}, {"name": "StatefulPartitionedCall/BiLSTM_Forecaster_1/bidirectional_3_1/forward_lstm_3_1/zeros_1", "op": "Fill", "input": ["StatefulPartitionedCall/BiLSTM_Forecaster_1/bidirectional_3_1/forward_lstm_3_1/zeros_1/packed", "StatefulPartitionedCall/BiLSTM_Forecaster_1/bidirectional_3_1/forward_lstm_3_1/zeros_1/Const"], "attr": {"_has_manual_control_dependencies": {"b": true}, "T": {"type": "DT_FLOAT"}, "index_type": {"type": "DT_INT32"}}}, {"name": "StatefulPartitionedCall/BiLSTM_Forecaster_1/bidirectional_2_1/forward_lstm_2_1/while/body/_23/BiLSTM_Forecaster_1/bidirectional_2_1/forward_lstm_2_1/while/lstm_cell_1/add_2", "op": "AddV2", "input": ["StatefulPartitionedCall/BiLSTM_Forecaster_1/bidirectional_2_1/forward_lstm_2_1/while/body/_23/BiLSTM_Forecaster_1/bidirectional_2_1/forward_lstm_2_1/while/lstm_cell_1/mul", "StatefulPartitionedCall/BiLSTM_Forecaster_1/bidirectional_2_1/forward_lstm_2_1/while/body/_23/BiLSTM_Forecaster_1/bidirectional_2_1/forward_lstm_2_1/while/lstm_cell_1/mul_1"], "attr": {"T": {"type": "DT_FLOAT"}}}, {"name": "StatefulPartitionedCall/BiLSTM_Forecaster_1/bidirectional_2_1/backward_lstm_2_1/while/body/_67/BiLSTM_Forecaster_1/bidirectional_2_1/backward_lstm_2_1/while/lstm_cell_1/add_2", "op": "AddV2", "input": ["StatefulPartitionedCall/BiLSTM_Forecaster_1/bidirectional_2_1/backward_lstm_2_1/while/body/_67/BiLSTM_Forecaster_1/bidirectional_2_1/backward_lstm_2_1/while/lstm_cell_1/mul", "StatefulPartitionedCall/BiLSTM_Forecaster_1/bidirectional_2_1/backward_lstm_2_1/while/body/_67/BiLSTM_Forecaster_1/bidirectional_2_1/backward_lstm_2_1/while/lstm_cell_1/mul_1"], "attr": {"T": {"type": "DT_FLOAT"}}}, {"name": "StatefulPartitionedCall/BiLSTM_Forecaster_1/bidirectional_3_1/backward_lstm_3_1/while/LoopControlInputs/_166", "op": "NoOp", "input": [], "attr": {"_has_manual_control_dependencies": {"b": true}}}, {"name": "StatefulPartitionedCall/BiLSTM_Forecaster_1/bidirectional_3_1/forward_lstm_3_1/while/LoopControlInputs/_122", "op": "NoOp", "input": [], "attr": {"_has_manual_control_dependencies": {"b": true}}}, {"name": "StatefulPartitionedCall/BiLSTM_Forecaster_1/bidirectional_2_1/forward_lstm_2_1/while/body/_23/BiLSTM_Forecaster_1/bidirectional_2_1/forward_lstm_2_1/while/lstm_cell_1/Tanh_1", "op": "Tanh", "input": ["StatefulPartitionedCall/BiLSTM_Forecaster_1/bidirectional_2_1/forward_lstm_2_1/while/body/_23/BiLSTM_Forecaster_1/bidirectional_2_1/forward_lstm_2_1/while/lstm_cell_1/add_2"], "attr": {"T": {"type": "DT_FLOAT"}}}, {"name": "StatefulPartitionedCall/BiLSTM_Forecaster_1/bidirectional_2_1/forward_lstm_2_1/while/next_iteration/_64", "op": "NextIteration", "input": ["StatefulPartitionedCall/BiLSTM_Forecaster_1/bidirectional_2_1/forward_lstm_2_1/while/body/_23/BiLSTM_Forecaster_1/bidirectional_2_1/forward_lstm_2_1/while/lstm_cell_1/add_2"], "attr": {"T": {"type": "DT_FLOAT"}}}, {"name": "StatefulPartitionedCall/BiLSTM_Forecaster_1/bidirectional_2_1/backward_lstm_2_1/while/body/_67/BiLSTM_Forecaster_1/bidirectional_2_1/backward_lstm_2_1/while/lstm_cell_1/Tanh_1", "op": "Tanh", "input": ["StatefulPartitionedCall/BiLSTM_Forecaster_1/bidirectional_2_1/backward_lstm_2_1/while/body/_67/BiLSTM_Forecaster_1/bidirectional_2_1/backward_lstm_2_1/while/lstm_cell_1/add_2"], "attr": {"T": {"type": "DT_FLOAT"}}}, {"name": "StatefulPartitionedCall/BiLSTM_Forecaster_1/bidirectional_2_1/backward_lstm_2_1/while/next_iteration/_108", "op": "NextIteration", "input": ["StatefulPartitionedCall/BiLSTM_Forecaster_1/bidirectional_2_1/backward_lstm_2_1/while/body/_67/BiLSTM_Forecaster_1/bidirectional_2_1/backward_lstm_2_1/while/lstm_cell_1/add_2"], "attr": {"T": {"type": "DT_FLOAT"}}}, {"name": "StatefulPartitionedCall/BiLSTM_Forecaster_1/bidirectional_3_1/backward_lstm_3_1/while/enter/_162", "op": "Enter", "input": ["StatefulPartitionedCall/BiLSTM_Forecaster_1/bidirectional_3_1/backward_lstm_3_1/TensorArrayUnstack/TensorListFromTensor"], "attr": {"is_constant": {"b": false}, "frame_name": {"s": "U3RhdGVmdWxQYXJ0aXRpb25lZENhbGwvQmlMU1RNX0ZvcmVjYXN0ZXJfMS9iaWRpcmVjdGlvbmFsXzNfMS9iYWNrd2FyZF9sc3RtXzNfMS93aGlsZQ=="}, "T": {"type": "DT_VARIANT"}, "parallel_iterations": {"i": "32"}}}, {"name": "StatefulPartitionedCall/BiLSTM_Forecaster_1/bidirectional_3_1/backward_lstm_3_1/while/enter/_157", "op": "Enter", "input": ["StatefulPartitionedCall/BiLSTM_Forecaster_1/bidirectional_3_1/backward_lstm_3_1/Max"], "attr": {"is_constant": {"b": false}, "frame_name": {"s": "U3RhdGVmdWxQYXJ0aXRpb25lZENhbGwvQmlMU1RNX0ZvcmVjYXN0ZXJfMS9iaWRpcmVjdGlvbmFsXzNfMS9iYWNrd2FyZF9sc3RtXzNfMS93aGlsZQ=="}, "T": {"type": "DT_INT32"}, "parallel_iterations": {"i": "32"}}}, {"name": "StatefulPartitionedCall/BiLSTM_Forecaster_1/bidirectional_3_1/backward_lstm_3_1/while/enter/_159", "op": "Enter", "input": ["StatefulPartitionedCall/BiLSTM_Forecaster_1/bidirectional_3_1/backward_lstm_3_1/TensorArrayV2_1"], "attr": {"is_constant": {"b": false}, "frame_name": {"s": "U3RhdGVmdWxQYXJ0aXRpb25lZENhbGwvQmlMU1RNX0ZvcmVjYXN0ZXJfMS9iaWRpcmVjdGlvbmFsXzNfMS9iYWNrd2FyZF9sc3RtXzNfMS93aGlsZQ=="}, "T": {"type": "DT_VARIANT"}, "parallel_iterations": {"i": "32"}}}, {"name": "StatefulPartitionedCall/BiLSTM_Forecaster_1/bidirectional_3_1/backward_lstm_3_1/while/enter/_156", "op": "Enter", "input": ["StatefulPartitionedCall/BiLSTM_Forecaster_1/bidirectional_3_1/backward_lstm_3_1/while/loop_counter"], "attr": {"is_constant": {"b": false}, "frame_name": {"s": "U3RhdGVmdWxQYXJ0aXRpb25lZENhbGwvQmlMU1RNX0ZvcmVjYXN0ZXJfMS9iaWRpcmVjdGlvbmFsXzNfMS9iYWNrd2FyZF9sc3RtXzNfMS93aGlsZQ=="}, "T": {"type": "DT_INT32"}, "parallel_iterations": {"i": "32"}}}, {"name": "StatefulPartitionedCall/BiLSTM_Forecaster_1/bidirectional_3_1/backward_lstm_3_1/while/enter/_160", "op": "Enter", "input": ["StatefulPartitionedCall/BiLSTM_Forecaster_1/bidirectional_3_1/backward_lstm_3_1/zeros"], "attr": {"is_constant": {"b": false}, "frame_name": {"s": "U3RhdGVmdWxQYXJ0aXRpb25lZENhbGwvQmlMU1RNX0ZvcmVjYXN0ZXJfMS9iaWRpcmVjdGlvbmFsXzNfMS9iYWNrd2FyZF9sc3RtXzNfMS93aGlsZQ=="}, "T": {"type": "DT_FLOAT"}, "parallel_iterations": {"i": "32"}}}, {"name": "StatefulPartitionedCall/BiLSTM_Forecaster_1/bidirectional_3_1/backward_lstm_3_1/while/enter/_161", "op": "Enter", "input": ["StatefulPartitionedCall/BiLSTM_Forecaster_1/bidirectional_3_1/backward_lstm_3_1/zeros_1"], "attr": {"is_constant": {"b": false}, "frame_name": {"s": "U3RhdGVmdWxQYXJ0aXRpb25lZENhbGwvQmlMU1RNX0ZvcmVjYXN0ZXJfMS9iaWRpcmVjdGlvbmFsXzNfMS9iYWNrd2FyZF9sc3RtXzNfMS93aGlsZQ=="}, "T": {"type": "DT_FLOAT"}, "parallel_iterations": {"i": "32"}}}, {"name": "StatefulPartitionedCall/BiLSTM_Forecaster_1/bidirectional_3_1/backward_lstm_3_1/while/enter/_158", "op": "Enter", "input": ["StatefulPartitionedCall/BiLSTM_Forecaster_1/bidirectional_3_1/backward_lstm_3_1/time"], "attr": {"is_constant": {"b": false}, "frame_name": {"s": "U3RhdGVmdWxQYXJ0aXRpb25lZENhbGwvQmlMU1RNX0ZvcmVjYXN0ZXJfMS9iaWRpcmVjdGlvbmFsXzNfMS9iYWNrd2FyZF9sc3RtXzNfMS93aGlsZQ=="}, "T": {"type": "DT_INT32"}, "parallel_iterations": {"i": "32"}}}, {"name": "StatefulPartitionedCall/BiLSTM_Forecaster_1/bidirectional_3_1/backward_lstm_3_1/while/enter/_163", "op": "Enter", "input": ["Func/StatefulPartitionedCall/input/_10"], "attr": {"is_constant": {"b": true}, "frame_name": {"s": "U3RhdGVmdWxQYXJ0aXRpb25lZENhbGwvQmlMU1RNX0ZvcmVjYXN0ZXJfMS9iaWRpcmVjdGlvbmFsXzNfMS9iYWNrd2FyZF9sc3RtXzNfMS93aGlsZQ=="}, "T": {"type": "DT_FLOAT"}, "_has_manual_control_dependencies": {"b": true}, "parallel_iterations": {"i": "32"}}}, {"name": "StatefulPartitionedCall/BiLSTM_Forecaster_1/bidirectional_3_1/backward_lstm_3_1/while/enter/_164", "op": "Enter", "input": ["Func/StatefulPartitionedCall/input/_11"], "attr": {"is_constant": {"b": true}, "_has_manual_control_dependencies": {"b": true}, "T": {"type": "DT_FLOAT"}, "frame_name": {"s": "U3RhdGVmdWxQYXJ0aXRpb25lZENhbGwvQmlMU1RNX0ZvcmVjYXN0ZXJfMS9iaWRpcmVjdGlvbmFsXzNfMS9iYWNrd2FyZF9sc3RtXzNfMS93aGlsZQ=="}, "parallel_iterations": {"i": "32"}}}, {"name": "StatefulPartitionedCall/BiLSTM_Forecaster_1/bidirectional_3_1/backward_lstm_3_1/while/enter/_165", "op": "Enter", "input": ["Func/StatefulPartitionedCall/input/_12"], "attr": {"is_constant": {"b": true}, "frame_name": {"s": "U3RhdGVmdWxQYXJ0aXRpb25lZENhbGwvQmlMU1RNX0ZvcmVjYXN0ZXJfMS9iaWRpcmVjdGlvbmFsXzNfMS9iYWNrd2FyZF9sc3RtXzNfMS93aGlsZQ=="}, "T": {"type": "DT_FLOAT"}, "_has_manual_control_dependencies": {"b": true}, "parallel_iterations": {"i": "32"}}}, {"name": "StatefulPartitionedCall/BiLSTM_Forecaster_1/bidirectional_3_1/forward_lstm_3_1/while/enter/_116", "op": "Enter", "input": ["StatefulPartitionedCall/BiLSTM_Forecaster_1/bidirectional_3_1/forward_lstm_3_1/zeros"], "attr": {"is_constant": {"b": false}, "frame_name": {"s": "U3RhdGVmdWxQYXJ0aXRpb25lZENhbGwvQmlMU1RNX0ZvcmVjYXN0ZXJfMS9iaWRpcmVjdGlvbmFsXzNfMS9mb3J3YXJkX2xzdG1fM18xL3doaWxl"}, "T": {"type": "DT_FLOAT"}, "parallel_iterations": {"i": "32"}}}, {"name": "StatefulPartitionedCall/BiLSTM_Forecaster_1/bidirectional_3_1/forward_lstm_3_1/while/enter/_118", "op": "Enter", "input": ["StatefulPartitionedCall/BiLSTM_Forecaster_1/bidirectional_3_1/forward_lstm_3_1/TensorArrayUnstack/TensorListFromTensor"], "attr": {"is_constant": {"b": false}, "frame_name": {"s": "U3RhdGVmdWxQYXJ0aXRpb25lZENhbGwvQmlMU1RNX0ZvcmVjYXN0ZXJfMS9iaWRpcmVjdGlvbmFsXzNfMS9mb3J3YXJkX2xzdG1fM18xL3doaWxl"}, "T": {"type": "DT_VARIANT"}, "parallel_iterations": {"i": "32"}}}, {"name": "StatefulPartitionedCall/BiLSTM_Forecaster_1/bidirectional_3_1/forward_lstm_3_1/while/enter/_113", "op": "Enter", "input": ["StatefulPartitionedCall/BiLSTM_Forecaster_1/bidirectional_3_1/forward_lstm_3_1/Max"], "attr": {"is_constant": {"b": false}, "frame_name": {"s": "U3RhdGVmdWxQYXJ0aXRpb25lZENhbGwvQmlMU1RNX0ZvcmVjYXN0ZXJfMS9iaWRpcmVjdGlvbmFsXzNfMS9mb3J3YXJkX2xzdG1fM18xL3doaWxl"}, "T": {"type": "DT_INT32"}, "parallel_iterations": {"i": "32"}}}, {"name": "StatefulPartitionedCall/BiLSTM_Forecaster_1/bidirectional_3_1/forward_lstm_3_1/while/enter/_115", "op": "Enter", "input": ["StatefulPartitionedCall/BiLSTM_Forecaster_1/bidirectional_3_1/forward_lstm_3_1/TensorArrayV2_1"], "attr": {"is_constant": {"b": false}, "frame_name": {"s": "U3RhdGVmdWxQYXJ0aXRpb25lZENhbGwvQmlMU1RNX0ZvcmVjYXN0ZXJfMS9iaWRpcmVjdGlvbmFsXzNfMS9mb3J3YXJkX2xzdG1fM18xL3doaWxl"}, "T": {"type": "DT_VARIANT"}, "parallel_iterations": {"i": "32"}}}, {"name": "StatefulPartitionedCall/BiLSTM_Forecaster_1/bidirectional_3_1/forward_lstm_3_1/while/enter/_112", "op": "Enter", "input": ["StatefulPartitionedCall/BiLSTM_Forecaster_1/bidirectional_3_1/forward_lstm_3_1/while/loop_counter"], "attr": {"is_constant": {"b": false}, "frame_name": {"s": "U3RhdGVmdWxQYXJ0aXRpb25lZENhbGwvQmlMU1RNX0ZvcmVjYXN0ZXJfMS9iaWRpcmVjdGlvbmFsXzNfMS9mb3J3YXJkX2xzdG1fM18xL3doaWxl"}, "T": {"type": "DT_INT32"}, "parallel_iterations": {"i": "32"}}}, {"name": "StatefulPartitionedCall/BiLSTM_Forecaster_1/bidirectional_3_1/forward_lstm_3_1/while/enter/_117", "op": "Enter", "input": ["StatefulPartitionedCall/BiLSTM_Forecaster_1/bidirectional_3_1/forward_lstm_3_1/zeros_1"], "attr": {"is_constant": {"b": false}, "frame_name": {"s": "U3RhdGVmdWxQYXJ0aXRpb25lZENhbGwvQmlMU1RNX0ZvcmVjYXN0ZXJfMS9iaWRpcmVjdGlvbmFsXzNfMS9mb3J3YXJkX2xzdG1fM18xL3doaWxl"}, "T": {"type": "DT_FLOAT"}, "parallel_iterations": {"i": "32"}}}, {"name": "StatefulPartitionedCall/BiLSTM_Forecaster_1/bidirectional_3_1/forward_lstm_3_1/while/enter/_114", "op": "Enter", "input": ["StatefulPartitionedCall/BiLSTM_Forecaster_1/bidirectional_3_1/forward_lstm_3_1/time"], "attr": {"is_constant": {"b": false}, "frame_name": {"s": "U3RhdGVmdWxQYXJ0aXRpb25lZENhbGwvQmlMU1RNX0ZvcmVjYXN0ZXJfMS9iaWRpcmVjdGlvbmFsXzNfMS9mb3J3YXJkX2xzdG1fM18xL3doaWxl"}, "T": {"type": "DT_INT32"}, "parallel_iterations": {"i": "32"}}}, {"name": "StatefulPartitionedCall/BiLSTM_Forecaster_1/bidirectional_3_1/forward_lstm_3_1/while/enter/_119", "op": "Enter", "input": ["Func/StatefulPartitionedCall/input/_7"], "attr": {"is_constant": {"b": true}, "_has_manual_control_dependencies": {"b": true}, "T": {"type": "DT_FLOAT"}, "frame_name": {"s": "U3RhdGVmdWxQYXJ0aXRpb25lZENhbGwvQmlMU1RNX0ZvcmVjYXN0ZXJfMS9iaWRpcmVjdGlvbmFsXzNfMS9mb3J3YXJkX2xzdG1fM18xL3doaWxl"}, "parallel_iterations": {"i": "32"}}}, {"name": "StatefulPartitionedCall/BiLSTM_Forecaster_1/bidirectional_3_1/forward_lstm_3_1/while/enter/_120", "op": "Enter", "input": ["Func/StatefulPartitionedCall/input/_8"], "attr": {"is_constant": {"b": true}, "_has_manual_control_dependencies": {"b": true}, "T": {"type": "DT_FLOAT"}, "frame_name": {"s": "U3RhdGVmdWxQYXJ0aXRpb25lZENhbGwvQmlMU1RNX0ZvcmVjYXN0ZXJfMS9iaWRpcmVjdGlvbmFsXzNfMS9mb3J3YXJkX2xzdG1fM18xL3doaWxl"}, "parallel_iterations": {"i": "32"}}}, {"name": "StatefulPartitionedCall/BiLSTM_Forecaster_1/bidirectional_3_1/forward_lstm_3_1/while/enter/_121", "op": "Enter", "input": ["Func/StatefulPartitionedCall/input/_9"], "attr": {"is_constant": {"b": true}, "_has_manual_control_dependencies": {"b": true}, "T": {"type": "DT_FLOAT"}, "frame_name": {"s": "U3RhdGVmdWxQYXJ0aXRpb25lZENhbGwvQmlMU1RNX0ZvcmVjYXN0ZXJfMS9iaWRpcmVjdGlvbmFsXzNfMS9mb3J3YXJkX2xzdG1fM18xL3doaWxl"}, "parallel_iterations": {"i": "32"}}}, {"name": "StatefulPartitionedCall/BiLSTM_Forecaster_1/bidirectional_2_1/forward_lstm_2_1/while/body/_23/BiLSTM_Forecaster_1/bidirectional_2_1/forward_lstm_2_1/while/lstm_cell_1/mul_2", "op": "Mul", "input": ["StatefulPartitionedCall/BiLSTM_Forecaster_1/bidirectional_2_1/forward_lstm_2_1/while/body/_23/BiLSTM_Forecaster_1/bidirectional_2_1/forward_lstm_2_1/while/lstm_cell_1/Sigmoid_2", "StatefulPartitionedCall/BiLSTM_Forecaster_1/bidirectional_2_1/forward_lstm_2_1/while/body/_23/BiLSTM_Forecaster_1/bidirectional_2_1/forward_lstm_2_1/while/lstm_cell_1/Tanh_1"], "attr": {"T": {"type": "DT_FLOAT"}}}, {"name": "StatefulPartitionedCall/BiLSTM_Forecaster_1/bidirectional_2_1/backward_lstm_2_1/while/body/_67/BiLSTM_Forecaster_1/bidirectional_2_1/backward_lstm_2_1/while/lstm_cell_1/mul_2", "op": "Mul", "input": ["StatefulPartitionedCall/BiLSTM_Forecaster_1/bidirectional_2_1/backward_lstm_2_1/while/body/_67/BiLSTM_Forecaster_1/bidirectional_2_1/backward_lstm_2_1/while/lstm_cell_1/Sigmoid_2", "StatefulPartitionedCall/BiLSTM_Forecaster_1/bidirectional_2_1/backward_lstm_2_1/while/body/_67/BiLSTM_Forecaster_1/bidirectional_2_1/backward_lstm_2_1/while/lstm_cell_1/Tanh_1"], "attr": {"T": {"type": "DT_FLOAT"}}}, {"name": "StatefulPartitionedCall/BiLSTM_Forecaster_1/bidirectional_3_1/backward_lstm_3_1/while/merge/_173", "op": "Merge", "input": ["StatefulPartitionedCall/BiLSTM_Forecaster_1/bidirectional_3_1/backward_lstm_3_1/while/enter/_162", "StatefulPartitionedCall/BiLSTM_Forecaster_1/bidirectional_3_1/backward_lstm_3_1/while/next_iteration/_197"], "attr": {"N": {"i": "2"}, "_has_manual_control_dependencies": {"b": true}, "T": {"type": "DT_VARIANT"}}}, {"name": "StatefulPartitionedCall/BiLSTM_Forecaster_1/bidirectional_3_1/backward_lstm_3_1/while/merge/_168", "op": "Merge", "input": ["StatefulPartitionedCall/BiLSTM_Forecaster_1/bidirectional_3_1/backward_lstm_3_1/while/enter/_157", "StatefulPartitionedCall/BiLSTM_Forecaster_1/bidirectional_3_1/backward_lstm_3_1/while/next_iteration/_192"], "attr": {"N": {"i": "2"}, "_has_manual_control_dependencies": {"b": true}, "T": {"type": "DT_INT32"}}}, {"name": "StatefulPartitionedCall/BiLSTM_Forecaster_1/bidirectional_3_1/backward_lstm_3_1/while/merge/_170", "op": "Merge", "input": ["StatefulPartitionedCall/BiLSTM_Forecaster_1/bidirectional_3_1/backward_lstm_3_1/while/enter/_159", "StatefulPartitionedCall/BiLSTM_Forecaster_1/bidirectional_3_1/backward_lstm_3_1/while/next_iteration/_194"], "attr": {"N": {"i": "2"}, "_has_manual_control_dependencies": {"b": true}, "T": {"type": "DT_VARIANT"}}}, {"name": "StatefulPartitionedCall/BiLSTM_Forecaster_1/bidirectional_3_1/backward_lstm_3_1/while/merge/_167", "op": "Merge", "input": ["StatefulPartitionedCall/BiLSTM_Forecaster_1/bidirectional_3_1/backward_lstm_3_1/while/enter/_156", "StatefulPartitionedCall/BiLSTM_Forecaster_1/bidirectional_3_1/backward_lstm_3_1/while/next_iteration/_191"], "attr": {"N": {"i": "2"}, "_has_manual_control_dependencies": {"b": true}, "T": {"type": "DT_INT32"}}}, {"name": "StatefulPartitionedCall/BiLSTM_Forecaster_1/bidirectional_3_1/backward_lstm_3_1/while/merge/_171", "op": "Merge", "input": ["StatefulPartitionedCall/BiLSTM_Forecaster_1/bidirectional_3_1/backward_lstm_3_1/while/enter/_160", "StatefulPartitionedCall/BiLSTM_Forecaster_1/bidirectional_3_1/backward_lstm_3_1/while/next_iteration/_195"], "attr": {"N": {"i": "2"}, "_has_manual_control_dependencies": {"b": true}, "T": {"type": "DT_FLOAT"}}}, {"name": "StatefulPartitionedCall/BiLSTM_Forecaster_1/bidirectional_3_1/backward_lstm_3_1/while/merge/_172", "op": "Merge", "input": ["StatefulPartitionedCall/BiLSTM_Forecaster_1/bidirectional_3_1/backward_lstm_3_1/while/enter/_161", "StatefulPartitionedCall/BiLSTM_Forecaster_1/bidirectional_3_1/backward_lstm_3_1/while/next_iteration/_196"], "attr": {"N": {"i": "2"}, "_has_manual_control_dependencies": {"b": true}, "T": {"type": "DT_FLOAT"}}}, {"name": "StatefulPartitionedCall/BiLSTM_Forecaster_1/bidirectional_3_1/backward_lstm_3_1/while/merge/_169", "op": "Merge", "input": ["StatefulPartitionedCall/BiLSTM_Forecaster_1/bidirectional_3_1/backward_lstm_3_1/while/enter/_158", "StatefulPartitionedCall/BiLSTM_Forecaster_1/bidirectional_3_1/backward_lstm_3_1/while/next_iteration/_193"], "attr": {"N": {"i": "2"}, "_has_manual_control_dependencies": {"b": true}, "T": {"type": "DT_INT32"}}}, {"name": "StatefulPartitionedCall/BiLSTM_Forecaster_1/bidirectional_3_1/forward_lstm_3_1/while/merge/_127", "op": "Merge", "input": ["StatefulPartitionedCall/BiLSTM_Forecaster_1/bidirectional_3_1/forward_lstm_3_1/while/enter/_116", "StatefulPartitionedCall/BiLSTM_Forecaster_1/bidirectional_3_1/forward_lstm_3_1/while/next_iteration/_151"], "attr": {"N": {"i": "2"}, "T": {"type": "DT_FLOAT"}}}, {"name": "StatefulPartitionedCall/BiLSTM_Forecaster_1/bidirectional_3_1/forward_lstm_3_1/while/merge/_129", "op": "Merge", "input": ["StatefulPartitionedCall/BiLSTM_Forecaster_1/bidirectional_3_1/forward_lstm_3_1/while/enter/_118", "StatefulPartitionedCall/BiLSTM_Forecaster_1/bidirectional_3_1/forward_lstm_3_1/while/next_iteration/_153"], "attr": {"N": {"i": "2"}, "T": {"type": "DT_VARIANT"}}}, {"name": "StatefulPartitionedCall/BiLSTM_Forecaster_1/bidirectional_3_1/forward_lstm_3_1/while/merge/_124", "op": "Merge", "input": ["StatefulPartitionedCall/BiLSTM_Forecaster_1/bidirectional_3_1/forward_lstm_3_1/while/enter/_113", "StatefulPartitionedCall/BiLSTM_Forecaster_1/bidirectional_3_1/forward_lstm_3_1/while/next_iteration/_148"], "attr": {"N": {"i": "2"}, "T": {"type": "DT_INT32"}}}, {"name": "StatefulPartitionedCall/BiLSTM_Forecaster_1/bidirectional_3_1/forward_lstm_3_1/while/merge/_126", "op": "Merge", "input": ["StatefulPartitionedCall/BiLSTM_Forecaster_1/bidirectional_3_1/forward_lstm_3_1/while/enter/_115", "StatefulPartitionedCall/BiLSTM_Forecaster_1/bidirectional_3_1/forward_lstm_3_1/while/next_iteration/_150"], "attr": {"N": {"i": "2"}, "T": {"type": "DT_VARIANT"}}}, {"name": "StatefulPartitionedCall/BiLSTM_Forecaster_1/bidirectional_3_1/forward_lstm_3_1/while/merge/_123", "op": "Merge", "input": ["StatefulPartitionedCall/BiLSTM_Forecaster_1/bidirectional_3_1/forward_lstm_3_1/while/enter/_112", "StatefulPartitionedCall/BiLSTM_Forecaster_1/bidirectional_3_1/forward_lstm_3_1/while/next_iteration/_147"], "attr": {"N": {"i": "2"}, "_has_manual_control_dependencies": {"b": true}, "T": {"type": "DT_INT32"}}}, {"name": "StatefulPartitionedCall/BiLSTM_Forecaster_1/bidirectional_3_1/forward_lstm_3_1/while/merge/_128", "op": "Merge", "input": ["StatefulPartitionedCall/BiLSTM_Forecaster_1/bidirectional_3_1/forward_lstm_3_1/while/enter/_117", "StatefulPartitionedCall/BiLSTM_Forecaster_1/bidirectional_3_1/forward_lstm_3_1/while/next_iteration/_152"], "attr": {"N": {"i": "2"}, "T": {"type": "DT_FLOAT"}}}, {"name": "StatefulPartitionedCall/BiLSTM_Forecaster_1/bidirectional_3_1/forward_lstm_3_1/while/merge/_125", "op": "Merge", "input": ["StatefulPartitionedCall/BiLSTM_Forecaster_1/bidirectional_3_1/forward_lstm_3_1/while/enter/_114", "StatefulPartitionedCall/BiLSTM_Forecaster_1/bidirectional_3_1/forward_lstm_3_1/while/next_iteration/_149"], "attr": {"N": {"i": "2"}, "T": {"type": "DT_INT32"}}}, {"name": "StatefulPartitionedCall/BiLSTM_Forecaster_1/bidirectional_2_1/forward_lstm_2_1/while/body/_23/BiLSTM_Forecaster_1/bidirectional_2_1/forward_lstm_2_1/while/TensorArrayV2Write/TensorListSetItem", "op": "TensorListSetItem", "input": ["StatefulPartitionedCall/BiLSTM_Forecaster_1/bidirectional_2_1/forward_lstm_2_1/while/StatefulPartitionedCall/BiLSTM_Forecaster_1/bidirectional_2_1/forward_lstm_2_1/TensorArrayV2_1_switch/_46:1", "Func/StatefulPartitionedCall/BiLSTM_Forecaster_1/bidirectional_2_1/forward_lstm_2_1/while/body/_23/input/_213", "StatefulPartitionedCall/BiLSTM_Forecaster_1/bidirectional_2_1/forward_lstm_2_1/while/body/_23/BiLSTM_Forecaster_1/bidirectional_2_1/forward_lstm_2_1/while/lstm_cell_1/mul_2"], "attr": {"element_dtype": {"type": "DT_FLOAT"}, "resize_if_index_out_of_bounds": {"b": false}}, "experimentalType": {"typeId": "TFT_PRODUCT", "args": [{"typeId": "TFT_ARRAY", "args": [{"typeId": "TFT_TENSOR", "args": [{"typeId": "TFT_FLOAT"}]}]}]}}, {"name": "StatefulPartitionedCall/BiLSTM_Forecaster_1/bidirectional_2_1/forward_lstm_2_1/while/next_iteration/_63", "op": "NextIteration", "input": ["StatefulPartitionedCall/BiLSTM_Forecaster_1/bidirectional_2_1/forward_lstm_2_1/while/body/_23/BiLSTM_Forecaster_1/bidirectional_2_1/forward_lstm_2_1/while/lstm_cell_1/mul_2"], "attr": {"T": {"type": "DT_FLOAT"}}}, {"name": "StatefulPartitionedCall/BiLSTM_Forecaster_1/bidirectional_2_1/backward_lstm_2_1/while/body/_67/BiLSTM_Forecaster_1/bidirectional_2_1/backward_lstm_2_1/while/TensorArrayV2Write/TensorListSetItem", "op": "TensorListSetItem", "input": ["StatefulPartitionedCall/BiLSTM_Forecaster_1/bidirectional_2_1/backward_lstm_2_1/while/StatefulPartitionedCall/BiLSTM_Forecaster_1/bidirectional_2_1/backward_lstm_2_1/TensorArrayV2_1_switch/_90:1", "Func/StatefulPartitionedCall/BiLSTM_Forecaster_1/bidirectional_2_1/backward_lstm_2_1/while/body/_67/input/_247", "StatefulPartitionedCall/BiLSTM_Forecaster_1/bidirectional_2_1/backward_lstm_2_1/while/body/_67/BiLSTM_Forecaster_1/bidirectional_2_1/backward_lstm_2_1/while/lstm_cell_1/mul_2"], "attr": {"element_dtype": {"type": "DT_FLOAT"}, "resize_if_index_out_of_bounds": {"b": false}}, "experimentalType": {"typeId": "TFT_PRODUCT", "args": [{"typeId": "TFT_ARRAY", "args": [{"typeId": "TFT_TENSOR", "args": [{"typeId": "TFT_FLOAT"}]}]}]}}, {"name": "StatefulPartitionedCall/BiLSTM_Forecaster_1/bidirectional_2_1/backward_lstm_2_1/while/next_iteration/_107", "op": "NextIteration", "input": ["StatefulPartitionedCall/BiLSTM_Forecaster_1/bidirectional_2_1/backward_lstm_2_1/while/body/_67/BiLSTM_Forecaster_1/bidirectional_2_1/backward_lstm_2_1/while/lstm_cell_1/mul_2"], "attr": {"T": {"type": "DT_FLOAT"}}}, {"name": "Func/StatefulPartitionedCall/BiLSTM_Forecaster_1/bidirectional_3_1/backward_lstm_3_1/while/cond/_154/input_control_node/_300", "op": "NoOp", "input": [], "attr": {"_has_manual_control_dependencies": {"b": true}}}, {"name": "Func/StatefulPartitionedCall/BiLSTM_Forecaster_1/bidirectional_3_1/forward_lstm_3_1/while/cond/_110/input_control_node/_266", "op": "NoOp", "input": [], "attr": {"_has_manual_control_dependencies": {"b": true}}}, {"name": "StatefulPartitionedCall/BiLSTM_Forecaster_1/bidirectional_2_1/forward_lstm_2_1/while/next_iteration/_62", "op": "NextIteration", "input": ["StatefulPartitionedCall/BiLSTM_Forecaster_1/bidirectional_2_1/forward_lstm_2_1/while/body/_23/BiLSTM_Forecaster_1/bidirectional_2_1/forward_lstm_2_1/while/TensorArrayV2Write/TensorListSetItem"], "attr": {"T": {"type": "DT_VARIANT"}}}, {"name": "StatefulPartitionedCall/BiLSTM_Forecaster_1/bidirectional_2_1/backward_lstm_2_1/while/next_iteration/_106", "op": "NextIteration", "input": ["StatefulPartitionedCall/BiLSTM_Forecaster_1/bidirectional_2_1/backward_lstm_2_1/while/body/_67/BiLSTM_Forecaster_1/bidirectional_2_1/backward_lstm_2_1/while/TensorArrayV2Write/TensorListSetItem"], "attr": {"T": {"type": "DT_VARIANT"}}}, {"name": "StatefulPartitionedCall/BiLSTM_Forecaster_1/bidirectional_3_1/backward_lstm_3_1/while/cond/_154/BiLSTM_Forecaster_1/bidirectional_3_1/backward_lstm_3_1/while/Less_1", "op": "Less", "input": ["StatefulPartitionedCall/BiLSTM_Forecaster_1/bidirectional_3_1/backward_lstm_3_1/while/merge/_167", "StatefulPartitionedCall/BiLSTM_Forecaster_1/bidirectional_3_1/backward_lstm_3_1/while/merge/_168"], "attr": {"T": {"type": "DT_INT32"}}}, {"name": "StatefulPartitionedCall/BiLSTM_Forecaster_1/bidirectional_3_1/backward_lstm_3_1/while/cond/_154/BiLSTM_Forecaster_1/bidirectional_3_1/backward_lstm_3_1/while/Less/y", "op": "Const", "input": [], "attr": {"value": {"tensor": {"dtype": "DT_INT32", "tensorShape": {}}}, "dtype": {"type": "DT_INT32"}}}, {"name": "StatefulPartitionedCall/BiLSTM_Forecaster_1/bidirectional_3_1/forward_lstm_3_1/while/cond/_110/BiLSTM_Forecaster_1/bidirectional_3_1/forward_lstm_3_1/while/Less_1", "op": "Less", "input": ["StatefulPartitionedCall/BiLSTM_Forecaster_1/bidirectional_3_1/forward_lstm_3_1/while/merge/_123", "StatefulPartitionedCall/BiLSTM_Forecaster_1/bidirectional_3_1/forward_lstm_3_1/while/merge/_124"], "attr": {"T": {"type": "DT_INT32"}}}, {"name": "StatefulPartitionedCall/BiLSTM_Forecaster_1/bidirectional_3_1/forward_lstm_3_1/while/cond/_110/BiLSTM_Forecaster_1/bidirectional_3_1/forward_lstm_3_1/while/Less/y", "op": "Const", "input": [], "attr": {"value": {"tensor": {"dtype": "DT_INT32", "tensorShape": {}}}, "dtype": {"type": "DT_INT32"}}}, {"name": "StatefulPartitionedCall/BiLSTM_Forecaster_1/bidirectional_3_1/backward_lstm_3_1/while/cond/_154/BiLSTM_Forecaster_1/bidirectional_3_1/backward_lstm_3_1/while/Less", "op": "Less", "input": ["StatefulPartitionedCall/BiLSTM_Forecaster_1/bidirectional_3_1/backward_lstm_3_1/while/merge/_169", "StatefulPartitionedCall/BiLSTM_Forecaster_1/bidirectional_3_1/backward_lstm_3_1/while/cond/_154/BiLSTM_Forecaster_1/bidirectional_3_1/backward_lstm_3_1/while/Less/y"], "attr": {"T": {"type": "DT_INT32"}}}, {"name": "StatefulPartitionedCall/BiLSTM_Forecaster_1/bidirectional_3_1/forward_lstm_3_1/while/cond/_110/BiLSTM_Forecaster_1/bidirectional_3_1/forward_lstm_3_1/while/Less", "op": "Less", "input": ["StatefulPartitionedCall/BiLSTM_Forecaster_1/bidirectional_3_1/forward_lstm_3_1/while/merge/_125", "StatefulPartitionedCall/BiLSTM_Forecaster_1/bidirectional_3_1/forward_lstm_3_1/while/cond/_110/BiLSTM_Forecaster_1/bidirectional_3_1/forward_lstm_3_1/while/Less/y"], "attr": {"T": {"type": "DT_INT32"}}}, {"name": "StatefulPartitionedCall/BiLSTM_Forecaster_1/bidirectional_3_1/backward_lstm_3_1/while/cond/_154/BiLSTM_Forecaster_1/bidirectional_3_1/backward_lstm_3_1/while/LogicalAnd", "op": "LogicalAnd", "input": ["StatefulPartitionedCall/BiLSTM_Forecaster_1/bidirectional_3_1/backward_lstm_3_1/while/cond/_154/BiLSTM_Forecaster_1/bidirectional_3_1/backward_lstm_3_1/while/Less_1", "StatefulPartitionedCall/BiLSTM_Forecaster_1/bidirectional_3_1/backward_lstm_3_1/while/cond/_154/BiLSTM_Forecaster_1/bidirectional_3_1/backward_lstm_3_1/while/Less"]}, {"name": "StatefulPartitionedCall/BiLSTM_Forecaster_1/bidirectional_3_1/forward_lstm_3_1/while/cond/_110/BiLSTM_Forecaster_1/bidirectional_3_1/forward_lstm_3_1/while/LogicalAnd", "op": "LogicalAnd", "input": ["StatefulPartitionedCall/BiLSTM_Forecaster_1/bidirectional_3_1/forward_lstm_3_1/while/cond/_110/BiLSTM_Forecaster_1/bidirectional_3_1/forward_lstm_3_1/while/Less_1", "StatefulPartitionedCall/BiLSTM_Forecaster_1/bidirectional_3_1/forward_lstm_3_1/while/cond/_110/BiLSTM_Forecaster_1/bidirectional_3_1/forward_lstm_3_1/while/Less"]}, {"name": "StatefulPartitionedCall/BiLSTM_Forecaster_1/bidirectional_3_1/backward_lstm_3_1/while/LoopCond/_174", "op": "LoopCond", "input": ["StatefulPartitionedCall/BiLSTM_Forecaster_1/bidirectional_3_1/backward_lstm_3_1/while/cond/_154/BiLSTM_Forecaster_1/bidirectional_3_1/backward_lstm_3_1/while/LogicalAnd"]}, {"name": "StatefulPartitionedCall/BiLSTM_Forecaster_1/bidirectional_3_1/forward_lstm_3_1/while/LoopCond/_130", "op": "LoopCond", "input": ["StatefulPartitionedCall/BiLSTM_Forecaster_1/bidirectional_3_1/forward_lstm_3_1/while/cond/_110/BiLSTM_Forecaster_1/bidirectional_3_1/forward_lstm_3_1/while/LogicalAnd"]}, {"name": "StatefulPartitionedCall/BiLSTM_Forecaster_1/bidirectional_3_1/backward_lstm_3_1/while/StatefulPartitionedCall/BiLSTM_Forecaster_1/bidirectional_3_1/backward_lstm_3_1/Max_switch/_176", "op": "Switch", "input": ["StatefulPartitionedCall/BiLSTM_Forecaster_1/bidirectional_3_1/backward_lstm_3_1/while/merge/_168", "StatefulPartitionedCall/BiLSTM_Forecaster_1/bidirectional_3_1/backward_lstm_3_1/while/LoopCond/_174"], "attr": {"T": {"type": "DT_INT32"}}}, {"name": "StatefulPartitionedCall/BiLSTM_Forecaster_1/bidirectional_3_1/backward_lstm_3_1/while/StatefulPartitionedCall/BiLSTM_Forecaster_1/bidirectional_3_1/backward_lstm_3_1/TensorArrayV2_1_switch/_178", "op": "Switch", "input": ["StatefulPartitionedCall/BiLSTM_Forecaster_1/bidirectional_3_1/backward_lstm_3_1/while/merge/_170", "StatefulPartitionedCall/BiLSTM_Forecaster_1/bidirectional_3_1/backward_lstm_3_1/while/LoopCond/_174"], "attr": {"T": {"type": "DT_VARIANT"}}}, {"name": "StatefulPartitionedCall/BiLSTM_Forecaster_1/bidirectional_3_1/backward_lstm_3_1/while/StatefulPartitionedCall/BiLSTM_Forecaster_1/bidirectional_3_1/backward_lstm_3_1/while/loop_counter_switch/_175", "op": "Switch", "input": ["StatefulPartitionedCall/BiLSTM_Forecaster_1/bidirectional_3_1/backward_lstm_3_1/while/merge/_167", "StatefulPartitionedCall/BiLSTM_Forecaster_1/bidirectional_3_1/backward_lstm_3_1/while/LoopCond/_174"], "attr": {"T": {"type": "DT_INT32"}}}, {"name": "StatefulPartitionedCall/BiLSTM_Forecaster_1/bidirectional_3_1/backward_lstm_3_1/while/StatefulPartitionedCall/BiLSTM_Forecaster_1/bidirectional_3_1/backward_lstm_3_1/zeros_1_switch/_180", "op": "Switch", "input": ["StatefulPartitionedCall/BiLSTM_Forecaster_1/bidirectional_3_1/backward_lstm_3_1/while/merge/_172", "StatefulPartitionedCall/BiLSTM_Forecaster_1/bidirectional_3_1/backward_lstm_3_1/while/LoopCond/_174"], "attr": {"T": {"type": "DT_FLOAT"}}}, {"name": "StatefulPartitionedCall/BiLSTM_Forecaster_1/bidirectional_3_1/backward_lstm_3_1/while/StatefulPartitionedCall/BiLSTM_Forecaster_1/bidirectional_3_1/backward_lstm_3_1/time_switch/_177", "op": "Switch", "input": ["StatefulPartitionedCall/BiLSTM_Forecaster_1/bidirectional_3_1/backward_lstm_3_1/while/merge/_169", "StatefulPartitionedCall/BiLSTM_Forecaster_1/bidirectional_3_1/backward_lstm_3_1/while/LoopCond/_174"], "attr": {"T": {"type": "DT_INT32"}}}, {"name": "StatefulPartitionedCall/BiLSTM_Forecaster_1/bidirectional_3_1/backward_lstm_3_1/while/StatefulPartitionedCall/BiLSTM_Forecaster_1/bidirectional_3_1/backward_lstm_3_1/zeros_switch/_179", "op": "Switch", "input": ["StatefulPartitionedCall/BiLSTM_Forecaster_1/bidirectional_3_1/backward_lstm_3_1/while/merge/_171", "StatefulPartitionedCall/BiLSTM_Forecaster_1/bidirectional_3_1/backward_lstm_3_1/while/LoopCond/_174"], "attr": {"T": {"type": "DT_FLOAT"}}}, {"name": "StatefulPartitionedCall/BiLSTM_Forecaster_1/bidirectional_3_1/backward_lstm_3_1/while/StatefulPartitionedCall/BiLSTM_Forecaster_1/bidirectional_3_1/backward_lstm_3_1/TensorArrayUnstack/TensorListFromTensor_switch/_181", "op": "Switch", "input": ["StatefulPartitionedCall/BiLSTM_Forecaster_1/bidirectional_3_1/backward_lstm_3_1/while/merge/_173", "StatefulPartitionedCall/BiLSTM_Forecaster_1/bidirectional_3_1/backward_lstm_3_1/while/LoopCond/_174"], "attr": {"T": {"type": "DT_VARIANT"}}}, {"name": "StatefulPartitionedCall/BiLSTM_Forecaster_1/bidirectional_3_1/forward_lstm_3_1/while/StatefulPartitionedCall/BiLSTM_Forecaster_1/bidirectional_3_1/forward_lstm_3_1/Max_switch/_132", "op": "Switch", "input": ["StatefulPartitionedCall/BiLSTM_Forecaster_1/bidirectional_3_1/forward_lstm_3_1/while/merge/_124", "StatefulPartitionedCall/BiLSTM_Forecaster_1/bidirectional_3_1/forward_lstm_3_1/while/LoopCond/_130"], "attr": {"_has_manual_control_dependencies": {"b": true}, "T": {"type": "DT_INT32"}}}, {"name": "StatefulPartitionedCall/BiLSTM_Forecaster_1/bidirectional_3_1/forward_lstm_3_1/while/StatefulPartitionedCall/BiLSTM_Forecaster_1/bidirectional_3_1/forward_lstm_3_1/TensorArrayV2_1_switch/_134", "op": "Switch", "input": ["StatefulPartitionedCall/BiLSTM_Forecaster_1/bidirectional_3_1/forward_lstm_3_1/while/merge/_126", "StatefulPartitionedCall/BiLSTM_Forecaster_1/bidirectional_3_1/forward_lstm_3_1/while/LoopCond/_130"], "attr": {"T": {"type": "DT_VARIANT"}}}, {"name": "StatefulPartitionedCall/BiLSTM_Forecaster_1/bidirectional_3_1/forward_lstm_3_1/while/StatefulPartitionedCall/BiLSTM_Forecaster_1/bidirectional_3_1/forward_lstm_3_1/while/loop_counter_switch/_131", "op": "Switch", "input": ["StatefulPartitionedCall/BiLSTM_Forecaster_1/bidirectional_3_1/forward_lstm_3_1/while/merge/_123", "StatefulPartitionedCall/BiLSTM_Forecaster_1/bidirectional_3_1/forward_lstm_3_1/while/LoopCond/_130"], "attr": {"_has_manual_control_dependencies": {"b": true}, "T": {"type": "DT_INT32"}}}, {"name": "StatefulPartitionedCall/BiLSTM_Forecaster_1/bidirectional_3_1/forward_lstm_3_1/while/StatefulPartitionedCall/BiLSTM_Forecaster_1/bidirectional_3_1/forward_lstm_3_1/TensorArrayUnstack/TensorListFromTensor_switch/_137", "op": "Switch", "input": ["StatefulPartitionedCall/BiLSTM_Forecaster_1/bidirectional_3_1/forward_lstm_3_1/while/merge/_129", "StatefulPartitionedCall/BiLSTM_Forecaster_1/bidirectional_3_1/forward_lstm_3_1/while/LoopCond/_130"], "attr": {"T": {"type": "DT_VARIANT"}}}, {"name": "StatefulPartitionedCall/BiLSTM_Forecaster_1/bidirectional_3_1/forward_lstm_3_1/while/StatefulPartitionedCall/BiLSTM_Forecaster_1/bidirectional_3_1/forward_lstm_3_1/time_switch/_133", "op": "Switch", "input": ["StatefulPartitionedCall/BiLSTM_Forecaster_1/bidirectional_3_1/forward_lstm_3_1/while/merge/_125", "StatefulPartitionedCall/BiLSTM_Forecaster_1/bidirectional_3_1/forward_lstm_3_1/while/LoopCond/_130"], "attr": {"T": {"type": "DT_INT32"}}}, {"name": "StatefulPartitionedCall/BiLSTM_Forecaster_1/bidirectional_3_1/forward_lstm_3_1/while/StatefulPartitionedCall/BiLSTM_Forecaster_1/bidirectional_3_1/forward_lstm_3_1/zeros_1_switch/_136", "op": "Switch", "input": ["StatefulPartitionedCall/BiLSTM_Forecaster_1/bidirectional_3_1/forward_lstm_3_1/while/merge/_128", "StatefulPartitionedCall/BiLSTM_Forecaster_1/bidirectional_3_1/forward_lstm_3_1/while/LoopCond/_130"], "attr": {"T": {"type": "DT_FLOAT"}}}, {"name": "StatefulPartitionedCall/BiLSTM_Forecaster_1/bidirectional_3_1/forward_lstm_3_1/while/StatefulPartitionedCall/BiLSTM_Forecaster_1/bidirectional_3_1/forward_lstm_3_1/zeros_switch/_135", "op": "Switch", "input": ["StatefulPartitionedCall/BiLSTM_Forecaster_1/bidirectional_3_1/forward_lstm_3_1/while/merge/_127", "StatefulPartitionedCall/BiLSTM_Forecaster_1/bidirectional_3_1/forward_lstm_3_1/while/LoopCond/_130"], "attr": {"T": {"type": "DT_FLOAT"}}}, {"name": "StatefulPartitionedCall/BiLSTM_Forecaster_1/bidirectional_3_1/backward_lstm_3_1/while/exit/_184", "op": "Exit", "input": ["StatefulPartitionedCall/BiLSTM_Forecaster_1/bidirectional_3_1/backward_lstm_3_1/while/StatefulPartitionedCall/BiLSTM_Forecaster_1/bidirectional_3_1/backward_lstm_3_1/Max_switch/_176"], "attr": {"_has_manual_control_dependencies": {"b": true}, "T": {"type": "DT_INT32"}}}, {"name": "StatefulPartitionedCall/BiLSTM_Forecaster_1/bidirectional_3_1/backward_lstm_3_1/while/exit/_186", "op": "Exit", "input": ["StatefulPartitionedCall/BiLSTM_Forecaster_1/bidirectional_3_1/backward_lstm_3_1/while/StatefulPartitionedCall/BiLSTM_Forecaster_1/bidirectional_3_1/backward_lstm_3_1/TensorArrayV2_1_switch/_178"], "attr": {"_has_manual_control_dependencies": {"b": true}, "T": {"type": "DT_VARIANT"}}}, {"name": "StatefulPartitionedCall/BiLSTM_Forecaster_1/bidirectional_3_1/backward_lstm_3_1/while/exit/_183", "op": "Exit", "input": ["StatefulPartitionedCall/BiLSTM_Forecaster_1/bidirectional_3_1/backward_lstm_3_1/while/StatefulPartitionedCall/BiLSTM_Forecaster_1/bidirectional_3_1/backward_lstm_3_1/while/loop_counter_switch/_175"], "attr": {"_has_manual_control_dependencies": {"b": true}, "T": {"type": "DT_INT32"}}}, {"name": "StatefulPartitionedCall/BiLSTM_Forecaster_1/bidirectional_3_1/backward_lstm_3_1/while/loop_body_control/_182", "op": "Identity", "input": ["StatefulPartitionedCall/BiLSTM_Forecaster_1/bidirectional_3_1/backward_lstm_3_1/while/StatefulPartitionedCall/BiLSTM_Forecaster_1/bidirectional_3_1/backward_lstm_3_1/while/loop_counter_switch/_175:1"], "attr": {"_has_manual_control_dependencies": {"b": true}, "T": {"type": "DT_INT32"}}}, {"name": "StatefulPartitionedCall/BiLSTM_Forecaster_1/bidirectional_3_1/backward_lstm_3_1/while/exit/_188", "op": "Exit", "input": ["StatefulPartitionedCall/BiLSTM_Forecaster_1/bidirectional_3_1/backward_lstm_3_1/while/StatefulPartitionedCall/BiLSTM_Forecaster_1/bidirectional_3_1/backward_lstm_3_1/zeros_1_switch/_180"], "attr": {"_has_manual_control_dependencies": {"b": true}, "T": {"type": "DT_FLOAT"}}}, {"name": "StatefulPartitionedCall/BiLSTM_Forecaster_1/bidirectional_3_1/backward_lstm_3_1/while/exit/_185", "op": "Exit", "input": ["StatefulPartitionedCall/BiLSTM_Forecaster_1/bidirectional_3_1/backward_lstm_3_1/while/StatefulPartitionedCall/BiLSTM_Forecaster_1/bidirectional_3_1/backward_lstm_3_1/time_switch/_177"], "attr": {"_has_manual_control_dependencies": {"b": true}, "T": {"type": "DT_INT32"}}}, {"name": "StatefulPartitionedCall/BiLSTM_Forecaster_1/bidirectional_3_1/backward_lstm_3_1/while/exit/_187", "op": "Exit", "input": ["StatefulPartitionedCall/BiLSTM_Forecaster_1/bidirectional_3_1/backward_lstm_3_1/while/StatefulPartitionedCall/BiLSTM_Forecaster_1/bidirectional_3_1/backward_lstm_3_1/zeros_switch/_179"], "attr": {"_has_manual_control_dependencies": {"b": true}, "T": {"type": "DT_FLOAT"}}}, {"name": "StatefulPartitionedCall/BiLSTM_Forecaster_1/bidirectional_3_1/backward_lstm_3_1/while/exit/_189", "op": "Exit", "input": ["StatefulPartitionedCall/BiLSTM_Forecaster_1/bidirectional_3_1/backward_lstm_3_1/while/StatefulPartitionedCall/BiLSTM_Forecaster_1/bidirectional_3_1/backward_lstm_3_1/TensorArrayUnstack/TensorListFromTensor_switch/_181"], "attr": {"_has_manual_control_dependencies": {"b": true}, "T": {"type": "DT_VARIANT"}}}, {"name": "StatefulPartitionedCall/BiLSTM_Forecaster_1/bidirectional_3_1/forward_lstm_3_1/while/exit/_140", "op": "Exit", "input": ["StatefulPartitionedCall/BiLSTM_Forecaster_1/bidirectional_3_1/forward_lstm_3_1/while/StatefulPartitionedCall/BiLSTM_Forecaster_1/bidirectional_3_1/forward_lstm_3_1/Max_switch/_132"], "attr": {"_has_manual_control_dependencies": {"b": true}, "T": {"type": "DT_INT32"}}}, {"name": "StatefulPartitionedCall/BiLSTM_Forecaster_1/bidirectional_3_1/forward_lstm_3_1/while/exit/_142", "op": "Exit", "input": ["StatefulPartitionedCall/BiLSTM_Forecaster_1/bidirectional_3_1/forward_lstm_3_1/while/StatefulPartitionedCall/BiLSTM_Forecaster_1/bidirectional_3_1/forward_lstm_3_1/TensorArrayV2_1_switch/_134"], "attr": {"_has_manual_control_dependencies": {"b": true}, "T": {"type": "DT_VARIANT"}}}, {"name": "StatefulPartitionedCall/BiLSTM_Forecaster_1/bidirectional_3_1/forward_lstm_3_1/while/exit/_139", "op": "Exit", "input": ["StatefulPartitionedCall/BiLSTM_Forecaster_1/bidirectional_3_1/forward_lstm_3_1/while/StatefulPartitionedCall/BiLSTM_Forecaster_1/bidirectional_3_1/forward_lstm_3_1/while/loop_counter_switch/_131"], "attr": {"_has_manual_control_dependencies": {"b": true}, "T": {"type": "DT_INT32"}}}, {"name": "StatefulPartitionedCall/BiLSTM_Forecaster_1/bidirectional_3_1/forward_lstm_3_1/while/loop_body_control/_138", "op": "Identity", "input": ["StatefulPartitionedCall/BiLSTM_Forecaster_1/bidirectional_3_1/forward_lstm_3_1/while/StatefulPartitionedCall/BiLSTM_Forecaster_1/bidirectional_3_1/forward_lstm_3_1/while/loop_counter_switch/_131:1"], "attr": {"_has_manual_control_dependencies": {"b": true}, "T": {"type": "DT_INT32"}}}, {"name": "StatefulPartitionedCall/BiLSTM_Forecaster_1/bidirectional_3_1/forward_lstm_3_1/while/exit/_145", "op": "Exit", "input": ["StatefulPartitionedCall/BiLSTM_Forecaster_1/bidirectional_3_1/forward_lstm_3_1/while/StatefulPartitionedCall/BiLSTM_Forecaster_1/bidirectional_3_1/forward_lstm_3_1/TensorArrayUnstack/TensorListFromTensor_switch/_137"], "attr": {"_has_manual_control_dependencies": {"b": true}, "T": {"type": "DT_VARIANT"}}}, {"name": "StatefulPartitionedCall/BiLSTM_Forecaster_1/bidirectional_3_1/forward_lstm_3_1/while/exit/_141", "op": "Exit", "input": ["StatefulPartitionedCall/BiLSTM_Forecaster_1/bidirectional_3_1/forward_lstm_3_1/while/StatefulPartitionedCall/BiLSTM_Forecaster_1/bidirectional_3_1/forward_lstm_3_1/time_switch/_133"], "attr": {"_has_manual_control_dependencies": {"b": true}, "T": {"type": "DT_INT32"}}}, {"name": "StatefulPartitionedCall/BiLSTM_Forecaster_1/bidirectional_3_1/forward_lstm_3_1/while/exit/_144", "op": "Exit", "input": ["StatefulPartitionedCall/BiLSTM_Forecaster_1/bidirectional_3_1/forward_lstm_3_1/while/StatefulPartitionedCall/BiLSTM_Forecaster_1/bidirectional_3_1/forward_lstm_3_1/zeros_1_switch/_136"], "attr": {"_has_manual_control_dependencies": {"b": true}, "T": {"type": "DT_FLOAT"}}}, {"name": "StatefulPartitionedCall/BiLSTM_Forecaster_1/bidirectional_3_1/forward_lstm_3_1/while/exit/_143", "op": "Exit", "input": ["StatefulPartitionedCall/BiLSTM_Forecaster_1/bidirectional_3_1/forward_lstm_3_1/while/StatefulPartitionedCall/BiLSTM_Forecaster_1/bidirectional_3_1/forward_lstm_3_1/zeros_switch/_135"], "attr": {"_has_manual_control_dependencies": {"b": true}, "T": {"type": "DT_FLOAT"}}}, {"name": "StatefulPartitionedCall/BiLSTM_Forecaster_1/bidirectional_3_1/backward_lstm_3_1/TensorArrayV2Stack/TensorListStack", "op": "TensorListStack", "input": ["StatefulPartitionedCall/BiLSTM_Forecaster_1/bidirectional_3_1/backward_lstm_3_1/while/exit/_186", "StatefulPartitionedCall/BiLSTM_Forecaster_1/bidirectional_3_1/backward_lstm_3_1/TensorArrayV2Stack/TensorListStack/element_shape"], "attr": {"num_elements": {"i": "128"}, "element_dtype": {"type": "DT_FLOAT"}}}, {"name": "Func/StatefulPartitionedCall/BiLSTM_Forecaster_1/bidirectional_3_1/backward_lstm_3_1/while/body/_155/input_control_node/_312", "op": "NoOp", "input": [], "attr": {"_has_manual_control_dependencies": {"b": true}}}, {"name": "StatefulPartitionedCall/BiLSTM_Forecaster_1/bidirectional_3_1/forward_lstm_3_1/TensorArrayV2Stack/TensorListStack", "op": "TensorListStack", "input": ["StatefulPartitionedCall/BiLSTM_Forecaster_1/bidirectional_3_1/forward_lstm_3_1/while/exit/_142", "StatefulPartitionedCall/BiLSTM_Forecaster_1/bidirectional_3_1/forward_lstm_3_1/TensorArrayV2Stack/TensorListStack/element_shape"], "attr": {"num_elements": {"i": "128"}, "element_dtype": {"type": "DT_FLOAT"}}}, {"name": "Func/StatefulPartitionedCall/BiLSTM_Forecaster_1/bidirectional_3_1/forward_lstm_3_1/while/body/_111/input_control_node/_278", "op": "NoOp", "input": [], "attr": {"_has_manual_control_dependencies": {"b": true}}}, {"name": "StatefulPartitionedCall/BiLSTM_Forecaster_1/bidirectional_3_1/backward_lstm_3_1/transpose_1", "op": "Transpose", "input": ["StatefulPartitionedCall/BiLSTM_Forecaster_1/bidirectional_3_1/backward_lstm_3_1/TensorArrayV2Stack/TensorListStack", "StatefulPartitionedCall/BiLSTM_Forecaster_1/bidirectional_3_1/backward_lstm_3_1/transpose_1/perm"], "attr": {"Tperm": {"type": "DT_INT32"}, "T": {"type": "DT_FLOAT"}}}, {"name": "StatefulPartitionedCall/BiLSTM_Forecaster_1/bidirectional_3_1/backward_lstm_3_1/while/body/_155/BiLSTM_Forecaster_1/bidirectional_3_1/backward_lstm_3_1/while/add_1/y", "op": "Const", "input": [], "attr": {"value": {"tensor": {"dtype": "DT_INT32", "tensorShape": {}}}, "dtype": {"type": "DT_INT32"}}}, {"name": "StatefulPartitionedCall/BiLSTM_Forecaster_1/bidirectional_3_1/backward_lstm_3_1/while/body/_155/BiLSTM_Forecaster_1/bidirectional_3_1/backward_lstm_3_1/while/lstm_cell_1/split/split_dim", "op": "Const", "input": [], "attr": {"value": {"tensor": {"dtype": "DT_INT32", "tensorShape": {}}}, "dtype": {"type": "DT_INT32"}}}, {"name": "StatefulPartitionedCall/BiLSTM_Forecaster_1/bidirectional_3_1/backward_lstm_3_1/while/body/_155/BiLSTM_Forecaster_1/bidirectional_3_1/backward_lstm_3_1/while/add/y", "op": "Const", "input": [], "attr": {"value": {"tensor": {"dtype": "DT_INT32", "tensorShape": {}}}, "dtype": {"type": "DT_INT32"}}}, {"name": "Func/StatefulPartitionedCall/BiLSTM_Forecaster_1/bidirectional_3_1/backward_lstm_3_1/while/body/_155/input/_315", "op": "Identity", "input": ["StatefulPartitionedCall/BiLSTM_Forecaster_1/bidirectional_3_1/backward_lstm_3_1/while/StatefulPartitionedCall/BiLSTM_Forecaster_1/bidirectional_3_1/backward_lstm_3_1/time_switch/_177:1"], "attr": {"T": {"type": "DT_INT32"}}}, {"name": "StatefulPartitionedCall/BiLSTM_Forecaster_1/bidirectional_3_1/backward_lstm_3_1/while/body/_155/BiLSTM_Forecaster_1/bidirectional_3_1/backward_lstm_3_1/while/TensorArrayV2Read/TensorListGetItem/element_shape", "op": "Const", "input": [], "attr": {"value": {"tensor": {"dtype": "DT_INT32", "tensorShape": {"dim": [{"size": "2"}]}}}, "dtype": {"type": "DT_INT32"}}}, {"name": "StatefulPartitionedCall/BiLSTM_Forecaster_1/bidirectional_3_1/backward_lstm_3_1/while/body/_155/BiLSTM_Forecaster_1/bidirectional_3_1/backward_lstm_3_1/while/lstm_cell_1/Cast/ReadVariableOp", "op": "Const", "input": [], "attr": {"value": {"tensor": {"dtype": "DT_FLOAT", "tensorShape": {"dim": [{"size": "128"}, {"size": "128"}]}}}, "dtype": {"type": "DT_FLOAT"}}}, {"name": "StatefulPartitionedCall/BiLSTM_Forecaster_1/bidirectional_3_1/backward_lstm_3_1/while/body/_155/BiLSTM_Forecaster_1/bidirectional_3_1/backward_lstm_3_1/while/lstm_cell_1/Cast_1/ReadVariableOp", "op": "Const", "input": [], "attr": {"value": {"tensor": {"dtype": "DT_FLOAT", "tensorShape": {"dim": [{"size": "32"}, {"size": "128"}]}}}, "dtype": {"type": "DT_FLOAT"}}}, {"name": "StatefulPartitionedCall/BiLSTM_Forecaster_1/bidirectional_3_1/backward_lstm_3_1/while/body/_155/BiLSTM_Forecaster_1/bidirectional_3_1/backward_lstm_3_1/while/lstm_cell_1/add_1/ReadVariableOp", "op": "Const", "input": [], "attr": {"value": {"tensor": {"dtype": "DT_FLOAT", "tensorShape": {"dim": [{"size": "128"}]}}}, "dtype": {"type": "DT_FLOAT"}}}, {"name": "StatefulPartitionedCall/BiLSTM_Forecaster_1/bidirectional_3_1/forward_lstm_3_1/trans…
tm_3_1/while/lstm_cell_1/MatMul_1", "op": "MatMul", "input": ["StatefulPartitionedCall/BiLSTM_Forecaster_1/bidirectional_3_1/backward_lstm_3_1/while/StatefulPartitionedCall/BiLSTM_Forecaster_1/bidirectional_3_1/backward_lstm_3_1/zeros_switch/_179:1", "StatefulPartitionedCall/BiLSTM_Forecaster_1/bidirectional_3_1/backward_lstm_3_1/while/body/_155/BiLSTM_Forecaster_1/bidirectional_3_1/backward_lstm_3_1/while/lstm_cell_1/Cast_1/ReadVariableOp"], "device": "/device:CPU:0", "attr": {"transpose_a": {"b": false}, "grad_a": {"b": false}, "T": {"type": "DT_FLOAT"}, "grad_b": {"b": false}, "transpose_b": {"b": false}}}, {"name": "Func/StatefulPartitionedCall/BiLSTM_Forecaster_1/bidirectional_3_1/backward_lstm_3_1/while/body/_155/output_control_node/_333", "op": "NoOp", "input": [], "attr": {"_has_manual_control_dependencies": {"b": true}}}, {"name": "StatefulPartitionedCall/BiLSTM_Forecaster_1/bidirectional_3_1/backward_lstm_3_1/while/body/_155/BiLSTM_Forecaster_1/bidirectional_3_1/backward_lstm_3_1/while/NoOp", "op": "NoOp", "input": [], "attr": {"_has_manual_control_dependencies": {"b": true}}}, {"name": "StatefulPartitionedCall/BiLSTM_Forecaster_1/bidirectional_3_1/forward_lstm_3_1/while/body/_111/BiLSTM_Forecaster_1/bidirectional_3_1/forward_lstm_3_1/while/add_1", "op": "AddV2", "input": ["StatefulPartitionedCall/BiLSTM_Forecaster_1/bidirectional_3_1/forward_lstm_3_1/while/StatefulPartitionedCall/BiLSTM_Forecaster_1/bidirectional_3_1/forward_lstm_3_1/while/loop_counter_switch/_131:1", "StatefulPartitionedCall/BiLSTM_Forecaster_1/bidirectional_3_1/forward_lstm_3_1/while/body/_111/BiLSTM_Forecaster_1/bidirectional_3_1/forward_lstm_3_1/while/add_1/y"], "attr": {"T": {"type": "DT_INT32"}}}, {"name": "StatefulPartitionedCall/BiLSTM_Forecaster_1/bidirectional_3_1/forward_lstm_3_1/while/body/_111/BiLSTM_Forecaster_1/bidirectional_3_1/forward_lstm_3_1/while/add", "op": "AddV2", "input": ["Func/StatefulPartitionedCall/BiLSTM_Forecaster_1/bidirectional_3_1/forward_lstm_3_1/while/body/_111/input/_281", "StatefulPartitionedCall/BiLSTM_Forecaster_1/bidirectional_3_1/forward_lstm_3_1/while/body/_111/BiLSTM_Forecaster_1/bidirectional_3_1/forward_lstm_3_1/while/add/y"], "attr": {"T": {"type": "DT_INT32"}}}, {"name": "StatefulPartitionedCall/BiLSTM_Forecaster_1/bidirectional_3_1/forward_lstm_3_1/while/body/_111/BiLSTM_Forecaster_1/bidirectional_3_1/forward_lstm_3_1/while/TensorArrayV2Read/TensorListGetItem", "op": "TensorListGetItem", "input": ["StatefulPartitionedCall/BiLSTM_Forecaster_1/bidirectional_3_1/forward_lstm_3_1/while/StatefulPartitionedCall/BiLSTM_Forecaster_1/bidirectional_3_1/forward_lstm_3_1/TensorArrayUnstack/TensorListFromTensor_switch/_137:1", "Func/StatefulPartitionedCall/BiLSTM_Forecaster_1/bidirectional_3_1/forward_lstm_3_1/while/body/_111/input/_281", "StatefulPartitionedCall/BiLSTM_Forecaster_1/bidirectional_3_1/forward_lstm_3_1/while/body/_111/BiLSTM_Forecaster_1/bidirectional_3_1/forward_lstm_3_1/while/TensorArrayV2Read/TensorListGetItem/element_shape"], "attr": {"element_dtype": {"type": "DT_FLOAT"}}}, {"name": "StatefulPartitionedCall/BiLSTM_Forecaster_1/bidirectional_3_1/forward_lstm_3_1/while/body/_111/BiLSTM_Forecaster_1/bidirectional_3_1/forward_lstm_3_1/while/lstm_cell_1/MatMul_1", "op": "MatMul", "input": ["StatefulPartitionedCall/BiLSTM_Forecaster_1/bidirectional_3_1/forward_lstm_3_1/while/StatefulPartitionedCall/BiLSTM_Forecaster_1/bidirectional_3_1/forward_lstm_3_1/zeros_switch/_135:1", "StatefulPartitionedCall/BiLSTM_Forecaster_1/bidirectional_3_1/forward_lstm_3_1/while/body/_111/BiLSTM_Forecaster_1/bidirectional_3_1/forward_lstm_3_1/while/lstm_cell_1/Cast_1/ReadVariableOp"], "device": "/device:CPU:0", "attr": {"transpose_a": {"b": false}, "grad_a": {"b": false}, "T": {"type": "DT_FLOAT"}, "grad_b": {"b": false}, "transpose_b": {"b": false}}}, {"name": "Func/StatefulPartitionedCall/BiLSTM_Forecaster_1/bidirectional_3_1/forward_lstm_3_1/while/body/_111/output_control_node/_299", "op": "NoOp", "input": [], "attr": {"_has_manual_control_dependencies": {"b": true}}}, {"name": "StatefulPartitionedCall/BiLSTM_Forecaster_1/bidirectional_3_1/forward_lstm_3_1/while/body/_111/BiLSTM_Forecaster_1/bidirectional_3_1/forward_lstm_3_1/while/NoOp", "op": "NoOp", "input": [], "attr": {"_has_manual_control_dependencies": {"b": true}}}, {"name": "StatefulPartitionedCall/BiLSTM_Forecaster_1/bidirectional_3_1/concat", "op": "ConcatV2", "input": ["StatefulPartitionedCall/BiLSTM_Forecaster_1/bidirectional_3_1/forward_lstm_3_1/transpose_1", "StatefulPartitionedCall/BiLSTM_Forecaster_1/bidirectional_3_1/ReverseV2", "StatefulPartitionedCall/BiLSTM_Forecaster_1/bidirectional_3_1/concat/axis"], "attr": {"N": {"i": "2"}, "Tidx": {"type": "DT_INT32"}, "T": {"type": "DT_FLOAT"}}}, {"name": "StatefulPartitionedCall/BiLSTM_Forecaster_1/bidirectional_3_1/backward_lstm_3_1/while/body/_155/BiLSTM_Forecaster_1/bidirectional_3_1/backward_lstm_3_1/while/lstm_cell_1/add", "op": "AddV2", "input": ["StatefulPartitionedCall/BiLSTM_Forecaster_1/bidirectional_3_1/backward_lstm_3_1/while/body/_155/BiLSTM_Forecaster_1/bidirectional_3_1/backward_lstm_3_1/while/lstm_cell_1/add_1/ReadVariableOp", "StatefulPartitionedCall/BiLSTM_Forecaster_1/bidirectional_3_1/backward_lstm_3_1/while/body/_155/BiLSTM_Forecaster_1/bidirectional_3_1/backward_lstm_3_1/while/lstm_cell_1/MatMul_1"], "attr": {"T": {"type": "DT_FLOAT"}}}, {"name": "StatefulPartitionedCall/BiLSTM_Forecaster_1/bidirectional_3_1/backward_lstm_3_1/while/next_iteration/_197", "op": "NextIteration", "input": ["StatefulPartitionedCall/BiLSTM_Forecaster_1/bidirectional_3_1/backward_lstm_3_1/while/StatefulPartitionedCall/BiLSTM_Forecaster_1/bidirectional_3_1/backward_lstm_3_1/TensorArrayUnstack/TensorListFromTensor_switch/_181:1"], "attr": {"T": {"type": "DT_VARIANT"}}}, {"name": "StatefulPartitionedCall/BiLSTM_Forecaster_1/bidirectional_3_1/backward_lstm_3_1/while/next_iteration/_192", "op": "NextIteration", "input": ["StatefulPartitionedCall/BiLSTM_Forecaster_1/bidirectional_3_1/backward_lstm_3_1/while/StatefulPartitionedCall/BiLSTM_Forecaster_1/bidirectional_3_1/backward_lstm_3_1/Max_switch/_176:1"], "attr": {"T": {"type": "DT_INT32"}}}, {"name": "StatefulPartitionedCall/BiLSTM_Forecaster_1/bidirectional_3_1/backward_lstm_3_1/while/next_iteration/_191", "op": "NextIteration", "input": ["StatefulPartitionedCall/BiLSTM_Forecaster_1/bidirectional_3_1/backward_lstm_3_1/while/body/_155/BiLSTM_Forecaster_1/bidirectional_3_1/backward_lstm_3_1/while/add_1"], "attr": {"T": {"type": "DT_INT32"}}}, {"name": "StatefulPartitionedCall/BiLSTM_Forecaster_1/bidirectional_3_1/backward_lstm_3_1/while/next_iteration/_193", "op": "NextIteration", "input": ["StatefulPartitionedCall/BiLSTM_Forecaster_1/bidirectional_3_1/backward_lstm_3_1/while/body/_155/BiLSTM_Forecaster_1/bidirectional_3_1/backward_lstm_3_1/while/add"], "attr": {"T": {"type": "DT_INT32"}}}, {"name": "StatefulPartitionedCall/BiLSTM_Forecaster_1/bidirectional_3_1/forward_lstm_3_1/while/body/_111/BiLSTM_Forecaster_1/bidirectional_3_1/forward_lstm_3_1/while/lstm_cell_1/add", "op": "AddV2", "input": ["StatefulPartitionedCall/BiLSTM_Forecaster_1/bidirectional_3_1/forward_lstm_3_1/while/body/_111/BiLSTM_Forecaster_1/bidirectional_3_1/forward_lstm_3_1/while/lstm_cell_1/add_1/ReadVariableOp", "StatefulPartitionedCall/BiLSTM_Forecaster_1/bidirectional_3_1/forward_lstm_3_1/while/body/_111/BiLSTM_Forecaster_1/bidirectional_3_1/forward_lstm_3_1/while/lstm_cell_1/MatMul_1"], "attr": {"T": {"type": "DT_FLOAT"}}}, {"name": "StatefulPartitionedCall/BiLSTM_Forecaster_1/bidirectional_3_1/forward_lstm_3_1/while/next_iteration/_153", "op": "NextIteration", "input": ["StatefulPartitionedCall/BiLSTM_Forecaster_1/bidirectional_3_1/forward_lstm_3_1/while/StatefulPartitionedCall/BiLSTM_Forecaster_1/bidirectional_3_1/forward_lstm_3_1/TensorArrayUnstack/TensorListFromTensor_switch/_137:1"], "attr": {"T": {"type": "DT_VARIANT"}}}, {"name": "StatefulPartitionedCall/BiLSTM_Forecaster_1/bidirectional_3_1/forward_lstm_3_1/while/next_iteration/_148", "op": "NextIteration", "input": ["StatefulPartitionedCall/BiLSTM_Forecaster_1/bidirectional_3_1/forward_lstm_3_1/while/StatefulPartitionedCall/BiLSTM_Forecaster_1/bidirectional_3_1/forward_lstm_3_1/Max_switch/_132:1"], "attr": {"T": {"type": "DT_INT32"}}}, {"name": "StatefulPartitionedCall/BiLSTM_Forecaster_1/bidirectional_3_1/forward_lstm_3_1/while/next_iteration/_147", "op": "NextIteration", "input": ["StatefulPartitionedCall/BiLSTM_Forecaster_1/bidirectional_3_1/forward_lstm_3_1/while/body/_111/BiLSTM_Forecaster_1/bidirectional_3_1/forward_lstm_3_1/while/add_1"], "attr": {"T": {"type": "DT_INT32"}}}, {"name": "StatefulPartitionedCall/BiLSTM_Forecaster_1/bidirectional_3_1/forward_lstm_3_1/while/next_iteration/_149", "op": "NextIteration", "input": ["StatefulPartitionedCall/BiLSTM_Forecaster_1/bidirectional_3_1/forward_lstm_3_1/while/body/_111/BiLSTM_Forecaster_1/bidirectional_3_1/forward_lstm_3_1/while/add"], "attr": {"T": {"type": "DT_INT32"}}}, {"name": "StatefulPartitionedCall/BiLSTM_Forecaster_1/self_attention_layer_1_1/MatMul", "op": "BatchMatMulV2", "input": ["StatefulPartitionedCall/BiLSTM_Forecaster_1/bidirectional_3_1/concat", "StatefulPartitionedCall/BiLSTM_Forecaster_1/self_attention_layer_1_1/MatMul/ReadVariableOp"], "attr": {"grad_y": {"b": false}, "adj_x": {"b": false}, "T": {"type": "DT_FLOAT"}, "grad_x": {"b": false}, "adj_y": {"b": false}}}, {"name": "StatefulPartitionedCall/BiLSTM_Forecaster_1/self_attention_layer_1_1/MatMul_1", "op": "BatchMatMulV2", "input": ["StatefulPartitionedCall/BiLSTM_Forecaster_1/bidirectional_3_1/concat", "StatefulPartitionedCall/BiLSTM_Forecaster_1/self_attention_layer_1_1/MatMul_1/ReadVariableOp"], "attr": {"adj_x": {"b": false}, "grad_y": {"b": false}, "T": {"type": "DT_FLOAT"}, "adj_y": {"b": false}, "grad_x": {"b": false}}}, {"name": "StatefulPartitionedCall/BiLSTM_Forecaster_1/self_attention_layer_1_1/MatMul_2", "op": "BatchMatMulV2", "input": ["StatefulPartitionedCall/BiLSTM_Forecaster_1/bidirectional_3_1/concat", "StatefulPartitionedCall/BiLSTM_Forecaster_1/self_attention_layer_1_1/MatMul_2/ReadVariableOp"], "attr": {"grad_y": {"b": false}, "adj_x": {"b": false}, "T": {"type": "DT_FLOAT"}, "grad_x": {"b": false}, "adj_y": {"b": false}}}, {"name": "StatefulPartitionedCall/BiLSTM_Forecaster_1/bidirectional_3_1/backward_lstm_3_1/while/body/_155/BiLSTM_Forecaster_1/bidirectional_3_1/backward_lstm_3_1/while/lstm_cell_1/add_1", "op": "_FusedMatMul", "input": ["StatefulPartitionedCall/BiLSTM_Forecaster_1/bidirectional_3_1/backward_lstm_3_1/while/body/_155/BiLSTM_Forecaster_1/bidirectional_3_1/backward_lstm_3_1/while/TensorArrayV2Read/TensorListGetItem", "StatefulPartitionedCall/BiLSTM_Forecaster_1/bidirectional_3_1/backward_lstm_3_1/while/body/_155/BiLSTM_Forecaster_1/bidirectional_3_1/backward_lstm_3_1/while/lstm_cell_1/Cast/ReadVariableOp", "StatefulPartitionedCall/BiLSTM_Forecaster_1/bidirectional_3_1/backward_lstm_3_1/while/body/_155/BiLSTM_Forecaster_1/bidirectional_3_1/backward_lstm_3_1/while/lstm_cell_1/add"], "device": "/device:CPU:0", "attr": {"transpose_a": {"b": false}, "transpose_b": {"b": false}, "fused_ops": {"list": {"s": ["Qmlhc0FkZA=="]}}, "leakyrelu_alpha": {"f": 0.2}, "num_args": {"i": "1"}, "epsilon": {"f": 0.0}, "T": {"type": "DT_FLOAT"}}}, {"name": "StatefulPartitionedCall/BiLSTM_Forecaster_1/bidirectional_3_1/forward_lstm_3_1/while/body/_111/BiLSTM_Forecaster_1/bidirectional_3_1/forward_lstm_3_1/while/lstm_cell_1/add_1", "op": "_FusedMatMul", "input": ["StatefulPartitionedCall/BiLSTM_Forecaster_1/bidirectional_3_1/forward_lstm_3_1/while/body/_111/BiLSTM_Forecaster_1/bidirectional_3_1/forward_lstm_3_1/while/TensorArrayV2Read/TensorListGetItem", "StatefulPartitionedCall/BiLSTM_Forecaster_1/bidirectional_3_1/forward_lstm_3_1/while/body/_111/BiLSTM_Forecaster_1/bidirectional_3_1/forward_lstm_3_1/while/lstm_cell_1/Cast/ReadVariableOp", "StatefulPartitionedCall/BiLSTM_Forecaster_1/bidirectional_3_1/forward_lstm_3_1/while/body/_111/BiLSTM_Forecaster_1/bidirectional_3_1/forward_lstm_3_1/while/lstm_cell_1/add"], "device": "/device:CPU:0", "attr": {"transpose_a": {"b": false}, "transpose_b": {"b": false}, "fused_ops": {"list": {"s": ["Qmlhc0FkZA=="]}}, "num_args": {"i": "1"}, "leakyrelu_alpha": {"f": 0.2}, "epsilon": {"f": 0.0}, "T": {"type": "DT_FLOAT"}}}, {"name": "StatefulPartitionedCall/BiLSTM_Forecaster_1/self_attention_layer_1_1/MatMul_3", "op": "BatchMatMulV2", "input": ["StatefulPartitionedCall/BiLSTM_Forecaster_1/self_attention_layer_1_1/MatMul", "StatefulPartitionedCall/BiLSTM_Forecaster_1/self_attention_layer_1_1/MatMul_1"], "attr": {"grad_y": {"b": false}, "adj_x": {"b": false}, "T": {"type": "DT_FLOAT"}, "grad_x": {"b": false}, "adj_y": {"b": true}}}, {"name": "StatefulPartitionedCall/BiLSTM_Forecaster_1/bidirectional_3_1/backward_lstm_3_1/while/body/_155/BiLSTM_Forecaster_1/bidirectional_3_1/backward_lstm_3_1/while/lstm_cell_1/split", "op": "Split", "input": ["StatefulPartitionedCall/BiLSTM_Forecaster_1/bidirectional_3_1/backward_lstm_3_1/while/body/_155/BiLSTM_Forecaster_1/bidirectional_3_1/backward_lstm_3_1/while/lstm_cell_1/split/split_dim", "StatefulPartitionedCall/BiLSTM_Forecaster_1/bidirectional_3_1/backward_lstm_3_1/while/body/_155/BiLSTM_Forecaster_1/bidirectional_3_1/backward_lstm_3_1/while/lstm_cell_1/add_1"], "attr": {"num_split": {"i": "4"}, "T": {"type": "DT_FLOAT"}}}, {"name": "StatefulPartitionedCall/BiLSTM_Forecaster_1/bidirectional_3_1/forward_lstm_3_1/while/body/_111/BiLSTM_Forecaster_1/bidirectional_3_1/forward_lstm_3_1/while/lstm_cell_1/split", "op": "Split", "input": ["StatefulPartitionedCall/BiLSTM_Forecaster_1/bidirectional_3_1/forward_lstm_3_1/while/body/_111/BiLSTM_Forecaster_1/bidirectional_3_1/forward_lstm_3_1/while/lstm_cell_1/split/split_dim", "StatefulPartitionedCall/BiLSTM_Forecaster_1/bidirectional_3_1/forward_lstm_3_1/while/body/_111/BiLSTM_Forecaster_1/bidirectional_3_1/forward_lstm_3_1/while/lstm_cell_1/add_1"], "attr": {"num_split": {"i": "4"}, "T": {"type": "DT_FLOAT"}}}, {"name": "StatefulPartitionedCall/BiLSTM_Forecaster_1/self_attention_layer_1_1/truediv", "op": "Mul", "input": ["StatefulPartitionedCall/BiLSTM_Forecaster_1/self_attention_layer_1_1/MatMul_3", "ConstantFolding/StatefulPartitionedCall/BiLSTM_Forecaster_1/self_attention_layer_1_1/truediv_recip"], "attr": {"T": {"type": "DT_FLOAT"}}}, {"name": "StatefulPartitionedCall/BiLSTM_Forecaster_1/bidirectional_3_1/backward_lstm_3_1/while/body/_155/BiLSTM_Forecaster_1/bidirectional_3_1/backward_lstm_3_1/while/lstm_cell_1/Sigmoid", "op": "Sigmoid", "input": ["StatefulPartitionedCall/BiLSTM_Forecaster_1/bidirectional_3_1/backward_lstm_3_1/while/body/_155/BiLSTM_Forecaster_1/bidirectional_3_1/backward_lstm_3_1/while/lstm_cell_1/split"], "attr": {"T": {"type": "DT_FLOAT"}}}, {"name": "StatefulPartitionedCall/BiLSTM_Forecaster_1/bidirectional_3_1/backward_lstm_3_1/while/body/_155/BiLSTM_Forecaster_1/bidirectional_3_1/backward_lstm_3_1/while/lstm_cell_1/Sigmoid_1", "op": "Sigmoid", "input": ["StatefulPartitionedCall/BiLSTM_Forecaster_1/bidirectional_3_1/backward_lstm_3_1/while/body/_155/BiLSTM_Forecaster_1/bidirectional_3_1/backward_lstm_3_1/while/lstm_cell_1/split:1"], "attr": {"T": {"type": "DT_FLOAT"}}}, {"name": "StatefulPartitionedCall/BiLSTM_Forecaster_1/bidirectional_3_1/backward_lstm_3_1/while/body/_155/BiLSTM_Forecaster_1/bidirectional_3_1/backward_lstm_3_1/while/lstm_cell_1/Tanh", "op": "Tanh", "input": ["StatefulPartitionedCall/BiLSTM_Forecaster_1/bidirectional_3_1/backward_lstm_3_1/while/body/_155/BiLSTM_Forecaster_1/bidirectional_3_1/backward_lstm_3_1/while/lstm_cell_1/split:2"], "attr": {"T": {"type": "DT_FLOAT"}}}, {"name": "StatefulPartitionedCall/BiLSTM_Forecaster_1/bidirectional_3_1/backward_lstm_3_1/while/body/_155/BiLSTM_Forecaster_1/bidirectional_3_1/backward_lstm_3_1/while/lstm_cell_1/Sigmoid_2", "op": "Sigmoid", "input": ["StatefulPartitionedCall/BiLSTM_Forecaster_1/bidirectional_3_1/backward_lstm_3_1/while/body/_155/BiLSTM_Forecaster_1/bidirectional_3_1/backward_lstm_3_1/while/lstm_cell_1/split:3"], "attr": {"T": {"type": "DT_FLOAT"}}}, {"name": "StatefulPartitionedCall/BiLSTM_Forecaster_1/bidirectional_3_1/forward_lstm_3_1/while/body/_111/BiLSTM_Forecaster_1/bidirectional_3_1/forward_lstm_3_1/while/lstm_cell_1/Sigmoid", "op": "Sigmoid", "input": ["StatefulPartitionedCall/BiLSTM_Forecaster_1/bidirectional_3_1/forward_lstm_3_1/while/body/_111/BiLSTM_Forecaster_1/bidirectional_3_1/forward_lstm_3_1/while/lstm_cell_1/split"], "attr": {"T": {"type": "DT_FLOAT"}}}, {"name": "StatefulPartitionedCall/BiLSTM_Forecaster_1/bidirectional_3_1/forward_lstm_3_1/while/body/_111/BiLSTM_Forecaster_1/bidirectional_3_1/forward_lstm_3_1/while/lstm_cell_1/Sigmoid_1", "op": "Sigmoid", "input": ["StatefulPartitionedCall/BiLSTM_Forecaster_1/bidirectional_3_1/forward_lstm_3_1/while/body/_111/BiLSTM_Forecaster_1/bidirectional_3_1/forward_lstm_3_1/while/lstm_cell_1/split:1"], "attr": {"T": {"type": "DT_FLOAT"}}}, {"name": "StatefulPartitionedCall/BiLSTM_Forecaster_1/bidirectional_3_1/forward_lstm_3_1/while/body/_111/BiLSTM_Forecaster_1/bidirectional_3_1/forward_lstm_3_1/while/lstm_cell_1/Tanh", "op": "Tanh", "input": ["StatefulPartitionedCall/BiLSTM_Forecaster_1/bidirectional_3_1/forward_lstm_3_1/while/body/_111/BiLSTM_Forecaster_1/bidirectional_3_1/forward_lstm_3_1/while/lstm_cell_1/split:2"], "attr": {"T": {"type": "DT_FLOAT"}}}, {"name": "StatefulPartitionedCall/BiLSTM_Forecaster_1/bidirectional_3_1/forward_lstm_3_1/while/body/_111/BiLSTM_Forecaster_1/bidirectional_3_1/forward_lstm_3_1/while/lstm_cell_1/Sigmoid_2", "op": "Sigmoid", "input": ["StatefulPartitionedCall/BiLSTM_Forecaster_1/bidirectional_3_1/forward_lstm_3_1/while/body/_111/BiLSTM_Forecaster_1/bidirectional_3_1/forward_lstm_3_1/while/lstm_cell_1/split:3"], "attr": {"T": {"type": "DT_FLOAT"}}}, {"name": "StatefulPartitionedCall/BiLSTM_Forecaster_1/self_attention_layer_1_1/Softmax", "op": "Softmax", "input": ["StatefulPartitionedCall/BiLSTM_Forecaster_1/self_attention_layer_1_1/truediv"], "attr": {"T": {"type": "DT_FLOAT"}}}, {"name": "StatefulPartitionedCall/BiLSTM_Forecaster_1/bidirectional_3_1/backward_lstm_3_1/while/body/_155/BiLSTM_Forecaster_1/bidirectional_3_1/backward_lstm_3_1/while/lstm_cell_1/mul", "op": "Mul", "input": ["StatefulPartitionedCall/BiLSTM_Forecaster_1/bidirectional_3_1/backward_lstm_3_1/while/body/_155/BiLSTM_Forecaster_1/bidirectional_3_1/backward_lstm_3_1/while/lstm_cell_1/Sigmoid_1", "StatefulPartitionedCall/BiLSTM_Forecaster_1/bidirectional_3_1/backward_lstm_3_1/while/StatefulPartitionedCall/BiLSTM_Forecaster_1/bidirectional_3_1/backward_lstm_3_1/zeros_1_switch/_180:1"], "attr": {"T": {"type": "DT_FLOAT"}}}, {"name": "StatefulPartitionedCall/BiLSTM_Forecaster_1/bidirectional_3_1/backward_lstm_3_1/while/body/_155/BiLSTM_Forecaster_1/bidirectional_3_1/backward_lstm_3_1/while/lstm_cell_1/mul_1", "op": "Mul", "input": ["StatefulPartitionedCall/BiLSTM_Forecaster_1/bidirectional_3_1/backward_lstm_3_1/while/body/_155/BiLSTM_Forecaster_1/bidirectional_3_1/backward_lstm_3_1/while/lstm_cell_1/Sigmoid", "StatefulPartitionedCall/BiLSTM_Forecaster_1/bidirectional_3_1/backward_lstm_3_1/while/body/_155/BiLSTM_Forecaster_1/bidirectional_3_1/backward_lstm_3_1/while/lstm_cell_1/Tanh"], "attr": {"T": {"type": "DT_FLOAT"}}}, {"name": "StatefulPartitionedCall/BiLSTM_Forecaster_1/bidirectional_3_1/forward_lstm_3_1/while/body/_111/BiLSTM_Forecaster_1/bidirectional_3_1/forward_lstm_3_1/while/lstm_cell_1/mul", "op": "Mul", "input": ["StatefulPartitionedCall/BiLSTM_Forecaster_1/bidirectional_3_1/forward_lstm_3_1/while/body/_111/BiLSTM_Forecaster_1/bidirectional_3_1/forward_lstm_3_1/while/lstm_cell_1/Sigmoid_1", "StatefulPartitionedCall/BiLSTM_Forecaster_1/bidirectional_3_1/forward_lstm_3_1/while/StatefulPartitionedCall/BiLSTM_Forecaster_1/bidirectional_3_1/forward_lstm_3_1/zeros_1_switch/_136:1"], "attr": {"T": {"type": "DT_FLOAT"}}}, {"name": "StatefulPartitionedCall/BiLSTM_Forecaster_1/bidirectional_3_1/forward_lstm_3_1/while/body/_111/BiLSTM_Forecaster_1/bidirectional_3_1/forward_lstm_3_1/while/lstm_cell_1/mul_1", "op": "Mul", "input": ["StatefulPartitionedCall/BiLSTM_Forecaster_1/bidirectional_3_1/forward_lstm_3_1/while/body/_111/BiLSTM_Forecaster_1/bidirectional_3_1/forward_lstm_3_1/while/lstm_cell_1/Sigmoid", "StatefulPartitionedCall/BiLSTM_Forecaster_1/bidirectional_3_1/forward_lstm_3_1/while/body/_111/BiLSTM_Forecaster_1/bidirectional_3_1/forward_lstm_3_1/while/lstm_cell_1/Tanh"], "attr": {"T": {"type": "DT_FLOAT"}}}, {"name": "StatefulPartitionedCall/BiLSTM_Forecaster_1/self_attention_layer_1_1/MatMul_4", "op": "BatchMatMulV2", "input": ["StatefulPartitionedCall/BiLSTM_Forecaster_1/self_attention_layer_1_1/Softmax", "StatefulPartitionedCall/BiLSTM_Forecaster_1/self_attention_layer_1_1/MatMul_2"], "attr": {"grad_y": {"b": false}, "adj_x": {"b": false}, "T": {"type": "DT_FLOAT"}, "adj_y": {"b": false}, "grad_x": {"b": false}}}, {"name": "StatefulPartitionedCall/BiLSTM_Forecaster_1/bidirectional_3_1/backward_lstm_3_1/while/body/_155/BiLSTM_Forecaster_1/bidirectional_3_1/backward_lstm_3_1/while/lstm_cell_1/add_2", "op": "AddV2", "input": ["StatefulPartitionedCall/BiLSTM_Forecaster_1/bidirectional_3_1/backward_lstm_3_1/while/body/_155/BiLSTM_Forecaster_1/bidirectional_3_1/backward_lstm_3_1/while/lstm_cell_1/mul", "StatefulPartitionedCall/BiLSTM_Forecaster_1/bidirectional_3_1/backward_lstm_3_1/while/body/_155/BiLSTM_Forecaster_1/bidirectional_3_1/backward_lstm_3_1/while/lstm_cell_1/mul_1"], "attr": {"T": {"type": "DT_FLOAT"}}}, {"name": "StatefulPartitionedCall/BiLSTM_Forecaster_1/bidirectional_3_1/forward_lstm_3_1/while/body/_111/BiLSTM_Forecaster_1/bidirectional_3_1/forward_lstm_3_1/while/lstm_cell_1/add_2", "op": "AddV2", "input": ["StatefulPartitionedCall/BiLSTM_Forecaster_1/bidirectional_3_1/forward_lstm_3_1/while/body/_111/BiLSTM_Forecaster_1/bidirectional_3_1/forward_lstm_3_1/while/lstm_cell_1/mul", "StatefulPartitionedCall/BiLSTM_Forecaster_1/bidirectional_3_1/forward_lstm_3_1/while/body/_111/BiLSTM_Forecaster_1/bidirectional_3_1/forward_lstm_3_1/while/lstm_cell_1/mul_1"], "attr": {"T": {"type": "DT_FLOAT"}}}, {"name": "StatefulPartitionedCall/BiLSTM_Forecaster_1/global_average_pooling1d_1_1/Mean", "op": "Mean", "input": ["StatefulPartitionedCall/BiLSTM_Forecaster_1/self_attention_layer_1_1/MatMul_4", "StatefulPartitionedCall/BiLSTM_Forecaster_1/global_average_pooling1d_1_1/Mean/reduction_indices"], "attr": {"Tidx": {"type": "DT_INT32"}, "T": {"type": "DT_FLOAT"}, "keep_dims": {"b": false}}}, {"name": "StatefulPartitionedCall/BiLSTM_Forecaster_1/bidirectional_3_1/backward_lstm_3_1/while/body/_155/BiLSTM_Forecaster_1/bidirectional_3_1/backward_lstm_3_1/while/lstm_cell_1/Tanh_1", "op": "Tanh", "input": ["StatefulPartitionedCall/BiLSTM_Forecaster_1/bidirectional_3_1/backward_lstm_3_1/while/body/_155/BiLSTM_Forecaster_1/bidirectional_3_1/backward_lstm_3_1/while/lstm_cell_1/add_2"], "attr": {"T": {"type": "DT_FLOAT"}}}, {"name": "StatefulPartitionedCall/BiLSTM_Forecaster_1/bidirectional_3_1/backward_lstm_3_1/while/next_iteration/_196", "op": "NextIteration", "input": ["StatefulPartitionedCall/BiLSTM_Forecaster_1/bidirectional_3_1/backward_lstm_3_1/while/body/_155/BiLSTM_Forecaster_1/bidirectional_3_1/backward_lstm_3_1/while/lstm_cell_1/add_2"], "attr": {"T": {"type": "DT_FLOAT"}}}, {"name": "StatefulPartitionedCall/BiLSTM_Forecaster_1/bidirectional_3_1/forward_lstm_3_1/while/body/_111/BiLSTM_Forecaster_1/bidirectional_3_1/forward_lstm_3_1/while/lstm_cell_1/Tanh_1", "op": "Tanh", "input": ["StatefulPartitionedCall/BiLSTM_Forecaster_1/bidirectional_3_1/forward_lstm_3_1/while/body/_111/BiLSTM_Forecaster_1/bidirectional_3_1/forward_lstm_3_1/while/lstm_cell_1/add_2"], "attr": {"T": {"type": "DT_FLOAT"}}}, {"name": "StatefulPartitionedCall/BiLSTM_Forecaster_1/bidirectional_3_1/forward_lstm_3_1/while/next_iteration/_152", "op": "NextIteration", "input": ["StatefulPartitionedCall/BiLSTM_Forecaster_1/bidirectional_3_1/forward_lstm_3_1/while/body/_111/BiLSTM_Forecaster_1/bidirectional_3_1/forward_lstm_3_1/while/lstm_cell_1/add_2"], "attr": {"T": {"type": "DT_FLOAT"}}}, {"name": "StatefulPartitionedCall/BiLSTM_Forecaster_1/leaky_re_lu_1_1/LeakyRelu", "op": "_FusedMatMul", "input": ["StatefulPartitionedCall/BiLSTM_Forecaster_1/global_average_pooling1d_1_1/Mean", "StatefulPartitionedCall/BiLSTM_Forecaster_1/dense_8_1/Cast/ReadVariableOp", "StatefulPartitionedCall/BiLSTM_Forecaster_1/dense_8_1/BiasAdd/ReadVariableOp"], "device": "/device:CPU:0", "attr": {"transpose_a": {"b": false}, "transpose_b": {"b": false}, "fused_ops": {"list": {"s": ["Qmlhc0FkZA==", "TGVha3lSZWx1"]}}, "leakyrelu_alpha": {"f": 0.01}, "num_args": {"i": "1"}, "epsilon": {"f": 0.0}, "T": {"type": "DT_FLOAT"}}}, {"name": "StatefulPartitionedCall/BiLSTM_Forecaster_1/bidirectional_3_1/backward_lstm_3_1/while/body/_155/BiLSTM_Forecaster_1/bidirectional_3_1/backward_lstm_3_1/while/lstm_cell_1/mul_2", "op": "Mul", "input": ["StatefulPartitionedCall/BiLSTM_Forecaster_1/bidirectional_3_1/backward_lstm_3_1/while/body/_155/BiLSTM_Forecaster_1/bidirectional_3_1/backward_lstm_3_1/while/lstm_cell_1/Sigmoid_2", "StatefulPartitionedCall/BiLSTM_Forecaster_1/bidirectional_3_1/backward_lstm_3_1/while/body/_155/BiLSTM_Forecaster_1/bidirectional_3_1/backward_lstm_3_1/while/lstm_cell_1/Tanh_1"], "attr": {"T": {"type": "DT_FLOAT"}}}, {"name": "StatefulPartitionedCall/BiLSTM_Forecaster_1/bidirectional_3_1/forward_lstm_3_1/while/body/_111/BiLSTM_Forecaster_1/bidirectional_3_1/forward_lstm_3_1/while/lstm_cell_1/mul_2", "op": "Mul", "input": ["StatefulPartitionedCall/BiLSTM_Forecaster_1/bidirectional_3_1/forward_lstm_3_1/while/body/_111/BiLSTM_Forecaster_1/bidirectional_3_1/forward_lstm_3_1/while/lstm_cell_1/Sigmoid_2", "StatefulPartitionedCall/BiLSTM_Forecaster_1/bidirectional_3_1/forward_lstm_3_1/while/body/_111/BiLSTM_Forecaster_1/bidirectional_3_1/forward_lstm_3_1/while/lstm_cell_1/Tanh_1"], "attr": {"T": {"type": "DT_FLOAT"}}}, {"name": "StatefulPartitionedCall/BiLSTM_Forecaster_1/dense_9_1/BiasAdd", "op": "_FusedMatMul", "input": ["StatefulPartitionedCall/BiLSTM_Forecaster_1/leaky_re_lu_1_1/LeakyRelu", "StatefulPartitionedCall/BiLSTM_Forecaster_1/dense_9_1/Cast/ReadVariableOp", "StatefulPartitionedCall/BiLSTM_Forecaster_1/dense_9_1/BiasAdd/ReadVariableOp"], "device": "/device:CPU:0", "attr": {"transpose_a": {"b": false}, "transpose_b": {"b": false}, "fused_ops": {"list": {"s": ["Qmlhc0FkZA=="]}}, "leakyrelu_alpha": {"f": 0.2}, "num_args": {"i": "1"}, "epsilon": {"f": 0.0}, "T": {"type": "DT_FLOAT"}}}, {"name": "StatefulPartitionedCall/BiLSTM_Forecaster_1/bidirectional_3_1/backward_lstm_3_1/while/body/_155/BiLSTM_Forecaster_1/bidirectional_3_1/backward_lstm_3_1/while/TensorArrayV2Write/TensorListSetItem", "op": "TensorListSetItem", "input": ["StatefulPartitionedCall/BiLSTM_Forecaster_1/bidirectional_3_1/backward_lstm_3_1/while/StatefulPartitionedCall/BiLSTM_Forecaster_1/bidirectional_3_1/backward_lstm_3_1/TensorArrayV2_1_switch/_178:1", "Func/StatefulPartitionedCall/BiLSTM_Forecaster_1/bidirectional_3_1/backward_lstm_3_1/while/body/_155/input/_315", "StatefulPartitionedCall/BiLSTM_Forecaster_1/bidirectional_3_1/backward_lstm_3_1/while/body/_155/BiLSTM_Forecaster_1/bidirectional_3_1/backward_lstm_3_1/while/lstm_cell_1/mul_2"], "attr": {"element_dtype": {"type": "DT_FLOAT"}, "resize_if_index_out_of_bounds": {"b": false}}, "experimentalType": {"typeId": "TFT_PRODUCT", "args": [{"typeId": "TFT_ARRAY", "args": [{"typeId": "TFT_TENSOR", "args": [{"typeId": "TFT_FLOAT"}]}]}]}}, {"name": "StatefulPartitionedCall/BiLSTM_Forecaster_1/bidirectional_3_1/backward_lstm_3_1/while/next_iteration/_195", "op": "NextIteration", "input": ["StatefulPartitionedCall/BiLSTM_Forecaster_1/bidirectional_3_1/backward_lstm_3_1/while/body/_155/BiLSTM_Forecaster_1/bidirectional_3_1/backward_lstm_3_1/while/lstm_cell_1/mul_2"], "attr": {"T": {"type": "DT_FLOAT"}}}, {"name": "StatefulPartitionedCall/BiLSTM_Forecaster_1/bidirectional_3_1/forward_lstm_3_1/while/body/_111/BiLSTM_Forecaster_1/bidirectional_3_1/forward_lstm_3_1/while/TensorArrayV2Write/TensorListSetItem", "op": "TensorListSetItem", "input": ["StatefulPartitionedCall/BiLSTM_Forecaster_1/bidirectional_3_1/forward_lstm_3_1/while/StatefulPartitionedCall/BiLSTM_Forecaster_1/bidirectional_3_1/forward_lstm_3_1/TensorArrayV2_1_switch/_134:1", "Func/StatefulPartitionedCall/BiLSTM_Forecaster_1/bidirectional_3_1/forward_lstm_3_1/while/body/_111/input/_281", "StatefulPartitionedCall/BiLSTM_Forecaster_1/bidirectional_3_1/forward_lstm_3_1/while/body/_111/BiLSTM_Forecaster_1/bidirectional_3_1/forward_lstm_3_1/while/lstm_cell_1/mul_2"], "attr": {"element_dtype": {"type": "DT_FLOAT"}, "resize_if_index_out_of_bounds": {"b": false}}, "experimentalType": {"typeId": "TFT_PRODUCT", "args": [{"typeId": "TFT_ARRAY", "args": [{"typeId": "TFT_TENSOR", "args": [{"typeId": "TFT_FLOAT"}]}]}]}}, {"name": "StatefulPartitionedCall/BiLSTM_Forecaster_1/bidirectional_3_1/forward_lstm_3_1/while/next_iteration/_151", "op": "NextIteration", "input": ["StatefulPartitionedCall/BiLSTM_Forecaster_1/bidirectional_3_1/forward_lstm_3_1/while/body/_111/BiLSTM_Forecaster_1/bidirectional_3_1/forward_lstm_3_1/while/lstm_cell_1/mul_2"], "attr": {"T": {"type": "DT_FLOAT"}}}, {"name": "Identity", "op": "Identity", "input": ["StatefulPartitionedCall/BiLSTM_Forecaster_1/dense_9_1/BiasAdd"], "attr": {"T": {"type": "DT_FLOAT"}}}, {"name": "StatefulPartitionedCall/BiLSTM_Forecaster_1/bidirectional_3_1/backward_lstm_3_1/while/next_iteration/_194", "op": "NextIteration", "input": ["StatefulPartitionedCall/BiLSTM_Forecaster_1/bidirectional_3_1/backward_lstm_3_1/while/body/_155/BiLSTM_Forecaster_1/bidirectional_3_1/backward_lstm_3_1/while/TensorArrayV2Write/TensorListSetItem"], "attr": {"T": {"type": "DT_VARIANT"}}}, {"name": "StatefulPartitionedCall/BiLSTM_Forecaster_1/bidirectional_3_1/forward_lstm_3_1/while/next_iteration/_150", "op": "NextIteration", "input": ["StatefulPartitionedCall/BiLSTM_Forecaster_1/bidirectional_3_1/forward_lstm_3_1/while/body/_111/BiLSTM_Forecaster_1/bidirectional_3_1/forward_lstm_3_1/while/TensorArrayV2Write/TensorListSetItem"], "attr": {"T": {"type": "DT_VARIANT"}}}], "library": {}, "versions": {"producer": 2129}}, "weightsManifest": [{"paths": ["group1-shard1of1.bin"], "weights": [{"name": "StatefulPartitionedCall/BiLSTM_Forecaster_1/self_attention_layer_1_1/MatMul/ReadVariableOp", "shape": [64, 64], "dtype": "float32"}, {"name": "StatefulPartitionedCall/BiLSTM_Forecaster_1/self_attention_layer_1_1/MatMul_1/ReadVariableOp", "shape": [64, 64], "dtype": "float32"}, {"name": "ConstantFolding/StatefulPartitionedCall/BiLSTM_Forecaster_1/self_attention_layer_1_1/truediv_recip", "shape": [], "dtype": "float32"}, {"name": "StatefulPartitionedCall/BiLSTM_Forecaster_1/bidirectional_3_1/forward_lstm_3_1/TensorArrayV2Stack/TensorListStack/element_shape", "shape": [2], "dtype": "int32"}, {"name": "StatefulPartitionedCall/BiLSTM_Forecaster_1/bidirectional_3_1/forward_lstm_3_1/transpose_1/perm", "shape": [3], "dtype": "int32"}, {"name": "StatefulPartitionedCall/BiLSTM_Forecaster_1/bidirectional_3_1/backward_lstm_3_1/TensorArrayV2Stack/TensorListStack/element_shape", "shape": [2], "dtype": "int32"}, {"name": "StatefulPartitionedCall/BiLSTM_Forecaster_1/bidirectional_3_1/backward_lstm_3_1/transpose_1/perm", "shape": [3], "dtype": "int32"}, {"name": "StatefulPartitionedCall/BiLSTM_Forecaster_1/bidirectional_3_1/ReverseV2/axis", "shape": [1], "dtype": "int32"}, {"name": "StatefulPartitionedCall/BiLSTM_Forecaster_1/bidirectional_3_1/concat/axis", "shape": [], "dtype": "int32"}, {"name": "StatefulPartitionedCall/BiLSTM_Forecaster_1/self_attention_layer_1_1/MatMul_2/ReadVariableOp", "shape": [64, 64], "dtype": "float32"}, {"name": "StatefulPartitionedCall/BiLSTM_Forecaster_1/global_average_pooling1d_1_1/Mean/reduction_indices", "shape": [], "dtype": "int32"}, {"name": "StatefulPartitionedCall/BiLSTM_Forecaster_1/dense_8_1/Cast/ReadVariableOp", "shape": [64, 64], "dtype": "float32"}, {"name": "StatefulPartitionedCall/BiLSTM_Forecaster_1/dense_8_1/BiasAdd/ReadVariableOp", "shape": [64], "dtype": "float32"}, {"name": "StatefulPartitionedCall/BiLSTM_Forecaster_1/dense_9_1/Cast/ReadVariableOp", "shape": [64, 4], "dtype": "float32"}, {"name": "StatefulPartitionedCall/BiLSTM_Forecaster_1/dense_9_1/BiasAdd/ReadVariableOp", "shape": [4], "dtype": "float32"}, {"name": "StatefulPartitionedCall/BiLSTM_Forecaster_1/bidirectional_3_1/backward_lstm_3_1/Max", "shape": [], "dtype": "int32"}, {"name": "StatefulPartitionedCall/BiLSTM_Forecaster_1/bidirectional_3_1/backward_lstm_3_1/while/loop_counter", "shape": [], "dtype": "int32"}, {"name": "StatefulPartitionedCall/BiLSTM_Forecaster_1/bidirectional_3_1/backward_lstm_3_1/time", "shape": [], "dtype": "int32"}, {"name": "Func/StatefulPartitionedCall/input/_10", "shape": [128, 128], "dtype": "float32"}, {"name": "Func/StatefulPartitionedCall/input/_11", "shape": [32, 128], "dtype": "float32"}, {"name": "Func/StatefulPartitionedCall/input/_12", "shape": [128], "dtype": "float32"}, {"name": "StatefulPartitionedCall/BiLSTM_Forecaster_1/bidirectional_3_1/backward_lstm_3_1/transpose/perm", "shape": [3], "dtype": "int32"}, {"name": "StatefulPartitionedCall/BiLSTM_Forecaster_1/bidirectional_3_1/backward_lstm_3_1/ReverseV2/axis", "shape": [1], "dtype": "int32"}, {"name": "StatefulPartitionedCall/BiLSTM_Forecaster_1/bidirectional_3_1/backward_lstm_3_1/TensorArrayUnstack/TensorListFromTensor/element_shape", "shape": [2], "dtype": "int32"}, {"name": "StatefulPartitionedCall/BiLSTM_Forecaster_1/bidirectional_3_1/backward_lstm_3_1/TensorArrayV2_1/element_shape", "shape": [2], "dtype": "int32"}, {"name": "StatefulPartitionedCall/BiLSTM_Forecaster_1/bidirectional_3_1/backward_lstm_3_1/TensorArrayV2_1/num_elements", "shape": [], "dtype": "int32"}, {"name": "StatefulPartitionedCall/BiLSTM_Forecaster_1/bidirectional_3_1/backward_lstm_3_1/zeros/packed/1", "shape": [], "dtype": "int32"}, {"name": "StatefulPartitionedCall/BiLSTM_Forecaster_1/bidirectional_3_1/backward_lstm_3_1/zeros/Const", "shape": [], "dtype": "float32"}, {"name": "StatefulPartitionedCall/BiLSTM_Forecaster_1/bidirectional_3_1/backward_lstm_3_1/strided_slice/stack", "shape": [1], "dtype": "int32"}, {"name": "StatefulPartitionedCall/BiLSTM_Forecaster_1/bidirectional_3_1/backward_lstm_3_1/strided_slice/stack_1", "shape": [1], "dtype": "int32"}, {"name": "StatefulPartitionedCall/BiLSTM_Forecaster_1/bidirectional_3_1/backward_lstm_3_1/strided_slice/stack_2", "shape": [1], "dtype": "int32"}, {"name": "StatefulPartitionedCall/BiLSTM_Forecaster_1/bidirectional_3_1/backward_lstm_3_1/zeros_1/packed/1", "shape": [], "dtype": "int32"}, {"name": "StatefulPartitionedCall/BiLSTM_Forecaster_1/bidirectional_3_1/backward_lstm_3_1/zeros_1/Const", "shape": [], "dtype": "float32"}, {"name": "StatefulPartitionedCall/BiLSTM_Forecaster_1/bidirectional_3_1/forward_lstm_3_1/Max", "shape": [], "dtype": "int32"}, {"name": "StatefulPartitionedCall/BiLSTM_Forecaster_1/bidirectional_3_1/forward_lstm_3_1/while/loop_counter", "shape": [], "dtype": "int32"}, {"name": "StatefulPartitionedCall/BiLSTM_Forecaster_1/bidirectional_3_1/forward_lstm_3_1/time", "shape": [], "dtype": "int32"}, {"name": "Func/StatefulPartitionedCall/input/_7", "shape": [128, 128], "dtype": "float32"}, {"name": "Func/StatefulPartitionedCall/input/_8", "shape": [32, 128], "dtype": "float32"}, {"name": "Func/StatefulPartitionedCall/input/_9", "shape": [128], "dtype": "float32"}, {"name": "StatefulPartitionedCall/BiLSTM_Forecaster_1/bidirectional_3_1/forward_lstm_3_1/transpose/perm", "shape": [3], "dtype": "int32"}, {"name": "StatefulPartitionedCall/BiLSTM_Forecaster_1/bidirectional_3_1/forward_lstm_3_1/TensorArrayUnstack/TensorListFromTensor/element_shape", "shape": [2], "dtype": "int32"}, {"name": "StatefulPartitionedCall/BiLSTM_Forecaster_1/bidirectional_3_1/forward_lstm_3_1/TensorArrayV2_1/element_shape", "shape": [2], "dtype": "int32"}, {"name": "StatefulPartitionedCall/BiLSTM_Forecaster_1/bidirectional_3_1/forward_lstm_3_1/TensorArrayV2_1/num_elements", "shape": [], "dtype": "int32"}, {"name": "StatefulPartitionedCall/BiLSTM_Forecaster_1/bidirectional_3_1/forward_lstm_3_1/zeros/packed/1", "shape": [], "dtype": "int32"}, {"name": "StatefulPartitionedCall/BiLSTM_Forecaster_1/bidirectional_3_1/forward_lstm_3_1/zeros/Const", "shape": [], "dtype": "float32"}, {"name": "StatefulPartitionedCall/BiLSTM_Forecaster_1/bidirectional_2_1/forward_lstm_2_1/Max", "shape": [], "dtype": "int32"}, {"name": "StatefulPartitionedCall/BiLSTM_Forecaster_1/bidirectional_2_1/forward_lstm_2_1/while/loop_counter", "shape": [], "dtype": "int32"}, {"name": "StatefulPartitionedCall/BiLSTM_Forecaster_1/bidirectional_2_1/forward_lstm_2_1/time", "shape": [], "dtype": "int32"}, {"name": "Func/StatefulPartitionedCall/input/_1", "shape": [10, 256], "dtype": "float32"}, {"name": "Func/StatefulPartitionedCall/input/_2", "shape": [64, 256], "dtype": "float32"}, {"name": "Func/StatefulPartitionedCall/input/_3", "shape": [256], "dtype": "float32"}, {"name": "StatefulPartitionedCall/BiLSTM_Forecaster_1/bidirectional_2_1/forward_lstm_2_1/transpose/perm", "shape": [3], "dtype": "int32"}, {"name": "StatefulPartitionedCall/BiLSTM_Forecaster_1/bidirectional_2_1/forward_lstm_2_1/TensorArrayUnstack/TensorListFromTensor/element_shape", "shape": [2], "dtype": "int32"}, {"name": "StatefulPartitionedCall/BiLSTM_Forecaster_1/bidirectional_2_1/forward_lstm_2_1/TensorArrayV2_1/element_shape", "shape": [2], "dtype": "int32"}, {"name": "StatefulPartitionedCall/BiLSTM_Forecaster_1/bidirectional_2_1/forward_lstm_2_1/TensorArrayV2_1/num_elements", "shape": [], "dtype": "int32"}, {"name": "StatefulPartitionedCall/BiLSTM_Forecaster_1/bidirectional_2_1/forward_lstm_2_1/zeros/packed/1", "shape": [], "dtype": "int32"}, {"name": "StatefulPartitionedCall/BiLSTM_Forecaster_1/bidirectional_2_1/forward_lstm_2_1/zeros/Const", "shape": [], "dtype": "float32"}, {"name": "StatefulPartitionedCall/BiLSTM_Forecaster_1/bidirectional_2_1/forward_lstm_2_1/strided_slice/stack", "shape": [1], "dtype": "int32"}, {"name": "StatefulPartitionedCall/BiLSTM_Forecaster_1/bidirectional_2_1/forward_lstm_2_1/strided_slice/stack_1", "shape": [1], "dtype": "int32"}, {"name": "StatefulPartitionedCall/BiLSTM_Forecaster_1/bidirectional_2_1/forward_lstm_2_1/strided_slice/stack_2", "shape": [1], "dtype": "int32"}, {"name": "StatefulPartitionedCall/BiLSTM_Forecaster_1/bidirectional_2_1/forward_lstm_2_1/zeros_1/packed/1", "shape": [], "dtype": "int32"}, {"name": "StatefulPartitionedCall/BiLSTM_Forecaster_1/bidirectional_2_1/forward_lstm_2_1/zeros_1/Const", "shape": [], "dtype": "float32"}, {"name": "StatefulPartitionedCall/BiLSTM_Forecaster_1/bidirectional_2_1/forward_lstm_2_1/TensorArrayV2Stack/TensorListStack/element_shape", "shape": [2], "dtype": "int32"}, {"name": "StatefulPartitionedCall/BiLSTM_Forecaster_1/bidirectional_2_1/forward_lstm_2_1/transpose_1/perm", "shape": [3], "dtype": "int32"}, {"name": "StatefulPartitionedCall/BiLSTM_Forecaster_1/bidirectional_2_1/backward_lstm_2_1/Max", "shape": [], "dtype": "int32"}, {"name": "StatefulPartitionedCall/BiLSTM_Forecaster_1/bidirectional_2_1/backward_lstm_2_1/while/loop_counter", "shape": [], "dtype": "int32"}, {"name": "StatefulPartitionedCall/BiLSTM_Forecaster_1/bidirectional_2_1/backward_lstm_2_1/time", "shape": [], "dtype": "int32"}, {"name": "Func/StatefulPartitionedCall/input/_4", "shape": [10, 256], "dtype": "float32"}, {"name": "Func/StatefulPartitionedCall/input/_5", "shape": [64, 256], "dtype": "float32"}, {"name": "Func/StatefulPartitionedCall/input/_6", "shape": [256], "dtype": "float32"}, {"name": "StatefulPartitionedCall/BiLSTM_Forecaster_1/bidirectional_2_1/backward_lstm_2_1/transpose/perm", "shape": [3], "dtype": "int32"}, {"name": "StatefulPartitionedCall/BiLSTM_Forecaster_1/bidirectional_2_1/backward_lstm_2_1/ReverseV2/axis", "shape": [1], "dtype": "int32"}, {"name": "StatefulPartitionedCall/BiLSTM_Forecaster_1/bidirectional_2_1/backward_lstm_2_1/TensorArrayUnstack/TensorListFromTensor/element_shape", "shape": [2], "dtype": "int32"}, {"name": "StatefulPartitionedCall/BiLSTM_Forecaster_1/bidirectional_2_1/backward_lstm_2_1/TensorArrayV2_1/element_shape", "shape": [2], "dtype": "int32"}, {"name": "StatefulPartitionedCall/BiLSTM_Forecaster_1/bidirectional_2_1/backward_lstm_2_1/TensorArrayV2_1/num_elements", "shape": [], "dtype": "int32"}, {"name": "StatefulPartitionedCall/BiLSTM_Forecaster_1/bidirectional_2_1/backward_lstm_2_1/zeros/packed/1", "shape": [], "dtype": "int32"}, {"name": "StatefulPartitionedCall/BiLSTM_Forecaster_1/bidirectional_2_1/backward_lstm_2_1/zeros/Const", "shape": [], "dtype": "float32"}, {"name": "StatefulPartitionedCall/BiLSTM_Forecaster_1/bidirectional_2_1/backward_lstm_2_1/strided_slice/stack", "shape": [1], "dtype": "int32"}, {"name": "StatefulPartitionedCall/BiLSTM_Forecaster_1/bidirectional_2_1/backward_lstm_2_1/strided_slice/stack_1", "shape": [1], "dtype": "int32"}, {"name": "StatefulPartitionedCall/BiLSTM_Forecaster_1/bidirectional_2_1/backward_lstm_2_1/strided_slice/stack_2", "shape": [1], "dtype": "int32"}, {"name": "StatefulPartitionedCall/BiLSTM_Forecaster_1/bidirectional_2_1/backward_lstm_2_1/zeros_1/packed/1", "shape": [], "dtype": "int32"}, {"name": "StatefulPartitionedCall/BiLSTM_Forecaster_1/bidirectional_2_1/backward_lstm_2_1/zeros_1/Const", "shape": [], "dtype": "float32"}, {"name": "StatefulPartitionedCall/BiLSTM_Forecaster_1/bidirectional_2_1/backward_lstm_2_1/TensorArrayV2Stack/TensorListStack/element_shape", "shape": [2], "dtype": "int32"}, {"name": "StatefulPartitionedCall/BiLSTM_Forecaster_1/bidirectional_2_1/backward_lstm_2_1/transpose_1/perm", "shape": [3], "dtype": "int32"}, {"name": "StatefulPartitionedCall/BiLSTM_Forecaster_1/bidirectional_2_1/ReverseV2/axis", "shape": [1], "dtype": "int32"}, {"name": "StatefulPartitionedCall/BiLSTM_Forecaster_1/bidirectional_2_1/concat/axis", "shape": [], "dtype": "int32"}, {"name": "StatefulPartitionedCall/BiLSTM_Forecaster_1/bidirectional_3_1/forward_lstm_3_1/strided_slice/stack", "shape": [1], "dtype": "int32"}, {"name": "StatefulPartitionedCall/BiLSTM_Forecaster_1/bidirectional_3_1/forward_lstm_3_1/strided_slice/stack_1", "shape": [1], "dtype": "int32"}, {"name": "StatefulPartitionedCall/BiLSTM_Forecaster_1/bidirectional_3_1/forward_lstm_3_1/strided_slice/stack_2", "shape": [1], "dtype": "int32"}, {"name": "StatefulPartitionedCall/BiLSTM_Forecaster_1/bidirectional_3_1/forward_lstm_3_1/zeros_1/packed/1", "shape": [], "dtype": "int32"}, {"name": "StatefulPartitionedCall/BiLSTM_Forecaster_1/bidirectional_3_1/forward_lstm_3_1/zeros_1/Const", "shape": [], "dtype": "float32"}, {"name": "StatefulPartitionedCall/BiLSTM_Forecaster_1/bidirectional_2_1/forward_lstm_2_1/while/cond/_22/BiLSTM_Forecaster_1/bidirectional_2_1/forward_lstm_2_1/while/Less/y", "shape": [], "dtype": "int32"}, {"name": "StatefulPartitionedCall/BiLSTM_Forecaster_1/bidirectional_2_1/backward_lstm_2_1/while/cond/_66/BiLSTM_Forecaster_1/bidirectional_2_1/backward_lstm_2_1/while/Less/y", "shape": [], "dtype": "int32"}, {"name": "StatefulPartitionedCall/BiLSTM_Forecaster_1/bidirectional_2_1/forward_lstm_2_1/while/body/_23/BiLSTM_Forecaster_1/bidirectional_2_1/forward_lstm_2_1/while/add_1/y", "shape": [], "dtype": "int32"}, {"name": "StatefulPartitionedCall/BiLSTM_Forecaster_1/bidirectional_2_1/forward_lstm_2_1/while/body/_23/BiLSTM_Forecaster_1/bidirectional_2_1/forward_lstm_2_1/while/lstm_cell_1/split/split_dim", "shape": [], "dtype": "int32"}, {"name": "StatefulPartitionedCall/BiLSTM_Forecaster_1/bidirectional_2_1/forward_lstm_2_1/while/body/_23/BiLSTM_Forecaster_1/bidirectional_2_1/forward_lstm_2_1/while/add/y", "shape": [], "dtype": "int32"}, {"name": "StatefulPartitionedCall/BiLSTM_Forecaster_1/bidirectional_2_1/forward_lstm_2_1/while/body/_23/BiLSTM_Forecaster_1/bidirectional_2_1/forward_lstm_2_1/while/TensorArrayV2Read/TensorListGetItem/element_shape", "shape": [2], "dtype": "int32"}, {"name": "StatefulPartitionedCall/BiLSTM_Forecaster_1/bidirectional_2_1/forward_lstm_2_1/while/body/_23/BiLSTM_Forecaster_1/bidirectional_2_1/forward_lstm_2_1/while/lstm_cell_1/Cast/ReadVariableOp", "shape": [10, 256], "dtype": "float32"}, {"name": "StatefulPartitionedCall/BiLSTM_Forecaster_1/bidirectional_2_1/forward_lstm_2_1/while/body/_23/BiLSTM_Forecaster_1/bidirectional_2_1/forward_lstm_2_1/while/lstm_cell_1/Cast_1/ReadVariableOp", "shape": [64, 256], "dtype": "float32"}, {"name": "StatefulPartitionedCall/BiLSTM_Forecaster_1/bidirectional_2_1/forward_lstm_2_1/while/body/_23/BiLSTM_Forecaster_1/bidirectional_2_1/forward_lstm_2_1/while/lstm_cell_1/add_1/ReadVariableOp", "shape": [256], "dtype": "float32"}, {"name": "StatefulPartitionedCall/BiLSTM_Forecaster_1/bidirectional_2_1/backward_lstm_2_1/while/body/_67/BiLSTM_Forecaster_1/bidirectional_2_1/backward_lstm_2_1/while/add_1/y", "shape": [], "dtype": "int32"}, {"name": "StatefulPartitionedCall/BiLSTM_Forecaster_1/bidirectional_2_1/backward_lstm_2_1/while/body/_67/BiLSTM_Forecaster_1/bidirectional_2_1/backward_lstm_2_1/while/lstm_cell_1/split/split_dim", "shape": [], "dtype": "int32"}, {"name": "StatefulPartitionedCall/BiLSTM_Forecaster_1/bidirectional_2_1/backward_lstm_2_1/while/body/_67/BiLSTM_Forecaster_1/bidirectional_2_1/backward_lstm_2_1/while/add/y", "shape": [], "dtype": "int32"}, {"name": "StatefulPartitionedCall/BiLSTM_Forecaster_1/bidirectional_2_1/backward_lstm_2_1/while/body/_67/BiLSTM_Forecaster_1/bidirectional_2_1/backward_lstm_2_1/while/TensorArrayV2Read/TensorListGetItem/element_shape", "shape": [2], "dtype": "int32"}, {"name": "StatefulPartitionedCall/BiLSTM_Forecaster_1/bidirectional_2_1/backward_lstm_2_1/while/body/_67/BiLSTM_Forecaster_1/bidirectional_2_1/backward_lstm_2_1/while/lstm_cell_1/Cast/ReadVariableOp", "shape": [10, 256], "dtype": "float32"}, {"name": "StatefulPartitionedCall/BiLSTM_Forecaster_1/bidirectional_2_1/backward_lstm_2_1/while/body/_67/BiLSTM_Forecaster_1/bidirectional_2_1/backward_lstm_2_1/while/lstm_cell_1/Cast_1/ReadVariableOp", "shape": [64, 256], "dtype": "float32"}, {"name": "StatefulPartitionedCall/BiLSTM_Forecaster_1/bidirectional_2_1/backward_lstm_2_1/while/body/_67/BiLSTM_Forecaster_1/bidirectional_2_1/backward_lstm_2_1/while/lstm_cell_1/add_1/ReadVariableOp", "shape": [256], "dtype": "float32"}, {"name": "StatefulPartitionedCall/BiLSTM_Forecaster_1/bidirectional_3_1/backward_lstm_3_1/while/cond/_154/BiLSTM_Forecaster_1/bidirectional_3_1/backward_lstm_3_1/while/Less/y", "shape": [], "dtype": "int32"}, {"name": "StatefulPartitionedCall/BiLSTM_Forecaster_1/bidirectional_3_1/forward_lstm_3_1/while/cond/_110/BiLSTM_Forecaster_1/bidirectional_3_1/forward_lstm_3_1/while/Less/y", "shape": [], "dtype": "int32"}, {"name": "StatefulPartitionedCall/BiLSTM_Forecaster_1/bidirectional_3_1/backward_lstm_3_1/while/body/_155/BiLSTM_Forecaster_1/bidirectional_3_1/backward_lstm_3_1/while/add_1/y", "shape": [], "dtype": "int32"}, {"name": "StatefulPartitionedCall/BiLSTM_Forecaster_1/bidirectional_3_1/backward_lstm_3_1/while/body/_155/BiLSTM_Forecaster_1/bidirectional_3_1/backward_lstm_3_1/while/lstm_cell_1/split/split_dim", "shape": [], "dtype": "int32"}, {"name": "StatefulPartitionedCall/BiLSTM_Forecaster_1/bidirectional_3_1/backward_lstm_3_1/while/body/_155/BiLSTM_Forecaster_1/bidirectional_3_1/backward_lstm_3_1/while/add/y", "shape": [], "dtype": "int32"}, {"name": "StatefulPartitionedCall/BiLSTM_Forecaster_1/bidirectional_3_1/backward_lstm_3_1/while/body/_155/BiLSTM_Forecaster_1/bidirectional_3_1/backward_lstm_3_1/while/TensorArrayV2Read/TensorListGetItem/element_shape", "shape": [2], "dtype": "int32"}, {"name": "StatefulPartitionedCall/BiLSTM_Forecaster_1/bidirectional_3_1/backward_lstm_3_1/while/body/_155/BiLSTM_Forecaster_1/bidirectional_3_1/backward_lstm_3_1/while/lstm_cell_1/Cast/ReadVariableOp", "shape": [128, 128], "dtype": "float32"}, {"name": "StatefulPartitionedCall/BiLSTM_Forecaster_1/bidirectional_3_1/backward_lstm_3_1/while/body/_155/BiLSTM_Forecaster_1/bidirectional_3_1/backward_lstm_3_1/while/lstm_cell_1/Cast_1/ReadVariableOp", "shape": [32, 128], "dtype": "float32"}, {"name": "StatefulPartitionedCall/BiLSTM_Forecaster_1/bidirectional_3_1/backward_lstm_3_1/while/body/_155/BiLSTM_Forecaster_1/bidirectional_3_1/backward_lstm_3_1/while/lstm_cell_1/add_1/ReadVariableOp", "shape": [128], "dtype": "float32"}, {"name": "StatefulPartitionedCall/BiLSTM_Forecaster_1/bidirectional_3_1/forward_lstm_3_1/while/body/_111/BiLSTM_Forecaster_1/bidirectional_3_1/forward_lstm_3_1/while/add_1/y", "shape": [], "dtype": "int32"}, {"name": "StatefulPartitionedCall/BiLSTM_Forecaster_1/bidirectional_3_1/forward_lstm_3_1/while/body/_111/BiLSTM_Forecaster_1/bidirectional_3_1/forward_lstm_3_1/while/lstm_cell_1/split/split_dim", "shape": [], "dtype": "int32"}, {"name": "StatefulPartitionedCall/BiLSTM_Forecaster_1/bidirectional_3_1/forward_lstm_3_1/while/body/_111/BiLSTM_Forecaster_1/bidirectional_3_1/forward_lstm_3_1/while/add/y", "shape": [], "dtype": "int32"}, {"name": "StatefulPartitionedCall/BiLSTM_Forecaster_1/bidirectional_3_1/forward_lstm_3_1/while/body/_111/BiLSTM_Forecaster_1/bidirectional_3_1/forward_lstm_3_1/while/TensorArrayV2Read/TensorListGetItem/element_shape", "shape": [2], "dtype": "int32"}, {"name": "StatefulPartitionedCall/BiLSTM_Forecaster_1/bidirectional_3_1/forward_lstm_3_1/while/body/_111/BiLSTM_Forecaster_1/bidirectional_3_1/forward_lstm_3_1/while/lstm_cell_1/Cast/ReadVariableOp", "shape": [128, 128], "dtype": "float32"}, {"name": "StatefulPartitionedCall/BiLSTM_Forecaster_1/bidirectional_3_1/forward_lstm_3_1/while/body/_111/BiLSTM_Forecaster_1/bidirectional_3_1/forward_lstm_3_1/while/lstm_cell_1/Cast_1/ReadVariableOp", "shape": [32, 128], "dtype": "float32"}, {"name": "StatefulPartitionedCall/BiLSTM_Forecaster_1/bidirectional_3_1/forward_lstm_3_1/while/body/_111/BiLSTM_Forecaster_1/bidirectional_3_1/forward_lstm_3_1/while/lstm_cell_1/add_1/ReadVariableOp", "shape": [128], "dtype": "float32"}]}]}