{"format": "graph-model", "generatedBy": "2.19.0", "convertedBy": "TensorFlow.js Converter v4.22.0", "signature": {"inputs": {"input_layer_3": {"name": "input_layer_3:0", "dtype": "DT_FLOAT", "tensorShape": {"dim": [{"size": "-1"}, {"size": "128"}, {"size": "16"}]}}}, "outputs": {"output_0": {"name": "Identity:0", "dtype": "DT_FLOAT", "tensorShape": {"dim": [{"size": "-1"}, {"size": "4"}]}}}}, "modelTopology": {"node": [{"name": "StatefulPartitionedCall/CNN_BiLSTM_MHA_Classifier_1/mha_block_1/mha_layernorm_1/Reshape_1", "op": "Const", "attr": {"value": {"tensor": {"dtype": "DT_FLOAT", "tensorShape": {"dim": [{"size": "1"}, {"size": "1"}, {"size": "64"}]}}}, "dtype": {"type": "DT_FLOAT"}}}, {"name": "StatefulPartitionedCall/CNN_BiLSTM_MHA_Classifier_1/mha_block_1/mha_core_1/key_1/Reshape", "op": "Const", "attr": {"value": {"tensor": {"dtype": "DT_FLOAT", "tensorShape": {"dim": [{"size": "64"}, {"size": "64"}]}}}, "dtype": {"type": "DT_FLOAT"}}}, {"name": "StatefulPartitionedCall/CNN_BiLSTM_MHA_Classifier_1/mha_block_1/mha_core_1/key_1/Reshape_1/shape", "op": "Const", "attr": {"value": {"tensor": {"dtype": "DT_INT32", "tensorShape": {"dim": [{"size": "4"}]}}}, "dtype": {"type": "DT_INT32"}}}, {"name": "StatefulPartitionedCall/CNN_BiLSTM_MHA_Classifier_1/mha_block_1/mha_core_1/key_1/Add/ReadVariableOp", "op": "Const", "attr": {"value": {"tensor": {"dtype": "DT_FLOAT", "tensorShape": {"dim": [{"size": "4"}, {"size": "16"}]}}}, "dtype": {"type": "DT_FLOAT"}}}, {"name": "StatefulPartitionedCall/CNN_BiLSTM_MHA_Classifier_1/mha_block_1/mha_core_1/transpose/perm", "op": "Const", "attr": {"value": {"tensor": {"dtype": "DT_INT32", "tensorShape": {"dim": [{"size": "4"}]}}}, "dtype": {"type": "DT_INT32"}}}, {"name": "StatefulPartitionedCall/CNN_BiLSTM_MHA_Classifier_1/mha_block_1/mha_core_1/query_1/Reshape", "op": "Const", "attr": {"value": {"tensor": {"dtype": "DT_FLOAT", "tensorShape": {"dim": [{"size": "64"}, {"size": "64"}]}}}, "dtype": {"type": "DT_FLOAT"}}}, {"name": "StatefulPartitionedCall/CNN_BiLSTM_MHA_Classifier_1/mha_block_1/mha_core_1/query_1/Reshape_1/shape", "op": "Const", "attr": {"value": {"tensor": {"dtype": "DT_INT32", "tensorShape": {"dim": [{"size": "4"}]}}}, "dtype": {"type": "DT_INT32"}}}, {"name": "StatefulPartitionedCall/CNN_BiLSTM_MHA_Classifier_1/mha_block_1/mha_core_1/query_1/Add/ReadVariableOp", "op": "Const", "attr": {"value": {"tensor": {"dtype": "DT_FLOAT", "tensorShape": {"dim": [{"size": "4"}, {"size": "16"}]}}}, "dtype": {"type": "DT_FLOAT"}}}, {"name": "StatefulPartitionedCall/CNN_BiLSTM_MHA_Classifier_1/mha_block_1/mha_core_1/Cast/x", "op": "Const", "attr": {"value": {"tensor": {"dtype": "DT_FLOAT", "tensorShape": {}}}, "dtype": {"type": "DT_FLOAT"}}}, {"name": "StatefulPartitionedCall/CNN_BiLSTM_MHA_Classifier_1/mha_block_1/mha_core_1/transpose_1/perm", "op": "Const", "attr": {"value": {"tensor": {"dtype": "DT_INT32", "tensorShape": {"dim": [{"size": "4"}]}}}, "dtype": {"type": "DT_INT32"}}}, {"name": "StatefulPartitionedCall/CNN_BiLSTM_MHA_Classifier_1/mha_block_1/mha_core_1/transpose_2/perm", "op": "Const", "attr": {"value": {"tensor": {"dtype": "DT_INT32", "tensorShape": {"dim": [{"size": "4"}]}}}, "dtype": {"type": "DT_INT32"}}}, {"name": "StatefulPartitionedCall/CNN_BiLSTM_MHA_Classifier_1/bilstm_2_1/forward_lstm_3_1/TensorArrayV2Stack/TensorListStack/element_shape", "op": "Const", "attr": {"value": {"tensor": {"dtype": "DT_INT32", "tensorShape": {"dim": [{"size": "2"}]}}}, "dtype": {"type": "DT_INT32"}}}, {"name": "StatefulPartitionedCall/CNN_BiLSTM_MHA_Classifier_1/bilstm_2_1/forward_lstm_3_1/transpose_1/perm", "op": "Const", "attr": {"value": {"tensor": {"dtype": "DT_INT32", "tensorShape": {"dim": [{"size": "3"}]}}}, "dtype": {"type": "DT_INT32"}}}, {"name": "StatefulPartitionedCall/CNN_BiLSTM_MHA_Classifier_1/bilstm_2_1/backward_lstm_3_1/TensorArrayV2Stack/TensorListStack/element_shape", "op": "Const", "attr": {"value": {"tensor": {"dtype": "DT_INT32", "tensorShape": {"dim": [{"size": "2"}]}}}, "dtype": {"type": "DT_INT32"}}}, {"name": "StatefulPartitionedCall/CNN_BiLSTM_MHA_Classifier_1/bilstm_2_1/backward_lstm_3_1/transpose_1/perm", "op": "Const", "attr": {"value": {"tensor": {"dtype": "DT_INT32", "tensorShape": {"dim": [{"size": "3"}]}}}, "dtype": {"type": "DT_INT32"}}}, {"name": "StatefulPartitionedCall/CNN_BiLSTM_MHA_Classifier_1/bilstm_2_1/ReverseV2/axis", "op": "Const", "attr": {"value": {"tensor": {"dtype": "DT_INT32", "tensorShape": {"dim": [{"size": "1"}]}}}, "dtype": {"type": "DT_INT32"}}}, {"name": "StatefulPartitionedCall/CNN_BiLSTM_MHA_Classifier_1/bilstm_2_1/concat/axis", "op": "Const", "attr": {"value": {"tensor": {"dtype": "DT_INT32", "tensorShape": {}}}, "dtype": {"type": "DT_INT32"}}}, {"name": "StatefulPartitionedCall/CNN_BiLSTM_MHA_Classifier_1/mha_block_1/mha_core_1/value_1/Reshape", "op": "Const", "attr": {"value": {"tensor": {"dtype": "DT_FLOAT", "tensorShape": {"dim": [{"size": "64"}, {"size": "64"}]}}}, "dtype": {"type": "DT_FLOAT"}}}, {"name": "StatefulPartitionedCall/CNN_BiLSTM_MHA_Classifier_1/mha_block_1/mha_core_1/value_1/Reshape_1/shape", "op": "Const", "attr": {"value": {"tensor": {"dtype": "DT_INT32", "tensorShape": {"dim": [{"size": "4"}]}}}, "dtype": {"type": "DT_INT32"}}}, {"name": "StatefulPartitionedCall/CNN_BiLSTM_MHA_Classifier_1/mha_block_1/mha_core_1/value_1/Add/ReadVariableOp", "op": "Const", "attr": {"value": {"tensor": {"dtype": "DT_FLOAT", "tensorShape": {"dim": [{"size": "4"}, {"size": "16"}]}}}, "dtype": {"type": "DT_FLOAT"}}}, {"name": "StatefulPartitionedCall/CNN_BiLSTM_MHA_Classifier_1/mha_block_1/mha_core_1/transpose_3/perm", "op": "Const", "attr": {"value": {"tensor": {"dtype": "DT_INT32", "tensorShape": {"dim": [{"size": "4"}]}}}, "dtype": {"type": "DT_INT32"}}}, {"name": "StatefulPartitionedCall/CNN_BiLSTM_MHA_Classifier_1/mha_block_1/mha_core_1/transpose_4/perm", "op": "Const", "attr": {"value": {"tensor": {"dtype": "DT_INT32", "tensorShape": {"dim": [{"size": "4"}]}}}, "dtype": {"type": "DT_INT32"}}}, {"name": "StatefulPartitionedCall/CNN_BiLSTM_MHA_Classifier_1/mha_block_1/mha_core_1/attention_output_1/Reshape/shape", "op": "Const", "attr": {"value": {"tensor": {"dtype": "DT_INT32", "tensorShape": {"dim": [{"size": "3"}]}}}, "dtype": {"type": "DT_INT32"}}}, {"name": "StatefulPartitionedCall/CNN_BiLSTM_MHA_Classifier_1/mha_block_1/mha_core_1/attention_output_1/Reshape_1", "op": "Const", "attr": {"value": {"tensor": {"dtype": "DT_FLOAT", "tensorShape": {"dim": [{"size": "64"}, {"size": "64"}]}}}, "dtype": {"type": "DT_FLOAT"}}}, {"name": "StatefulPartitionedCall/CNN_BiLSTM_MHA_Classifier_1/mha_block_1/mha_core_1/attention_output_1/BiasAdd/ReadVariableOp", "op": "Const", "attr": {"value": {"tensor": {"dtype": "DT_FLOAT", "tensorShape": {"dim": [{"size": "64"}]}}}, "dtype": {"type": "DT_FLOAT"}}}, {"name": "StatefulPartitionedCall/CNN_BiLSTM_MHA_Classifier_1/mha_block_1/mha_layernorm_1/moments/mean/reduction_indices", "op": "Const", "attr": {"value": {"tensor": {"dtype": "DT_INT32", "tensorShape": {"dim": [{"size": "1"}]}}}, "dtype": {"type": "DT_INT32"}}}, {"name": "StatefulPartitionedCall/CNN_BiLSTM_MHA_Classifier_1/mha_block_1/mha_layernorm_1/moments/variance/reduction_indices", "op": "Const", "attr": {"value": {"tensor": {"dtype": "DT_INT32", "tensorShape": {"dim": [{"size": "1"}]}}}, "dtype": {"type": "DT_INT32"}}}, {"name": "StatefulPartitionedCall/CNN_BiLSTM_MHA_Classifier_1/mha_block_1/mha_layernorm_1/add/y", "op": "Const", "attr": {"value": {"tensor": {"dtype": "DT_FLOAT", "tensorShape": {}}}, "dtype": {"type": "DT_FLOAT"}}}, {"name": "StatefulPartitionedCall/CNN_BiLSTM_MHA_Classifier_1/mha_block_1/mha_layernorm_1/Reshape", "op": "Const", "attr": {"value": {"tensor": {"dtype": "DT_FLOAT", "tensorShape": {"dim": [{"size": "1"}, {"size": "1"}, {"size": "64"}]}}}, "dtype": {"type": "DT_FLOAT"}}}, {"name": "StatefulPartitionedCall/CNN_BiLSTM_MHA_Classifier_1/gap_1/Mean/reduction_indices", "op": "Const", "attr": {"value": {"tensor": {"dtype": "DT_INT32", "tensorShape": {}}}, "dtype": {"type": "DT_INT32"}}}, {"name": "StatefulPartitionedCall/CNN_BiLSTM_MHA_Classifier_1/fc_hidden_1/Cast/ReadVariableOp", "op": "Const", "attr": {"value": {"tensor": {"dtype": "DT_FLOAT", "tensorShape": {"dim": [{"size": "64"}, {"size": "64"}]}}}, "dtype": {"type": "DT_FLOAT"}}}, {"name": "StatefulPartitionedCall/CNN_BiLSTM_MHA_Classifier_1/fc_hidden_1/BiasAdd/ReadVariableOp", "op": "Const", "attr": {"value": {"tensor": {"dtype": "DT_FLOAT", "tensorShape": {"dim": [{"size": "64"}]}}}, "dtype": {"type": "DT_FLOAT"}}}, {"name": "StatefulPartitionedCall/CNN_BiLSTM_MHA_Classifier_1/classifier_head_1/Cast/ReadVariableOp", "op": "Const", "attr": {"value": {"tensor": {"dtype": "DT_FLOAT", "tensorShape": {"dim": [{"size": "64"}, {"size": "4"}]}}}, "dtype": {"type": "DT_FLOAT"}}}, {"name": "StatefulPartitionedCall/CNN_BiLSTM_MHA_Classifier_1/classifier_head_1/BiasAdd/ReadVariableOp", "op": "Const", "attr": {"value": {"tensor": {"dtype": "DT_FLOAT", "tensorShape": {"dim": [{"size": "4"}]}}}, "dtype": {"type": "DT_FLOAT"}}}, {"name": "StatefulPartitionedCall/CNN_BiLSTM_MHA_Classifier_1/bilstm_2_1/backward_lstm_3_1/Max", "op": "Const", "attr": {"value": {"tensor": {"dtype": "DT_INT32", "tensorShape": {}}}, "dtype": {"type": "DT_INT32"}}}, {"name": "StatefulPartitionedCall/CNN_BiLSTM_MHA_Classifier_1/bilstm_2_1/backward_lstm_3_1/while/loop_counter", "op": "Const", "attr": {"value": {"tensor": {"dtype": "DT_INT32", "tensorShape": {}}}, "_has_manual_control_dependencies": {"b": true}, "dtype": {"type": "DT_INT32"}}}, {"name": "StatefulPartitionedCall/CNN_BiLSTM_MHA_Classifier_1/bilstm_2_1/backward_lstm_3_1/time", "op": "Const", "attr": {"value": {"tensor": {"dtype": "DT_INT32", "tensorShape": {}}}, "_has_manual_control_dependencies": {"b": true}, "dtype": {"type": "DT_INT32"}}}, {"name": "Func/StatefulPartitionedCall/input/_28", "op": "Const", "attr": {"value": {"tensor": {"dtype": "DT_FLOAT", "tensorShape": {"dim": [{"size": "128"}, {"size": "128"}]}}}, "dtype": {"type": "DT_FLOAT"}}}, {"name": "Func/StatefulPartitionedCall/input/_29", "op": "Const", "attr": {"value": {"tensor": {"dtype": "DT_FLOAT", "tensorShape": {"dim": [{"size": "32"}, {"size": "128"}]}}}, "dtype": {"type": "DT_FLOAT"}}}, {"name": "Func/StatefulPartitionedCall/input/_30", "op": "Const", "attr": {"value": {"tensor": {"dtype": "DT_FLOAT", "tensorShape": {"dim": [{"size": "128"}]}}}, "dtype": {"type": "DT_FLOAT"}}}, {"name": "StatefulPartitionedCall/CNN_BiLSTM_MHA_Classifier_1/bilstm_2_1/backward_lstm_3_1/transpose/perm", "op": "Const", "attr": {"value": {"tensor": {"dtype": "DT_INT32", "tensorShape": {"dim": [{"size": "3"}]}}}, "dtype": {"type": "DT_INT32"}}}, {"name": "StatefulPartitionedCall/CNN_BiLSTM_MHA_Classifier_1/bilstm_2_1/backward_lstm_3_1/ReverseV2/axis", "op": "Const", "attr": {"value": {"tensor": {"dtype": "DT_INT32", "tensorShape": {"dim": [{"size": "1"}]}}}, "dtype": {"type": "DT_INT32"}}}, {"name": "StatefulPartitionedCall/CNN_BiLSTM_MHA_Classifier_1/bilstm_2_1/backward_lstm_3_1/TensorArrayUnstack/TensorListFromTensor/element_shape", "op": "Const", "attr": {"value": {"tensor": {"dtype": "DT_INT32", "tensorShape": {"dim": [{"size": "2"}]}}}, "dtype": {"type": "DT_INT32"}}}, {"name": "StatefulPartitionedCall/CNN_BiLSTM_MHA_Classifier_1/bilstm_2_1/backward_lstm_3_1/TensorArrayV2_1/element_shape", "op": "Const", "attr": {"value": {"tensor": {"dtype": "DT_INT32", "tensorShape": {"dim": [{"size": "2"}]}}}, "dtype": {"type": "DT_INT32"}}}, {"name": "StatefulPartitionedCall/CNN_BiLSTM_MHA_Classifier_1/bilstm_2_1/backward_lstm_3_1/TensorArrayV2_1/num_elements", "op": "Const", "attr": {"value": {"tensor": {"dtype": "DT_INT32", "tensorShape": {}}}, "dtype": {"type": "DT_INT32"}}}, {"name": "StatefulPartitionedCall/CNN_BiLSTM_MHA_Classifier_1/bilstm_2_1/backward_lstm_3_1/zeros/packed/1", "op": "Const", "attr": {"value": {"tensor": {"dtype": "DT_INT32", "tensorShape": {}}}, "dtype": {"type": "DT_INT32"}}}, {"name": "StatefulPartitionedCall/CNN_BiLSTM_MHA_Classifier_1/bilstm_2_1/backward_lstm_3_1/zeros/Const", "op": "Const", "attr": {"value": {"tensor": {"dtype": "DT_FLOAT", "tensorShape": {}}}, "dtype": {"type": "DT_FLOAT"}}}, {"name": "StatefulPartitionedCall/CNN_BiLSTM_MHA_Classifier_1/bilstm_2_1/backward_lstm_3_1/strided_slice/stack", "op": "Const", "attr": {"value": {"tensor": {"dtype": "DT_INT32", "tensorShape": {"dim": [{"size": "1"}]}}}, "dtype": {"type": "DT_INT32"}}}, {"name": "StatefulPartitionedCall/CNN_BiLSTM_MHA_Classifier_1/bilstm_2_1/backward_lstm_3_1/strided_slice/stack_1", "op": "Const", "attr": {"value": {"tensor": {"dtype": "DT_INT32", "tensorShape": {"dim": [{"size": "1"}]}}}, "dtype": {"type": "DT_INT32"}}}, {"name": "StatefulPartitionedCall/CNN_BiLSTM_MHA_Classifier_1/bilstm_2_1/backward_lstm_3_1/strided_slice/stack_2", "op": "Const", "attr": {"value": {"tensor": {"dtype": "DT_INT32", "tensorShape": {"dim": [{"size": "1"}]}}}, "dtype": {"type": "DT_INT32"}}}, {"name": "StatefulPartitionedCall/CNN_BiLSTM_MHA_Classifier_1/bilstm_2_1/backward_lstm_3_1/zeros_1/packed/1", "op": "Const", "attr": {"value": {"tensor": {"dtype": "DT_INT32", "tensorShape": {}}}, "dtype": {"type": "DT_INT32"}}}, {"name": "StatefulPartitionedCall/CNN_BiLSTM_MHA_Classifier_1/bilstm_2_1/backward_lstm_3_1/zeros_1/Const", "op": "Const", "attr": {"value": {"tensor": {"dtype": "DT_FLOAT", "tensorShape": {}}}, "dtype": {"type": "DT_FLOAT"}}}, {"name": "StatefulPartitionedCall/CNN_BiLSTM_MHA_Classifier_1/bilstm_2_1/forward_lstm_3_1/Max", "op": "Const", "attr": {"value": {"tensor": {"dtype": "DT_INT32", "tensorShape": {}}}, "dtype": {"type": "DT_INT32"}}}, {"name": "StatefulPartitionedCall/CNN_BiLSTM_MHA_Classifier_1/bilstm_2_1/forward_lstm_3_1/while/loop_counter", "op": "Const", "attr": {"value": {"tensor": {"dtype": "DT_INT32", "tensorShape": {}}}, "_has_manual_control_dependencies": {"b": true}, "dtype": {"type": "DT_INT32"}}}, {"name": "StatefulPartitionedCall/CNN_BiLSTM_MHA_Classifier_1/bilstm_2_1/forward_lstm_3_1/time", "op": "Const", "attr": {"value": {"tensor": {"dtype": "DT_INT32", "tensorShape": {}}}, "_has_manual_control_dependencies": {"b": true}, "dtype": {"type": "DT_INT32"}}}, {"name": "Func/StatefulPartitionedCall/input/_25", "op": "Const", "attr": {"value": {"tensor": {"dtype": "DT_FLOAT", "tensorShape": {"dim": [{"size": "128"}, {"size": "128"}]}}}, "dtype": {"type": "DT_FLOAT"}}}, {"name": "Func/StatefulPartitionedCall/input/_26", "op": "Const", "attr": {"value": {"tensor": {"dtype": "DT_FLOAT", "tensorShape": {"dim": [{"size": "32"}, {"size": "128"}]}}}, "dtype": {"type": "DT_FLOAT"}}}, {"name": "Func/StatefulPartitionedCall/input/_27", "op": "Const", "attr": {"value": {"tensor": {"dtype": "DT_FLOAT", "tensorShape": {"dim": [{"size": "128"}]}}}, "dtype": {"type": "DT_FLOAT"}}}, {"name": "StatefulPartitionedCall/CNN_BiLSTM_MHA_Classifier_1/bilstm_2_1/forward_lstm_3_1/transpose/perm", "op": "Const", "attr": {"value": {"tensor": {"dtype": "DT_INT32", "tensorShape": {"dim": [{"size": "3"}]}}}, "dtype": {"type": "DT_INT32"}}}, {"name": "StatefulPartitionedCall/CNN_BiLSTM_MHA_Classifier_1/bilstm_2_1/forward_lstm_3_1/TensorArrayUnstack/TensorListFromTensor/element_shape", "op": "Const", "attr": {"value": {"tensor": {"dtype": "DT_INT32", "tensorShape": {"dim": [{"size": "2"}]}}}, "dtype": {"type": "DT_INT32"}}}, {"name": "StatefulPartitionedCall/CNN_BiLSTM_MHA_Classifier_1/bilstm_2_1/forward_lstm_3_1/TensorArrayV2_1/element_shape", "op": "Const", "attr": {"value": {"tensor": {"dtype": "DT_INT32", "tensorShape": {"dim": [{"size": "2"}]}}}, "dtype": {"type": "DT_INT32"}}}, {"name": "StatefulPartitionedCall/CNN_BiLSTM_MHA_Classifier_1/bilstm_2_1/forward_lstm_3_1/TensorArrayV2_1/num_elements", "op": "Const", "attr": {"value": {"tensor": {"dtype": "DT_INT32", "tensorShape": {}}}, "dtype": {"type": "DT_INT32"}}}, {"name": "StatefulPartitionedCall/CNN_BiLSTM_MHA_Classifier_1/bilstm_2_1/forward_lstm_3_1/zeros/packed/1", "op": "Const", "attr": {"value": {"tensor": {"dtype": "DT_INT32", "tensorShape": {}}}, "dtype": {"type": "DT_INT32"}}}, {"name": "StatefulPartitionedCall/CNN_BiLSTM_MHA_Classifier_1/bilstm_2_1/forward_lstm_3_1/zeros/Const", "op": "Const", "attr": {"value": {"tensor": {"dtype": "DT_FLOAT", "tensorShape": {}}}, "dtype": {"type": "DT_FLOAT"}}}, {"name": "StatefulPartitionedCall/CNN_BiLSTM_MHA_Classifier_1/bilstm_1_1/forward_lstm_2_1/Max", "op": "Const", "attr": {"value": {"tensor": {"dtype": "DT_INT32", "tensorShape": {}}}, "dtype": {"type": "DT_INT32"}}}, {"name": "StatefulPartitionedCall/CNN_BiLSTM_MHA_Classifier_1/bilstm_1_1/forward_lstm_2_1/while/loop_counter", "op": "Const", "attr": {"value": {"tensor": {"dtype": "DT_INT32", "tensorShape": {}}}, "_has_manual_control_dependencies": {"b": true}, "dtype": {"type": "DT_INT32"}}}, {"name": "StatefulPartitionedCall/CNN_BiLSTM_MHA_Classifier_1/bilstm_1_1/forward_lstm_2_1/time", "op": "Const", "attr": {"value": {"tensor": {"dtype": "DT_INT32", "tensorShape": {}}}, "_has_manual_control_dependencies": {"b": true}, "dtype": {"type": "DT_INT32"}}}, {"name": "Func/StatefulPartitionedCall/input/_19", "op": "Const", "attr": {"value": {"tensor": {"dtype": "DT_FLOAT", "tensorShape": {"dim": [{"size": "96"}, {"size": "256"}]}}}, "dtype": {"type": "DT_FLOAT"}}}, {"name": "Func/StatefulPartitionedCall/input/_20", "op": "Const", "attr": {"value": {"tensor": {"dtype": "DT_FLOAT", "tensorShape": {"dim": [{"size": "64"}, {"size": "256"}]}}}, "dtype": {"type": "DT_FLOAT"}}}, {"name": "Func/StatefulPartitionedCall/input/_21", "op": "Const", "attr": {"value": {"tensor": {"dtype": "DT_FLOAT", "tensorShape": {"dim": [{"size": "256"}]}}}, "dtype": {"type": "DT_FLOAT"}}}, {"name": "StatefulPartitionedCall/CNN_BiLSTM_MHA_Classifier_1/bilstm_1_1/forward_lstm_2_1/transpose/perm", "op": "Const", "attr": {"value": {"tensor": {"dtype": "DT_INT32", "tensorShape": {"dim": [{"size": "3"}]}}}, "dtype": {"type": "DT_INT32"}}}, {"name": "StatefulPartitionedCall/CNN_BiLSTM_MHA_Classifier_1/bilstm_1_1/forward_lstm_2_1/TensorArrayUnstack/TensorListFromTensor/element_shape", "op": "Const", "attr": {"value": {"tensor": {"dtype": "DT_INT32", "tensorShape": {"dim": [{"size": "2"}]}}}, "dtype": {"type": "DT_INT32"}}}, {"name": "StatefulPartitionedCall/CNN_BiLSTM_MHA_Classifier_1/bilstm_1_1/forward_lstm_2_1/TensorArrayV2_1/element_shape", "op": "Const", "attr": {"value": {"tensor": {"dtype": "DT_INT32", "tensorShape": {"dim": [{"size": "2"}]}}}, "dtype": {"type": "DT_INT32"}}}, {"name": "StatefulPartitionedCall/CNN_BiLSTM_MHA_Classifier_1/bilstm_1_1/forward_lstm_2_1/TensorArrayV2_1/num_elements", "op": "Const", "attr": {"value": {"tensor": {"dtype": "DT_INT32", "tensorShape": {}}}, "dtype": {"type": "DT_INT32"}}}, {"name": "StatefulPartitionedCall/CNN_BiLSTM_MHA_Classifier_1/bilstm_1_1/forward_lstm_2_1/zeros/packed/1", "op": "Const", "attr": {"value": {"tensor": {"dtype": "DT_INT32", "tensorShape": {}}}, "dtype": {"type": "DT_INT32"}}}, {"name": "StatefulPartitionedCall/CNN_BiLSTM_MHA_Classifier_1/bilstm_1_1/forward_lstm_2_1/zeros/Const", "op": "Const", "attr": {"value": {"tensor": {"dtype": "DT_FLOAT", "tensorShape": {}}}, "dtype": {"type": "DT_FLOAT"}}}, {"name": "StatefulPartitionedCall/CNN_BiLSTM_MHA_Classifier_1/bilstm_1_1/forward_lstm_2_1/strided_slice/stack", "op": "Const", "attr": {"value": {"tensor": {"dtype": "DT_INT32", "tensorShape": {"dim": [{"size": "1"}]}}}, "dtype": {"type": "DT_INT32"}}}, {"name": "StatefulPartitionedCall/CNN_BiLSTM_MHA_Classifier_1/bilstm_1_1/forward_lstm_2_1/strided_slice/stack_1", "op": "Const", "attr": {"value": {"tensor": {"dtype": "DT_INT32", "tensorShape": {"dim": [{"size": "1"}]}}}, "dtype": {"type": "DT_INT32"}}}, {"name": "StatefulPartitionedCall/CNN_BiLSTM_MHA_Classifier_1/bilstm_1_1/forward_lstm_2_1/strided_slice/stack_2", "op": "Const", "attr": {"value": {"tensor": {"dtype": "DT_INT32", "tensorShape": {"dim": [{"size": "1"}]}}}, "dtype": {"type": "DT_INT32"}}}, {"name": "StatefulPartitionedCall/CNN_BiLSTM_MHA_Classifier_1/bilstm_1_1/forward_lstm_2_1/zeros_1/packed/1", "op": "Const", "attr": {"value": {"tensor": {"dtype": "DT_INT32", "tensorShape": {}}}, "dtype": {"type": "DT_INT32"}}}, {"name": "StatefulPartitionedCall/CNN_BiLSTM_MHA_Classifier_1/bilstm_1_1/forward_lstm_2_1/zeros_1/Const", "op": "Const", "attr": {"value": {"tensor": {"dtype": "DT_FLOAT", "tensorShape": {}}}, "dtype": {"type": "DT_FLOAT"}}}, {"name": "StatefulPartitionedCall/CNN_BiLSTM_MHA_Classifier_1/bilstm_1_1/forward_lstm_2_1/TensorArrayV2Stack/TensorListStack/element_shape", "op": "Const", "attr": {"value": {"tensor": {"dtype": "DT_INT32", "tensorShape": {"dim": [{"size": "2"}]}}}, "dtype": {"type": "DT_INT32"}}}, {"name": "StatefulPartitionedCall/CNN_BiLSTM_MHA_Classifier_1/bilstm_1_1/forward_lstm_2_1/transpose_1/perm", "op": "Const", "attr": {"value": {"tensor": {"dtype": "DT_INT32", "tensorShape": {"dim": [{"size": "3"}]}}}, "dtype": {"type": "DT_INT32"}}}, {"name": "StatefulPartitionedCall/CNN_BiLSTM_MHA_Classifier_1/bilstm_1_1/backward_lstm_2_1/Max", "op": "Const", "attr": {"value": {"tensor": {"dtype": "DT_INT32", "tensorShape": {}}}, "dtype": {"type": "DT_INT32"}}}, {"name": "StatefulPartitionedCall/CNN_BiLSTM_MHA_Classifier_1/bilstm_1_1/backward_lstm_2_1/while/loop_counter", "op": "Const", "attr": {"value": {"tensor": {"dtype": "DT_INT32", "tensorShape": {}}}, "_has_manual_control_dependencies": {"b": true}, "dtype": {"type": "DT_INT32"}}}, {"name": "StatefulPartitionedCall/CNN_BiLSTM_MHA_Classifier_1/bilstm_1_1/backward_lstm_2_1/time", "op": "Const", "attr": {"value": {"tensor": {"dtype": "DT_INT32", "tensorShape": {}}}, "_has_manual_control_dependencies": {"b": true}, "dtype": {"type": "DT_INT32"}}}, {"name": "Func/StatefulPartitionedCall/input/_22", "op": "Const", "attr": {"value": {"tensor": {"dtype": "DT_FLOAT", "tensorShape": {"dim": [{"size": "96"}, {"size": "256"}]}}}, "dtype": {"type": "DT_FLOAT"}}}, {"name": "Func/StatefulPartitionedCall/input/_23", "op": "Const", "attr": {"value": {"tensor": {"dtype": "DT_FLOAT", "tensorShape": {"dim": [{"size": "64"}, {"size": "256"}]}}}, "dtype": {"type": "DT_FLOAT"}}}, {"name": "Func/StatefulPartitionedCall/input/_24", "op": "Const", "attr": {"value": {"tensor": {"dtype": "DT_FLOAT", "tensorShape": {"dim": [{"size": "256"}]}}}, "dtype": {"type": "DT_FLOAT"}}}, {"name": "StatefulPartitionedCall/CNN_BiLSTM_MHA_Classifier_1/bilstm_1_1/backward_lstm_2_1/transpose/perm", "op": "Const", "attr": {"value": {"tensor": {"dtype": "DT_INT32", "tensorShape": {"dim": [{"size": "3"}]}}}, "dtype": {"type": "DT_INT32"}}}, {"name": "StatefulPartitionedCall/CNN_BiLSTM_MHA_Classifier_1/bilstm_1_1/backward_lstm_2_1/ReverseV2/axis", "op": "Const", "attr": {"value": {"tensor": {"dtype": "DT_INT32", "tensorShape": {"dim": [{"size": "1"}]}}}, "dtype": {"type": "DT_INT32"}}}, {"name": "StatefulPartitionedCall/CNN_BiLSTM_MHA_Classifier_1/bilstm_1_1/backward_lstm_2_1/TensorArrayUnstack/TensorListFromTensor/element_shape", "op": "Const", "attr": {"value": {"tensor": {"dtype": "DT_INT32", "tensorShape": {"dim": [{"size": "2"}]}}}, "dtype": {"type": "DT_INT32"}}}, {"name": "StatefulPartitionedCall/CNN_BiLSTM_MHA_Classifier_1/bilstm_1_1/backward_lstm_2_1/TensorArrayV2_1/element_shape", "op": "Const", "attr": {"value": {"tensor": {"dtype": "DT_INT32", "tensorShape": {"dim": [{"size": "2"}]}}}, "dtype": {"type": "DT_INT32"}}}, {"name": "StatefulPartitionedCall/CNN_BiLSTM_MHA_Classifier_1/bilstm_1_1/backward_lstm_2_1/TensorArrayV2_1/num_elements", "op": "Const", "attr": {"value": {"tensor": {"dtype": "DT_INT32", "tensorShape": {}}}, "dtype": {"type": "DT_INT32"}}}, {"name": "StatefulPartitionedCall/CNN_BiLSTM_MHA_Classifier_1/bilstm_1_1/backward_lstm_2_1/zeros/packed/1", "op": "Const", "attr": {"value": {"tensor": {"dtype": "DT_INT32", "tensorShape": {}}}, "dtype": {"type": "DT_INT32"}}}, {"name": "StatefulPartitionedCall/CNN_BiLSTM_MHA_Classifier_1/bilstm_1_1/backward_lstm_2_1/zeros/Const", "op": "Const", "attr": {"value": {"tensor": {"dtype": "DT_FLOAT", "tensorShape": {}}}, "dtype": {"type": "DT_FLOAT"}}}, {"name": "StatefulPartitionedCall/CNN_BiLSTM_MHA_Classifier_1/conv1d_k3_1/convolution/ExpandDims/dim", "op": "Const", "attr": {"value": {"tensor": {"dtype": "DT_INT32", "tensorShape": {}}}, "dtype": {"type": "DT_INT32"}}}, {"name": "StatefulPartitionedCall/CNN_BiLSTM_MHA_Classifier_1/conv1d_k3_1/convolution/ExpandDims_1", "op": "Const", "attr": {"value": {"tensor": {"dtype": "DT_FLOAT", "tensorShape": {"dim": [{"size": "1"}, {"size": "3"}, {"size": "16"}, {"size": "32"}]}}}, "dtype": {"type": "DT_FLOAT"}}}, {"name": "StatefulPartitionedCall/CNN_BiLSTM_MHA_Classifier_1/conv1d_k3_1/Squeeze", "op": "Const", "attr": {"value": {"tensor": {"dtype": "DT_FLOAT", "tensorShape": {"dim": [{"size": "32"}]}}}, "dtype": {"type": "DT_FLOAT"}}}, {"name": "StatefulPartitionedCall/CNN_BiLSTM_MHA_Classifier_1/bn_k3_1/batchnorm/mul", "op": "Const", "attr": {"value": {"tensor": {"dtype": "DT_FLOAT", "tensorShape": {"dim": [{"size": "32"}]}}}, "dtype": {"type": "DT_FLOAT"}}}, {"name": "StatefulPartitionedCall/CNN_BiLSTM_MHA_Classifier_1/bn_k3_1/batchnorm/sub", "op": "Const", "attr": {"value": {"tensor": {"dtype": "DT_FLOAT", "tensorShape": {"dim": [{"size": "32"}]}}}, "dtype": {"type": "DT_FLOAT"}}}, {"name": "StatefulPartitionedCall/CNN_BiLSTM_MHA_Classifier_1/conv1d_k5_1/convolution/ExpandDims/dim", "op": "Const", "attr": {"value": {"tensor": {"dtype": "DT_INT32", "tensorShape": {}}}, "dtype": {"type": "DT_INT32"}}}, {"name": "StatefulPartitionedCall/CNN_BiLSTM_MHA_Classifier_1/conv1d_k5_1/convolution/ExpandDims_1", "op": "Const", "attr": {"value": {"tensor": {"dtype": "DT_FLOAT", "tensorShape": {"dim": [{"size": "1"}, {"size": "5"}, {"size": "16"}, {"size": "32"}]}}}, "dtype": {"type": "DT_FLOAT"}}}, {"name": "StatefulPartitionedCall/CNN_BiLSTM_MHA_Classifier_1/conv1d_k5_1/Squeeze", "op": "Const", "attr": {"value": {"tensor": {"dtype": "DT_FLOAT", "tensorShape": {"dim": [{"size": "32"}]}}}, "dtype": {"type": "DT_FLOAT"}}}, {"name": "StatefulPartitionedCall/CNN_BiLSTM_MHA_Classifier_1/bn_k5_1/batchnorm/mul", "op": "Const", "attr": {"value": {"tensor": {"dtype": "DT_FLOAT", "tensorShape": {"dim": [{"size": "32"}]}}}, "dtype": {"type": "DT_FLOAT"}}}, {"name": "StatefulPartitionedCall/CNN_BiLSTM_MHA_Classifier_1/bn_k5_1/batchnorm/sub", "op": "Const", "attr": {"value": {"tensor": {"dtype": "DT_FLOAT", "tensorShape": {"dim": [{"size": "32"}]}}}, "dtype": {"type": "DT_FLOAT"}}}, {"name": "StatefulPartitionedCall/CNN_BiLSTM_MHA_Classifier_1/conv1d_k7_1/convolution/ExpandDims/dim", "op": "Const", "attr": {"value": {"tensor": {"dtype": "DT_INT32", "tensorShape": {}}}, "dtype": {"type": "DT_INT32"}}}, {"name": "StatefulPartitionedCall/CNN_BiLSTM_MHA_Classifier_1/conv1d_k7_1/convolution/ExpandDims_1", "op": "Const", "attr": {"value": {"tensor": {"dtype": "DT_FLOAT", "tensorShape": {"dim": [{"size": "1"}, {"size": "7"}, {"size": "16"}, {"size": "32"}]}}}, "dtype": {"type": "DT_FLOAT"}}}, {"name": "StatefulPartitionedCall/CNN_BiLSTM_MHA_Classifier_1/conv1d_k7_1/Squeeze", "op": "Const", "attr": {"value": {"tensor": {"dtype": "DT_FLOAT", "tensorShape": {"dim": [{"size": "32"}]}}}, "dtype": {"type": "DT_FLOAT"}}}, {"name": "StatefulPartitionedCall/CNN_BiLSTM_MHA_Classifier_1/bn_k7_1/batchnorm/mul", "op": "Const", "attr": {"value": {"tensor": {"dtype": "DT_FLOAT", "tensorShape": {"dim": [{"size": "32"}]}}}, "dtype": {"type": "DT_FLOAT"}}}, {"name": "StatefulPartitionedCall/CNN_BiLSTM_MHA_Classifier_1/bn_k7_1/batchnorm/sub", "op": "Const", "attr": {"value": {"tensor": {"dtype": "DT_FLOAT", "tensorShape": {"dim": [{"size": "32"}]}}}, "dtype": {"type": "DT_FLOAT"}}}, {"name": "StatefulPartitionedCall/CNN_BiLSTM_MHA_Classifier_1/cnn_concat_1/concat/axis", "op": "Const", "attr": {"value": {"tensor": {"dtype": "DT_INT32", "tensorShape": {}}}, "dtype": {"type": "DT_INT32"}}}, {"name": "StatefulPartitionedCall/CNN_BiLSTM_MHA_Classifier_1/cnn_pool_1/MaxPool1d/ExpandDims/dim", "op": "Const", "attr": {"value": {"tensor": {"dtype": "DT_INT32", "tensorShape": {}}}, "dtype": {"type": "DT_INT32"}}}, {"name": "StatefulPartitionedCall/CNN_BiLSTM_MHA_Classifier_1/bilstm_1_1/backward_lstm_2_1/strided_slice/stack", "op": "Const", "attr": {"value": {"tensor": {"dtype": "DT_INT32", "tensorShape": {"dim": [{"size": "1"}]}}}, "dtype": {"type": "DT_INT32"}}}, {"name": "StatefulPartitionedCall/CNN_BiLSTM_MHA_Classifier_1/bilstm_1_1/backward_lstm_2_1/strided_slice/stack_1", "op": "Const", "attr": {"value": {"tensor": {"dtype": "DT_INT32", "tensorShape": {"dim": [{"size": "1"}]}}}, "dtype": {"type": "DT_INT32"}}}, {"name": "StatefulPartitionedCall/CNN_BiLSTM_MHA_Classifier_1/bilstm_1_1/backward_lstm_2_1/strided_slice/stack_2", "op": "Const", "attr": {"value": {"tensor": {"dtype": "DT_INT32", "tensorShape": {"dim": [{"size": "1"}]}}}, "dtype": {"type": "DT_INT32"}}}, {"name": "StatefulPartitionedCall/CNN_BiLSTM_MHA_Classifier_1/bilstm_1_1/backward_lstm_2_1/zeros_1/packed/1", "op": "Const", "attr": {"value": {"tensor": {"dtype": "DT_INT32", "tensorShape": {}}}, "dtype": {"type": "DT_INT32"}}}, {"name": "StatefulPartitionedCall/CNN_BiLSTM_MHA_Classifier_1/bilstm_1_1/backward_lstm_2_1/zeros_1/Const", "op": "Const", "attr": {"value": {"tensor": {"dtype": "DT_FLOAT", "tensorShape": {}}}, "dtype": {"type": "DT_FLOAT"}}}, {"name": "StatefulPartitionedCall/CNN_BiLSTM_MHA_Classifier_1/bilstm_1_1/backward_lstm_2_1/TensorArrayV2Stack/TensorListStack/element_shape", "op": "Const", "attr": {"value": {"tensor": {"dtype": "DT_INT32", "tensorShape": {"dim": [{"size": "2"}]}}}, "dtype": {"type": "DT_INT32"}}}, {"name": "StatefulPartitionedCall/CNN_BiLSTM_MHA_Classifier_1/bilstm_1_1/backward_lstm_2_1/transpose_1/perm", "op": "Const", "attr": {"value": {"tensor": {"dtype": "DT_INT32", "tensorShape": {"dim": [{"size": "3"}]}}}, "dtype": {"type": "DT_INT32"}}}, {"name": "StatefulPartitionedCall/CNN_BiLSTM_MHA_Classifier_1/bilstm_1_1/ReverseV2/axis", "op": "Const", "attr": {"value": {"tensor": {"dtype": "DT_INT32", "tensorShape": {"dim": [{"size": "1"}]}}}, "dtype": {"type": "DT_INT32"}}}, {"name": "StatefulPartitionedCall/CNN_BiLSTM_MHA_Classifier_1/bilstm_1_1/concat/axis", "op": "Const", "attr": {"value": {"tensor": {"dtype": "DT_INT32", "tensorShape": {}}}, "dtype": {"type": "DT_INT32"}}}, {"name": "StatefulPartitionedCall/CNN_BiLSTM_MHA_Classifier_1/bilstm_2_1/forward_lstm_3_1/strided_slice/stack", "op": "Const", "attr": {"value": {"tensor": {"dtype": "DT_INT32", "tensorShape": {"dim": [{"size": "1"}]}}}, "dtype": {"type": "DT_INT32"}}}, {"name": "StatefulPartitionedCall/CNN_BiLSTM_MHA_Classifier_1/bilstm_2_1/forward_lstm_3_1/strided_slice/stack_1", "op": "Const", "attr": {"value": {"tensor": {"dtype": "DT_INT32", "tensorShape": {"dim": [{"size": "1"}]}}}, "dtype": {"type": "DT_INT32"}}}, {"name": "StatefulPartitionedCall/CNN_BiLSTM_MHA_Classifier_1/bilstm_2_1/forward_lstm_3_1/strided_slice/stack_2", "op": "Const", "attr": {"value": {"tensor": {"dtype": "DT_INT32", "tensorShape": {"dim": [{"size": "1"}]}}}, "dtype": {"type": "DT_INT32"}}}, {"name": "StatefulPartitionedCall/CNN_BiLSTM_MHA_Classifier_1/bilstm_2_1/forward_lstm_3_1/zeros_1/packed/1", "op": "Const", "attr": {"value": {"tensor": {"dtype": "DT_INT32", "tensorShape": {}}}, "dtype": {"type": "DT_INT32"}}}, {"name": "StatefulPartitionedCall/CNN_BiLSTM_MHA_Classifier_1/bilstm_2_1/forward_lstm_3_1/zeros_1/Const", "op": "Const", "attr": {"value": {"tensor": {"dtype": "DT_FLOAT", "tensorShape": {}}}, "dtype": {"type": "DT_FLOAT"}}}, {"name": "input_layer_3", "op": "Placeholder", "attr": {"shape": {"shape": {"dim": [{"size": "-1"}, {"size": "128"}, {"size": "16"}]}}, "dtype": {"type": "DT_FLOAT"}}}, {"name": "StatefulPartitionedCall/CNN_BiLSTM_MHA_Classifier_1/bilstm_2_1/backward_lstm_3_1/TensorArrayV2_1", "op": "TensorListReserve", "input": ["StatefulPartitionedCall/CNN_BiLSTM_MHA_Classifier_1/bilstm_2_1/backward_lstm_3_1/TensorArrayV2_1/element_shape", "StatefulPartitionedCall/CNN_BiLSTM_MHA_Classifier_1/bilstm_2_1/backward_lstm_3_1/TensorArrayV2_1/num_elements"], "attr": {"shape_type": {"type": "DT_INT32"}, "_has_manual_control_dependencies": {"b": true}, "element_dtype": {"type": "DT_FLOAT"}}, "experimentalType": {"typeId": "TFT_PRODUCT", "args": [{"typeId": "TFT_ARRAY", "args": [{"typeId": "TFT_TENSOR", "args": [{"typeId": "TFT_FLOAT"}]}]}]}}, {"name": "StatefulPartitionedCall/CNN_BiLSTM_MHA_Classifier_1/bilstm_2_1/forward_lstm_3_1/TensorArrayV2_1", "op": "TensorListReserve", "input": ["StatefulPartitionedCall/CNN_BiLSTM_MHA_Classifier_1/bilstm_2_1/forward_lstm_3_1/TensorArrayV2_1/element_shape", "StatefulPartitionedCall/CNN_BiLSTM_MHA_Classifier_1/bilstm_2_1/forward_lstm_3_1/TensorArrayV2_1/num_elements"], "attr": {"shape_type": {"type": "DT_INT32"}, "_has_manual_control_dependencies": {"b": true}, "element_dtype": {"type": "DT_FLOAT"}}, "experimentalType": {"typeId": "TFT_PRODUCT", "args": [{"typeId": "TFT_ARRAY", "args": [{"typeId": "TFT_TENSOR", "args": [{"typeId": "TFT_FLOAT"}]}]}]}}, {"name": "StatefulPartitionedCall/CNN_BiLSTM_MHA_Classifier_1/bilstm_1_1/forward_lstm_2_1/TensorArrayV2_1", "op": "TensorListReserve", "input": ["StatefulPartitionedCall/CNN_BiLSTM_MHA_Classifier_1/bilstm_1_1/forward_lstm_2_1/TensorArrayV2_1/element_shape", "StatefulPartitionedCall/CNN_BiLSTM_MHA_Classifier_1/bilstm_1_1/forward_lstm_2_1/TensorArrayV2_1/num_elements"], "attr": {"shape_type": {"type": "DT_INT32"}, "_has_manual_control_dependencies": {"b": true}, "element_dtype": {"type": "DT_FLOAT"}}, "experimentalType": {"typeId": "TFT_PRODUCT", "args": [{"typeId": "TFT_ARRAY", "args": [{"typeId": "TFT_TENSOR", "args": [{"typeId": "TFT_FLOAT"}]}]}]}}, {"name": "StatefulPartitionedCall/CNN_BiLSTM_MHA_Classifier_1/bilstm_1_1/backward_lstm_2_1/TensorArrayV2_1", "op": "TensorListReserve", "input": ["StatefulPartitionedCall/CNN_BiLSTM_MHA_Classifier_1/bilstm_1_1/backward_lstm_2_1/TensorArrayV2_1/element_shape", "StatefulPartitionedCall/CNN_BiLSTM_MHA_Classifier_1/bilstm_1_1/backward_lstm_2_1/TensorArrayV2_1/num_elements"], "attr": {"shape_type": {"type": "DT_INT32"}, "_has_manual_control_dependencies": {"b": true}, "element_dtype": {"type": "DT_FLOAT"}}, "experimentalType": {"typeId": "TFT_PRODUCT", "args": [{"typeId": "TFT_ARRAY", "args": [{"typeId": "TFT_TENSOR", "args": [{"typeId": "TFT_FLOAT"}]}]}]}}, {"name": "StatefulPartitionedCall/CNN_BiLSTM_MHA_Classifier_1/conv1d_k3_1/convolution/ExpandDims", "op": "ExpandDims", "input": ["input_layer_3", "StatefulPartitionedCall/CNN_BiLSTM_MHA_Classifier_1/conv1d_k3_1/convolution/ExpandDims/dim"], "attr": {"Tdim": {"type": "DT_INT32"}, "T": {"type": "DT_FLOAT"}}}, {"name": "StatefulPartitionedCall/CNN_BiLSTM_MHA_Classifier_1/conv1d_k5_1/convolution/ExpandDims", "op": "ExpandDims", "input": ["input_layer_3", "StatefulPartitionedCall/CNN_BiLSTM_MHA_Classifier_1/conv1d_k5_1/convolution/ExpandDims/dim"], "attr": {"Tdim": {"type": "DT_INT32"}, "T": {"type": "DT_FLOAT"}}}, {"name": "StatefulPartitionedCall/CNN_BiLSTM_MHA_Classifier_1/conv1d_k7_1/convolution/ExpandDims", "op": "ExpandDims", "input": ["input_layer_3", "StatefulPartitionedCall/CNN_BiLSTM_MHA_Classifier_1/conv1d_k7_1/convolution/ExpandDims/dim"], "attr": {"Tdim": {"type": "DT_INT32"}, "T": {"type": "DT_FLOAT"}}}, {"name": "StatefulPartitionedCall/CNN_BiLSTM_MHA_Classifier_1/conv1d_k3_1/convolution", "op": "_FusedConv2D", "input": ["StatefulPartitionedCall/CNN_BiLSTM_MHA_Classifier_1/conv1d_k3_1/convolution/ExpandDims", "StatefulPartitionedCall/CNN_BiLSTM_MHA_Classifier_1/conv1d_k3_1/convolution/ExpandDims_1", "StatefulPartitionedCall/CNN_BiLSTM_MHA_Classifier_1/conv1d_k3_1/Squeeze"], "device": "/device:CPU:0", "attr": {"num_host_args": {"i": "0"}, "data_format": {"s": "TkhXQw=="}, "filter_format": {"s": "SFdJTw=="}, "strides": {"list": {"i": ["1", "1", "1", "1"]}}, "num_args": {"i": "1"}, "fused_ops": {"list": {"s": ["Qmlhc0FkZA=="]}}, "TArgs": {"list": {"type": ["DT_FLOAT"]}}, "padding": {"s": "U0FNRQ=="}, "use_cudnn_on_gpu": {"b": true}, "leakyrelu_alpha": {"f": 0.2}, "epsilon": {"f": 0.0}, "T": {"type": "DT_FLOAT"}, "explicit_paddings": {"list": {}}, "dilations": {"list": {"i": ["1", "1", "1", "1"]}}}}, {"name": "StatefulPartitionedCall/CNN_BiLSTM_MHA_Classifier_1/conv1d_k5_1/convolution", "op": "_FusedConv2D", "input": ["StatefulPartitionedCall/CNN_BiLSTM_MHA_Classifier_1/conv1d_k5_1/convolution/ExpandDims", "StatefulPartitionedCall/CNN_BiLSTM_MHA_Classifier_1/conv1d_k5_1/convolution/ExpandDims_1", "StatefulPartitionedCall/CNN_BiLSTM_MHA_Classifier_1/conv1d_k5_1/Squeeze"], "device": "/device:CPU:0", "attr": {"num_host_args": {"i": "0"}, "data_format": {"s": "TkhXQw=="}, "filter_format": {"s": "SFdJTw=="}, "strides": {"list": {"i": ["1", "1", "1", "1"]}}, "num_args": {"i": "1"}, "fused_ops": {"list": {"s": ["Qmlhc0FkZA=="]}}, "TArgs": {"list": {"type": ["DT_FLOAT"]}}, "padding": {"s": "U0FNRQ=="}, "use_cudnn_on_gpu": {"b": true}, "leakyrelu_alpha": {"f": 0.2}, "epsilon": {"f": 0.0}, "T": {"type": "DT_FLOAT"}, "explicit_paddings": {"list": {}}, "dilations": {"list": {"i": ["1", "1", "1", "1"]}}}}, {"name": "StatefulPartitionedCall/CNN_BiLSTM_MHA_Classifier_1/conv1d_k7_1/convolution", "op": "_FusedConv2D", "input": ["StatefulPartitionedCall/CNN_BiLSTM_MHA_Classifier_1/conv1d_k7_1/convolution/ExpandDims", "StatefulPartitionedCall/CNN_BiLSTM_MHA_Classifier_1/conv1d_k7_1/convolution/ExpandDims_1", "StatefulPartitionedCall/CNN_BiLSTM_MHA_Classifier_1/conv1d_k7_1/Squeeze"], "device": "/device:CPU:0", "attr": {"num_host_args": {"i": "0"}, "data_format": {"s": "TkhXQw=="}, "filter_format": {"s": "SFdJTw=="}, "strides": {"list": {"i": ["1", "1", "1", "1"]}}, "num_args": {"i": "1"}, "fused_ops": {"list": {"s": ["Qmlhc0FkZA=="]}}, "TArgs": {"list": {"type": ["DT_FLOAT"]}}, "padding": {"s": "U0FNRQ=="}, "use_cudnn_on_gpu": {"b": true}, "leakyrelu_alpha": {"f": 0.2}, "epsilon": {"f": 0.0}, "T": {"type": "DT_FLOAT"}, "explicit_paddings": {"list": {}}, "dilations": {"list": {"i": ["1", "1", "1", "1"]}}}}, {"name": "StatefulPartitionedCall/CNN_BiLSTM_MHA_Classifier_1/conv1d_k3_1/BiasAdd", "op": "Squeeze", "input": ["StatefulPartitionedCall/CNN_BiLSTM_MHA_Classifier_1/conv1d_k3_1/convolution"], "attr": {"T": {"type": "DT_FLOAT"}, "squeeze_dims": {"list": {"i": ["-3"]}}}}, {"name": "StatefulPartitionedCall/CNN_BiLSTM_MHA_Classifier_1/conv1d_k5_1/BiasAdd", "op": "Squeeze", "input": ["StatefulPartitionedCall/CNN_BiLSTM_MHA_Classifier_1/conv1d_k5_1/convolution"], "attr": {"T": {"type": "DT_FLOAT"}, "squeeze_dims": {"list": {"i": ["-3"]}}}}, {"name": "StatefulPartitionedCall/CNN_BiLSTM_MHA_Classifier_1/conv1d_k7_1/BiasAdd", "op": "Squeeze", "input": ["StatefulPartitionedCall/CNN_BiLSTM_MHA_Classifier_1/conv1d_k7_1/convolution"], "attr": {"T": {"type": "DT_FLOAT"}, "squeeze_dims": {"list": {"i": ["-3"]}}}}, {"name": "StatefulPartitionedCall/CNN_BiLSTM_MHA_Classifier_1/conv1d_k3_1/Relu", "op": "Relu", "input": ["StatefulPartitionedCall/CNN_BiLSTM_MHA_Classifier_1/conv1d_k3_1/BiasAdd"], "attr": {"T": {"type": "DT_FLOAT"}}}, {"name": "StatefulPartitionedCall/CNN_BiLSTM_MHA_Classifier_1/conv1d_k5_1/Relu", "op": "Relu", "input": ["StatefulPartitionedCall/CNN_BiLSTM_MHA_Classifier_1/conv1d_k5_1/BiasAdd"], "attr": {"T": {"type": "DT_FLOAT"}}}, {"name": "StatefulPartitionedCall/CNN_BiLSTM_MHA_Classifier_1/conv1d_k7_1/Relu", "op": "Relu", "input": ["StatefulPartitionedCall/CNN_BiLSTM_MHA_Classifier_1/conv1d_k7_1/BiasAdd"], "attr": {"T": {"type": "DT_FLOAT"}}}, {"name": "StatefulPartitionedCall/CNN_BiLSTM_MHA_Classifier_1/bn_k3_1/batchnorm/mul_1", "op": "Mul", "input": ["StatefulPartitionedCall/CNN_BiLSTM_MHA_Classifier_1/conv1d_k3_1/Relu", "StatefulPartitionedCall/CNN_BiLSTM_MHA_Classifier_1/bn_k3_1/batchnorm/mul"], "attr": {"T": {"type": "DT_FLOAT"}}}, {"name": "StatefulPartitionedCall/CNN_BiLSTM_MHA_Classifier_1/bn_k5_1/batchnorm/mul_1", "op": "Mul", "input": ["StatefulPartitionedCall/CNN_BiLSTM_MHA_Classifier_1/conv1d_k5_1/Relu", "StatefulPartitionedCall/CNN_BiLSTM_MHA_Classifier_1/bn_k5_1/batchnorm/mul"], "attr": {"T": {"type": "DT_FLOAT"}}}, {"name": "StatefulPartitionedCall/CNN_BiLSTM_MHA_Classifier_1/bn_k7_1/batchnorm/mul_1", "op": "Mul", "input": ["StatefulPartitionedCall/CNN_BiLSTM_MHA_Classifier_1/conv1d_k7_1/Relu", "StatefulPartitionedCall/CNN_BiLSTM_MHA_Classifier_1/bn_k7_1/batchnorm/mul"], "attr": {"T": {"type": "DT_FLOAT"}}}, {"name": "StatefulPartitionedCall/CNN_BiLSTM_MHA_Classifier_1/bn_k3_1/batchnorm/add_1", "op": "AddV2", "input": ["StatefulPartitionedCall/CNN_BiLSTM_MHA_Classifier_1/bn_k3_1/batchnorm/mul_1", "StatefulPartitionedCall/CNN_BiLSTM_MHA_Classifier_1/bn_k3_1/batchnorm/sub"], "attr": {"T": {"type": "DT_FLOAT"}}}, {"name": "StatefulPartitionedCall/CNN_BiLSTM_MHA_Classifier_1/bn_k5_1/batchnorm/add_1", "op": "AddV2", "input": ["StatefulPartitionedCall/CNN_BiLSTM_MHA_Classifier_1/bn_k5_1/batchnorm/mul_1", "StatefulPartitionedCall/CNN_BiLSTM_MHA_Classifier_1/bn_k5_1/batchnorm/sub"], "attr": {"T": {"type": "DT_FLOAT"}}}, {"name": "StatefulPartitionedCall/CNN_BiLSTM_MHA_Classifier_1/bn_k7_1/batchnorm/add_1", "op": "AddV2", "input": ["StatefulPartitionedCall/CNN_BiLSTM_MHA_Classifier_1/bn_k7_1/batchnorm/mul_1", "StatefulPartitionedCall/CNN_BiLSTM_MHA_Classifier_1/bn_k7_1/batchnorm/sub"], "attr": {"T": {"type": "DT_FLOAT"}}}, {"name": "StatefulPartitionedCall/CNN_BiLSTM_MHA_Classifier_1/cnn_concat_1/concat", "op": "ConcatV2", "input": ["StatefulPartitionedCall/CNN_BiLSTM_MHA_Classifier_1/bn_k3_1/batchnorm/add_1", "StatefulPartitionedCall/CNN_BiLSTM_MHA_Classifier_1/bn_k5_1/batchnorm/add_1", "StatefulPartitionedCall/CNN_BiLSTM_MHA_Classifier_1/bn_k7_1/batchnorm/add_1", "StatefulPartitionedCall/CNN_BiLSTM_MHA_Classifier_1/cnn_concat_1/concat/axis"], "attr": {"N": {"i": "3"}, "T": {"type": "DT_FLOAT"}, "Tidx": {"type": "DT_INT32"}}}, {"name": "StatefulPartitionedCall/CNN_BiLSTM_MHA_Classifier_1/cnn_pool_1/MaxPool1d/ExpandDims", "op": "ExpandDims", "input": ["StatefulPartitionedCall/CNN_BiLSTM_MHA_Classifier_1/cnn_concat_1/concat", "StatefulPartitionedCall/CNN_BiLSTM_MHA_Classifier_1/cnn_pool_1/MaxPool1d/ExpandDims/dim"], "attr": {"Tdim": {"type": "DT_INT32"}, "T": {"type": "DT_FLOAT"}}}, {"name": "StatefulPartitionedCall/CNN_BiLSTM_MHA_Classifier_1/cnn_pool_1/MaxPool1d", "op": "MaxPool", "input": ["StatefulPartitionedCall/CNN_BiLSTM_MHA_Classifier_1/cnn_pool_1/MaxPool1d/ExpandDims"], "attr": {"ksize": {"list": {"i": ["1", "1", "2", "1"]}}, "data_format": {"s": "TkhXQw=="}, "T": {"type": "DT_FLOAT"}, "explicit_paddings": {"list": {}}, "padding": {"s": "VkFMSUQ="}, "strides": {"list": {"i": ["1", "1", "2", "1"]}}}}, {"name": "StatefulPartitionedCall/CNN_BiLSTM_MHA_Classifier_1/cnn_pool_1/MaxPool1d/Squeeze", "op": "Squeeze", "input": ["StatefulPartitionedCall/CNN_BiLSTM_MHA_Classifier_1/cnn_pool_1/MaxPool1d"], "attr": {"T": {"type": "DT_FLOAT"}, "squeeze_dims": {"list": {"i": ["1"]}}}}, {"name": "StatefulPartitionedCall/CNN_BiLSTM_MHA_Classifier_1/bilstm_1_1/forward_lstm_2_1/transpose", "op": "Transpose", "input": ["StatefulPartitionedCall/CNN_BiLSTM_MHA_Classifier_1/cnn_pool_1/MaxPool1d/Squeeze", "StatefulPartitionedCall/CNN_BiLSTM_MHA_Classifier_1/bilstm_1_1/forward_lstm_2_1/transpose/perm"], "attr": {"Tperm": {"type": "DT_INT32"}, "T": {"type": "DT_FLOAT"}}}, {"name": "StatefulPartitionedCall/CNN_BiLSTM_MHA_Classifier_1/bilstm_1_1/forward_lstm_2_1/Shape", "op": "Shape", "input": ["StatefulPartitionedCall/CNN_BiLSTM_MHA_Classifier_1/cnn_pool_1/MaxPool1d/Squeeze"], "attr": {"T": {"type": "DT_FLOAT"}, "out_type": {"type": "DT_INT32"}}, "experimentalType": {"typeId": "TFT_PRODUCT", "args": [{"typeId": "TFT_SHAPE_TENSOR", "args": [{"typeId": "TFT_INT32"}]}]}}, {"name": "StatefulPartitionedCall/CNN_BiLSTM_MHA_Classifier_1/bilstm_1_1/backward_lstm_2_1/transpose", "op": "Transpose", "input": ["StatefulPartitionedCall/CNN_BiLSTM_MHA_Classifier_1/cnn_pool_1/MaxPool1d/Squeeze", "StatefulPartitionedCall/CNN_BiLSTM_MHA_Classifier_1/bilstm_1_1/backward_lstm_2_1/transpose/perm"], "attr": {"Tperm": {"type": "DT_INT32"}, "T": {"type": "DT_FLOAT"}}}, {"name": "StatefulPartitionedCall/CNN_BiLSTM_MHA_Classifier_1/bilstm_1_1/backward_lstm_2_1/Shape", "op": "Shape", "input": ["StatefulPartitionedCall/CNN_BiLSTM_MHA_Classifier_1/cnn_pool_1/MaxPool1d/Squeeze"], "attr": {"T": {"type": "DT_FLOAT"}, "out_type": {"type": "DT_INT32"}}, "experimentalType": {"typeId": "TFT_PRODUCT", "args": [{"typeId": "TFT_SHAPE_TENSOR", "args": [{"typeId": "TFT_INT32"}]}]}}, {"name": "StatefulPartitionedCall/CNN_BiLSTM_MHA_Classifier_1/bilstm_1_1/forward_lstm_2_1/TensorArrayUnstack/TensorListFromTensor", "op": "TensorListFromTensor", "input": ["StatefulPartitionedCall/CNN_BiLSTM_MHA_Classifier_1/bilstm_1_1/forward_lstm_2_1/transpose", "StatefulPartitionedCall/CNN_BiLSTM_MHA_Classifier_1/bilstm_1_1/forward_lstm_2_1/TensorArrayUnstack/TensorListFromTensor/element_shape"], "attr": {"shape_type": {"type": "DT_INT32"}, "_has_manual_control_dependencies": {"b": true}, "element_dtype": {"type": "DT_FLOAT"}}, "experimentalType": {"typeId": "TFT_PRODUCT", "args": [{"typeId": "TFT_ARRAY", "args": [{"typeId": "TFT_TENSOR", "args": [{"typeId": "TFT_FLOAT"}]}]}]}}, {"name": "StatefulPartitionedCall/CNN_BiLSTM_MHA_Classifier_1/bilstm_1_1/forward_lstm_2_1/strided_slice", "op": "StridedSlice", "input": ["StatefulPartitionedCall/CNN_BiLSTM_MHA_Classifier_1/bilstm_1_1/forward_lstm_2_1/Shape", "StatefulPartitionedCall/CNN_BiLSTM_MHA_Classifier_1/bilstm_1_1/forward_lstm_2_1/strided_slice/stack", "StatefulPartitionedCall/CNN_BiLSTM_MHA_Classifier_1/bilstm_1_1/forward_lstm_2_1/strided_slice/stack_1", "StatefulPartitionedCall/CNN_BiLSTM_MHA_Classifier_1/bilstm_1_1/forward_lstm_2_1/strided_slice/stack_2"], "attr": {"shrink_axis_mask": {"i": "1"}, "Index": {"type": "DT_INT32"}, "new_axis_mask": {"i": "0"}, "begin_mask": {"i": "0"}, "T": {"type": "DT_INT32"}, "end_mask": {"i": "0"}, "ellipsis_mask": {"i": "0"}}}, {"name": "StatefulPartitionedCall/CNN_BiLSTM_MHA_Classifier_1/bilstm_1_1/backward_lstm_2_1/ReverseV2", "op": "ReverseV2", "input": ["StatefulPartitionedCall/CNN_BiLSTM_MHA_Classifier_1/bilstm_1_1/backward_lstm_2_1/transpose", "StatefulPartitionedCall/CNN_BiLSTM_MHA_Classifier_1/bilstm_1_1/backward_lstm_2_1/ReverseV2/axis"], "attr": {"T": {"type": "DT_FLOAT"}, "Tidx": {"type": "DT_INT32"}}}, {"name": "StatefulPartitionedCall/CNN_BiLSTM_MHA_Classifier_1/bilstm_1_1/backward_lstm_2_1/strided_slice", "op": "StridedSlice", "input": ["StatefulPartitionedCall/CNN_BiLSTM_MHA_Classifier_1/bilstm_1_1/backward_lstm_2_1/Shape", "StatefulPartitionedCall/CNN_BiLSTM_MHA_Classifier_1/bilstm_1_1/backward_lstm_2_1/strided_slice/stack", "StatefulPartitionedCall/CNN_BiLSTM_MHA_Classifier_1/bilstm_1_1/backward_lstm_2_1/strided_slice/stack_1", "StatefulPartitionedCall/CNN_BiLSTM_MHA_Classifier_1/bilstm_1_1/backward_lstm_2_1/strided_slice/stack_2"], "attr": {"shrink_axis_mask": {"i": "1"}, "Index": {"type": "DT_INT32"}, "new_axis_mask": {"i": "0"}, "begin_mask": {"i": "0"}, "end_mask": {"i": "0"}, "T": {"type": "DT_INT32"}, "ellipsis_mask": {"i": "0"}}}, {"name": "StatefulPartitionedCall/CNN_BiLSTM_MHA_Classifier_1/bilstm_1_1/forward_lstm_2_1/zeros/packed", "op": "Pack", "input": ["StatefulPartitionedCall/CNN_BiLSTM_MHA_Classifier_1/bilstm_1_1/forward_lstm_2_1/strided_slice", "StatefulPartitionedCall/CNN_BiLSTM_MHA_Classifier_1/bilstm_1_1/forward_lstm_2_1/zeros/packed/1"], "attr": {"N": {"i": "2"}, "axis": {"i": "0"}, "T": {"type": "DT_INT32"}}}, {"name": "StatefulPartitionedCall/CNN_BiLSTM_MHA_Classifier_1/bilstm_1_1/forward_lstm_2_1/zeros_1/packed", "op": "Pack", "input": ["StatefulPartitionedCall/CNN_BiLSTM_MHA_Classifier_1/bilstm_1_1/forward_lstm_2_1/strided_slice", "StatefulPartitionedCall/CNN_BiLSTM_MHA_Classifier_1/bilstm_1_1/forward_lstm_2_1/zeros_1/packed/1"], "attr": {"N": {"i": "2"}, "axis": {"i": "0"}, "T": {"type": "DT_INT32"}}}, {"name": "StatefulPartitionedCall/CNN_BiLSTM_MHA_Classifier_1/bilstm_1_1/backward_lstm_2_1/TensorArrayUnstack/TensorListFromTensor", "op": "TensorListFromTensor", "input": ["StatefulPartitionedCall/CNN_BiLSTM_MHA_Classifier_1/bilstm_1_1/backward_lstm_2_1/ReverseV2", "StatefulPartitionedCall/CNN_BiLSTM_MHA_Classifier_1/bilstm_1_1/backward_lstm_2_1/TensorArrayUnstack/TensorListFromTensor/element_shape"], "attr": {"shape_type": {"type": "DT_INT32"}, "_has_manual_control_dependencies": {"b": true}, "element_dtype": {"type": "DT_FLOAT"}}, "experimentalType": {"typeId": "TFT_PRODUCT", "args": [{"typeId": "TFT_ARRAY", "args": [{"typeId": "TFT_TENSOR", "args": [{"typeId": "TFT_FLOAT"}]}]}]}}, {"name": "StatefulPartitionedCall/CNN_BiLSTM_MHA_Classifier_1/bilstm_1_1/backward_lstm_2_1/zeros/packed", "op": "Pack", "input": ["StatefulPartitionedCall/CNN_BiLSTM_MHA_Classifier_1/bilstm_1_1/backward_lstm_2_1/strided_slice", "StatefulPartitionedCall/CNN_BiLSTM_MHA_Classifier_1/bilstm_1_1/backward_lstm_2_1/zeros/packed/1"], "attr": {"N": {"i": "2"}, "axis": {"i": "0"}, "T": {"type": "DT_INT32"}}}, {"name": "StatefulPartitionedCall/CNN_BiLSTM_MHA_Classifier_1/bilstm_1_1/backward_lstm_2_1/zeros_1/packed", "op": "Pack", "input": ["StatefulPartitionedCall/CNN_BiLSTM_MHA_Classifier_1/bilstm_1_1/backward_lstm_2_1/strided_slice", "StatefulPartitionedCall/CNN_BiLSTM_MHA_Classifier_1/bilstm_1_1/backward_lstm_2_1/zeros_1/packed/1"], "attr": {"N": {"i": "2"}, "axis": {"i": "0"}, "T": {"type": "DT_INT32"}}}, {"name": "StatefulPartitionedCall/CNN_BiLSTM_MHA_Classifier_1/bilstm_1_1/forward_lstm_2_1/zeros", "op": "Fill", "input": ["StatefulPartitionedCall/CNN_BiLSTM_MHA_Classifier_1/bilstm_1_1/forward_lstm_2_1/zeros/packed", "StatefulPartitionedCall/CNN_BiLSTM_MHA_Classifier_1/bilstm_1_1/forward_lstm_2_1/zeros/Const"], "attr": {"_has_manual_control_dependencies": {"b": true}, "T": {"type": "DT_FLOAT"}, "index_type": {"type": "DT_INT32"}}}, {"name": "StatefulPartitionedCall/CNN_BiLSTM_MHA_Classifier_1/bilstm_1_1/forward_lstm_2_1/zeros_1", "op": "Fill", "input": ["StatefulPartitionedCall/CNN_BiLSTM_MHA_Classifier_1/bilstm_1_1/forward_lstm_2_1/zeros_1/packed", "StatefulPartitionedCall/CNN_BiLSTM_MHA_Classifier_1/bilstm_1_1/forward_lstm_2_1/zeros_1/Const"], "attr": {"_has_manual_control_dependencies": {"b": true}, "T": {"type": "DT_FLOAT"}, "index_type": {"type": "DT_INT32"}}}, {"name": "StatefulPartitionedCall/CNN_BiLSTM_MHA_Classifier_1/bilstm_1_1/backward_lstm_2_1/zeros", "op": "Fill", "input": ["StatefulPartitionedCall/CNN_BiLSTM_MHA_Classifier_1/bilstm_1_1/backward_lstm_2_1/zeros/packed", "StatefulPartitionedCall/CNN_BiLSTM_MHA_Classifier_1/bilstm_1_1/backward_lstm_2_1/zeros/Const"], "attr": {"_has_manual_control_dependencies": {"b": true}, "T": {"type": "DT_FLOAT"}, "index_type": {"type": "DT_INT32"}}}, {"name": "StatefulPartitionedCall/CNN_BiLSTM_MHA_Classifier_1/bilstm_1_1/backward_lstm_2_1/zeros_1", "op": "Fill", "input": ["StatefulPartitionedCall/CNN_BiLSTM_MHA_Classifier_1/bilstm_1_1/backward_lstm_2_1/zeros_1/packed", "StatefulPartitionedCall/CNN_BiLSTM_MHA_Classifier_1/bilstm_1_1/backward_lstm_2_1/zeros_1/Const"], "attr": {"_has_manual_control_dependencies": {"b": true}, "T": {"type": "DT_FLOAT"}, "index_type": {"type": "DT_INT32"}}}, {"name": "StatefulPartitionedCall/CNN_BiLSTM_MHA_Classifier_1/bilstm_1_1/forward_lstm_2_1/while/LoopControlInputs/_59", "op": "NoOp", "input": [], "attr": {"_has_manual_control_dependencies": {"b": true}}}, {"name": "StatefulPartitionedCall/CNN_BiLSTM_MHA_Classifier_1/bilstm_1_1/backward_lstm_2_1/while/LoopControlInputs/_103", "op": "NoOp", "input": [], "attr": {"_has_manual_control_dependencies": {"b": true}}}, {"name": "StatefulPartitionedCall/CNN_BiLSTM_MHA_Classifier_1/bilstm_1_1/forward_lstm_2_1/while/enter/_52", "op": "Enter", "input": ["StatefulPartitionedCall/CNN_BiLSTM_MHA_Classifier_1/bilstm_1_1/forward_lstm_2_1/TensorArrayV2_1"], "attr": {"is_constant": {"b": false}, "frame_name": {"s": "U3RhdGVmdWxQYXJ0aXRpb25lZENhbGwvQ05OX0JpTFNUTV9NSEFfQ2xhc3NpZmllcl8xL2JpbHN0bV8xXzEvZm9yd2FyZF9sc3RtXzJfMS93aGlsZQ=="}, "T": {"type": "DT_VARIANT"}, "parallel_iterations": {"i": "32"}}}, {"name": "StatefulPartitionedCall/CNN_BiLSTM_MHA_Classifier_1/bilstm_1_1/forward_lstm_2_1/while/enter/_55", "op": "Enter", "input": ["StatefulPartitionedCall/CNN_BiLSTM_MHA_Classifier_1/bilstm_1_1/forward_lstm_2_1/TensorArrayUnstack/TensorListFromTensor"], "attr": {"is_constant": {"b": false}, "frame_name": {"s": "U3RhdGVmdWxQYXJ0aXRpb25lZENhbGwvQ05OX0JpTFNUTV9NSEFfQ2xhc3NpZmllcl8xL2JpbHN0bV8xXzEvZm9yd2FyZF9sc3RtXzJfMS93aGlsZQ=="}, "T": {"type": "DT_VARIANT"}, "parallel_iterations": {"i": "32"}}}, {"name": "StatefulPartitionedCall/CNN_BiLSTM_MHA_Classifier_1/bilstm_1_1/forward_lstm_2_1/while/enter/_50", "op": "Enter", "input": ["StatefulPartitionedCall/CNN_BiLSTM_MHA_Classifier_1/bilstm_1_1/forward_lstm_2_1/Max"], "attr": {"is_constant": {"b": false}, "frame_name": {"s": "U3RhdGVmdWxQYXJ0aXRpb25lZENhbGwvQ05OX0JpTFNUTV9NSEFfQ2xhc3NpZmllcl8xL2JpbHN0bV8xXzEvZm9yd2FyZF9sc3RtXzJfMS93aGlsZQ=="}, "T": {"type": "DT_INT32"}, "parallel_iterations": {"i": "32"}}}, {"name": "StatefulPartitionedCall/CNN_BiLSTM_MHA_Classifier_1/bilstm_1_1/forward_lstm_2_1/while/enter/_49", "op": "Enter", "input": ["StatefulPartitionedCall/CNN_BiLSTM_MHA_Classifier_1/bilstm_1_1/forward_lstm_2_1/while/loop_counter"], "attr": {"is_constant": {"b": false}, "frame_name": {"s": "U3RhdGVmdWxQYXJ0aXRpb25lZENhbGwvQ05OX0JpTFNUTV9NSEFfQ2xhc3NpZmllcl8xL2JpbHN0bV8xXzEvZm9yd2FyZF9sc3RtXzJfMS93aGlsZQ=="}, "T": {"type": "DT_INT32"}, "parallel_iterations": {"i": "32"}}}, {"name": "StatefulPartitionedCall/CNN_BiLSTM_MHA_Classifier_1/bilstm_1_1/forward_lstm_2_1/while/enter/_53", "op": "Enter", "input": ["StatefulPartitionedCall/CNN_BiLSTM_MHA_Classifier_1/bilstm_1_1/forward_lstm_2_1/zeros"], "attr": {"is_constant": {"b": false}, "frame_name": {"s": "U3RhdGVmdWxQYXJ0aXRpb25lZENhbGwvQ05OX0JpTFNUTV9NSEFfQ2xhc3NpZmllcl8xL2JpbHN0bV8xXzEvZm9yd2FyZF9sc3RtXzJfMS93aGlsZQ=="}, "T": {"type": "DT_FLOAT"}, "parallel_iterations": {"i": "32"}}}, {"name": "StatefulPartitionedCall/CNN_BiLSTM_MHA_Classifier_1/bilstm_1_1/forward_lstm_2_1/while/enter/_54", "op": "Enter", "input": ["StatefulPartitionedCall/CNN_BiLSTM_MHA_Classifier_1/bilstm_1_1/forward_lstm_2_1/zeros_1"], "attr": {"is_constant": {"b": false}, "frame_name": {"s": "U3RhdGVmdWxQYXJ0aXRpb25lZENhbGwvQ05OX0JpTFNUTV9NSEFfQ2xhc3NpZmllcl8xL2JpbHN0bV8xXzEvZm9yd2FyZF9sc3RtXzJfMS93aGlsZQ=="}, "T": {"type": "DT_FLOAT"}, "parallel_iterations": {"i": "32"}}}, {"name": "StatefulPartitionedCall/CNN_BiLSTM_MHA_Classifier_1/bilstm_1_1/forward_lstm_2_1/while/enter/_51", "op": "Enter", "input": ["StatefulPartitionedCall/CNN_BiLSTM_MHA_Classifier_1/bilstm_1_1/forward_lstm_2_1/time"], "attr": {"is_constant": {"b": false}, "frame_name": {"s": "U3RhdGVmdWxQYXJ0aXRpb25lZENhbGwvQ05OX0JpTFNUTV9NSEFfQ2xhc3NpZmllcl8xL2JpbHN0bV8xXzEvZm9yd2FyZF9sc3RtXzJfMS93aGlsZQ=="}, "T": {"type": "DT_INT32"}, "parallel_iterations": {"i": "32"}}}, {"name": "StatefulPartitionedCall/CNN_BiLSTM_MHA_Classifier_1/bilstm_1_1/forward_lstm_2_1/while/enter/_56", "op": "Enter", "input": ["Func/StatefulPartitionedCall/input/_19"], "attr": {"is_constant": {"b": true}, "frame_name": {"s": "U3RhdGVmdWxQYXJ0aXRpb25lZENhbGwvQ05OX0JpTFNUTV9NSEFfQ2xhc3NpZmllcl8xL2JpbHN0bV8xXzEvZm9yd2FyZF9sc3RtXzJfMS93aGlsZQ=="}, "T": {"type": "DT_FLOAT"}, "_has_manual_control_dependencies": {"b": true}, "parallel_iterations": {"i": "32"}}}, {"name": "StatefulPartitionedCall/CNN_BiLSTM_MHA_Classifier_1/bilstm_1_1/forward_lstm_2_1/while/enter/_57", "op": "Enter", "input": ["Func/StatefulPartitionedCall/input/_20"], "attr": {"is_constant": {"b": true}, "frame_name": {"s": "U3RhdGVmdWxQYXJ0aXRpb25lZENhbGwvQ05OX0JpTFNUTV9NSEFfQ2xhc3NpZmllcl8xL2JpbHN0bV8xXzEvZm9yd2FyZF9sc3RtXzJfMS93aGlsZQ=="}, "T": {"type": "DT_FLOAT"}, "_has_manual_control_dependencies": {"b": true}, "parallel_iterations": {"i": "32"}}}, {"name": "StatefulPartitionedCall/CNN_BiLSTM_MHA_Classifier_1/bilstm_1_1/forward_lstm_2_1/while/enter/_58", "op": "Enter", "input": ["Func/StatefulPartitionedCall/input/_21"], "attr": {"is_constant": {"b": true}, "frame_name": {"s": "U3RhdGVmdWxQYXJ0aXRpb25lZENhbGwvQ05OX0JpTFNUTV9NSEFfQ2xhc3NpZmllcl8xL2JpbHN0bV8xXzEvZm9yd2FyZF9sc3RtXzJfMS93aGlsZQ=="}, "T": {"type": "DT_FLOAT"}, "_has_manual_control_dependencies": {"b": true}, "parallel_iterations": {"i": "32"}}}, {"name": "StatefulPartitionedCall/CNN_BiLSTM_MHA_Classifier_1/bilstm_1_1/backward_lstm_2_1/while/enter/_96", "op": "Enter", "input": ["StatefulPartitionedCall/CNN_BiLSTM_MHA_Classifier_1/bilstm_1_1/backward_lstm_2_1/TensorArrayV2_1"], "attr": {"is_constant": {"b": false}, "frame_name": {"s": "U3RhdGVmdWxQYXJ0aXRpb25lZENhbGwvQ05OX0JpTFNUTV9NSEFfQ2xhc3NpZmllcl8xL2JpbHN0bV8xXzEvYmFja3dhcmRfbHN0bV8yXzEvd2hpbGU="}, "T": {"type": "DT_VARIANT"}, "parallel_iterations": {"i": "32"}}}, {"name": "StatefulPartitionedCall/CNN_BiLSTM_MHA_Classifier_1/bilstm_1_1/backward_lstm_2_1/while/enter/_99", "op": "Enter", "input": ["StatefulPartitionedCall/CNN_BiLSTM_MHA_Classifier_1/bilstm_1_1/backward_lstm_2_1/TensorArrayUnstack/TensorListFromTensor"], "attr": {"is_constant": {"b": false}, "frame_name": {"s": "U3RhdGVmdWxQYXJ0aXRpb25lZENhbGwvQ05OX0JpTFNUTV9NSEFfQ2xhc3NpZmllcl8xL2JpbHN0bV8xXzEvYmFja3dhcmRfbHN0bV8yXzEvd2hpbGU="}, "T": {"type": "DT_VARIANT"}, "parallel_iterations": {"i": "32"}}}, {"name": "StatefulPartitionedCall/CNN_BiLSTM_MHA_Classifier_1/bilstm_1_1/backward_lstm_2_1/while/enter/_94", "op": "Enter", "input": ["StatefulPartitionedCall/CNN_BiLSTM_MHA_Classifier_1/bilstm_1_1/backward_lstm_2_1/Max"], "attr": {"is_constant": {"b": false}, "frame_name": {"s": "U3RhdGVmdWxQYXJ0aXRpb25lZENhbGwvQ05OX0JpTFNUTV9NSEFfQ2xhc3NpZmllcl8xL2JpbHN0bV8xXzEvYmFja3dhcmRfbHN0bV8yXzEvd2hpbGU="}, "T": {"type": "DT_INT32"}, "parallel_iterations": {"i": "32"}}}, {"name": "StatefulPartitionedCall/CNN_BiLSTM_MHA_Classifier_1/bilstm_1_1/backward_lstm_2_1/while/enter/_93", "op": "Enter", "input": ["StatefulPartitionedCall/CNN_BiLSTM_MHA_Classifier_1/bilstm_1_1/backward_lstm_2_1/while/loop_counter"], "attr": {"is_constant": {"b": false}, "frame_name": {"s": "U3RhdGVmdWxQYXJ0aXRpb25lZENhbGwvQ05OX0JpTFNUTV9NSEFfQ2xhc3NpZmllcl8xL2JpbHN0bV8xXzEvYmFja3dhcmRfbHN0bV8yXzEvd2hpbGU="}, "T": {"type": "DT_INT32"}, "parallel_iterations": {"i": "32"}}}, {"name": "StatefulPartitionedCall/CNN_BiLSTM_MHA_Classifier_1/bilstm_1_1/backward_lstm_2_1/while/enter/_97", "op": "Enter", "input": ["StatefulPartitionedCall/CNN_BiLSTM_MHA_Classifier_1/bilstm_1_1/backward_lstm_2_1/zeros"], "attr": {"is_constant": {"b": false}, "frame_name": {"s": "U3RhdGVmdWxQYXJ0aXRpb25lZENhbGwvQ05OX0JpTFNUTV9NSEFfQ2xhc3NpZmllcl8xL2JpbHN0bV8xXzEvYmFja3dhcmRfbHN0bV8yXzEvd2hpbGU="}, "T": {"type": "DT_FLOAT"}, "parallel_iterations": {"i": "32"}}}, {"name": "StatefulPartitionedCall/CNN_BiLSTM_MHA_Classifier_1/bilstm_1_1/backward_lstm_2_1/while/enter/_98", "op": "Enter", "input": ["StatefulPartitionedCall/CNN_BiLSTM_MHA_Classifier_1/bilstm_1_1/backward_lstm_2_1/zeros_1"], "attr": {"is_constant": {"b": false}, "frame_name": {"s": "U3RhdGVmdWxQYXJ0aXRpb25lZENhbGwvQ05OX0JpTFNUTV9NSEFfQ2xhc3NpZmllcl8xL2JpbHN0bV8xXzEvYmFja3dhcmRfbHN0bV8yXzEvd2hpbGU="}, "T": {"type": "DT_FLOAT"}, "parallel_iterations": {"i": "32"}}}, {"name": "StatefulPartitionedCall/CNN_BiLSTM_MHA_Classifier_1/bilstm_1_1/backward_lstm_2_1/while/enter/_95", "op": "Enter", "input": ["StatefulPartitionedCall/CNN_BiLSTM_MHA_Classifier_1/bilstm_1_1/backward_lstm_2_1/time"], "attr": {"is_constant": {"b": false}, "frame_name": {"s": "U3RhdGVmdWxQYXJ0aXRpb25lZENhbGwvQ05OX0JpTFNUTV9NSEFfQ2xhc3NpZmllcl8xL2JpbHN0bV8xXzEvYmFja3dhcmRfbHN0bV8yXzEvd2hpbGU="}, "T": {"type": "DT_INT32"}, "parallel_iterations": {"i": "32"}}}, {"name": "StatefulPartitionedCall/CNN_BiLSTM_MHA_Classifier_1/bilstm_1_1/backward_lstm_2_1/while/enter/_100", "op": "Enter", "input": ["Func/StatefulPartitionedCall/input/_22"], "attr": {"is_constant": {"b": true}, "_has_manual_control_dependencies": {"b": true}, "T": {"type": "DT_FLOAT"}, "frame_name": {"s": "U3RhdGVmdWxQYXJ0aXRpb25lZENhbGwvQ05OX0JpTFNUTV9NSEFfQ2xhc3NpZmllcl8xL2JpbHN0bV8xXzEvYmFja3dhcmRfbHN0bV8yXzEvd2hpbGU="}, "parallel_iterations": {"i": "32"}}}, {"name": "StatefulPartitionedCall/CNN_BiLSTM_MHA_Classifier_1/bilstm_1_1/backward_lstm_2_1/while/enter/_101", "op": "Enter", "input": ["Func/StatefulPartitionedCall/input/_23"], "attr": {"is_constant": {"b": true}, "frame_name": {"s": "U3RhdGVmdWxQYXJ0aXRpb25lZENhbGwvQ05OX0JpTFNUTV9NSEFfQ2xhc3NpZmllcl8xL2JpbHN0bV8xXzEvYmFja3dhcmRfbHN0bV8yXzEvd2hpbGU="}, "T": {"type": "DT_FLOAT"}, "_has_manual_control_dependencies": {"b": true}, "parallel_iterations": {"i": "32"}}}, {"name": "StatefulPartitionedCall/CNN_BiLSTM_MHA_Classifier_1/bilstm_1_1/backward_lstm_2_1/while/enter/_102", "op": "Enter", "input": ["Func/StatefulPartitionedCall/input/_24"], "attr": {"is_constant": {"b": true}, "_has_manual_control_dependencies": {"b": true}, "T": {"type": "DT_FLOAT"}, "frame_name": {"s": "U3RhdGVmdWxQYXJ0aXRpb25lZENhbGwvQ05OX0JpTFNUTV9NSEFfQ2xhc3NpZmllcl8xL2JpbHN0bV8xXzEvYmFja3dhcmRfbHN0bV8yXzEvd2hpbGU="}, "parallel_iterations": {"i": "32"}}}, {"name": "StatefulPartitionedCall/CNN_BiLSTM_MHA_Classifier_1/bilstm_1_1/forward_lstm_2_1/while/merge/_63", "op": "Merge", "input": ["StatefulPartitionedCall/CNN_BiLSTM_MHA_Classifier_1/bilstm_1_1/forward_lstm_2_1/while/enter/_52", "StatefulPartitionedCall/CNN_BiLSTM_MHA_Classifier_1/bilstm_1_1/forward_lstm_2_1/while/next_iteration/_87"], "attr": {"N": {"i": "2"}, "_has_manual_control_dependencies": {"b": true}, "T": {"type": "DT_VARIANT"}}}, {"name": "StatefulPartitionedCall/CNN_BiLSTM_MHA_Classifier_1/bilstm_1_1/forward_lstm_2_1/while/merge/_66", "op": "Merge", "input": ["StatefulPartitionedCall/CNN_BiLSTM_MHA_Classifier_1/bilstm_1_1/forward_lstm_2_1/while/enter/_55", "StatefulPartitionedCall/CNN_BiLSTM_MHA_Classifier_1/bilstm_1_1/forward_lstm_2_1/while/next_iteration/_90"], "attr": {"N": {"i": "2"}, "_has_manual_control_dependencies": {"b": true}, "T": {"type": "DT_VARIANT"}}}, {"name": "StatefulPartitionedCall/CNN_BiLSTM_MHA_Classifier_1/bilstm_1_1/forward_lstm_2_1/while/merge/_61", "op": "Merge", "input": ["StatefulPartitionedCall/CNN_BiLSTM_MHA_Classifier_1/bilstm_1_1/forward_lstm_2_1/while/enter/_50", "StatefulPartitionedCall/CNN_BiLSTM_MHA_Classifier_1/bilstm_1_1/forward_lstm_2_1/while/next_iteration/_85"], "attr": {"N": {"i": "2"}, "_has_manual_control_dependencies": {"b": true}, "T": {"type": "DT_INT32"}}}, {"name": "StatefulPartitionedCall/CNN_BiLSTM_MHA_Classifier_1/bilstm_1_1/forward_lstm_2_1/while/merge/_60", "op": "Merge", "input": ["StatefulPartitionedCall/CNN_BiLSTM_MHA_Classifier_1/bilstm_1_1/forward_lstm_2_1/while/enter/_49", "StatefulPartitionedCall/CNN_BiLSTM_MHA_Classifier_1/bilstm_1_1/forward_lstm_2_1/while/next_iteration/_84"], "attr": {"N": {"i": "2"}, "_has_manual_control_dependencies": {"b": true}, "T": {"type": "DT_INT32"}}}, {"name": "StatefulPartitionedCall/CNN_BiLSTM_MHA_Classifier_1/bilstm_1_1/forward_lstm_2_1/while/merge/_64", "op": "Merge", "input": ["StatefulPartitionedCall/CNN_BiLSTM_MHA_Classifier_1/bilstm_1_1/forward_lstm_2_1/while/enter/_53", "StatefulPartitionedCall/CNN_BiLSTM_MHA_Classifier_1/bilstm_1_1/forward_lstm_2_1/while/next_iteration/_88"], "attr": {"N": {"i": "2"}, "_has_manual_control_dependencies": {"b": true}, "T": {"type": "DT_FLOAT"}}}, {"name": "StatefulPartitionedCall/CNN_BiLSTM_MHA_Classifier_1/bilstm_1_1/forward_lstm_2_1/while/merge/_65", "op": "Merge", "input": ["StatefulPartitionedCall/CNN_BiLSTM_MHA_Classifier_1/bilstm_1_1/forward_lstm_2_1/while/enter/_54", "StatefulPartitionedCall/CNN_BiLSTM_MHA_Classifier_1/bilstm_1_1/forward_lstm_2_1/while/next_iteration/_89"], "attr": {"N": {"i": "2"}, "_has_manual_control_dependencies": {"b": true}, "T": {"type": "DT_FLOAT"}}}, {"name": "StatefulPartitionedCall/CNN_BiLSTM_MHA_Classifier_1/bilstm_1_1/forward_lstm_2_1/while/merge/_62", "op": "Merge", "input": ["StatefulPartitionedCall/CNN_BiLSTM_MHA_Classifier_1/bilstm_1_1/forward_lstm_2_1/while/enter/_51", "StatefulPartitionedCall/CNN_BiLSTM_MHA_Classifier_1/bilstm_1_1/forward_lstm_2_1/while/next_iteration/_86"], "attr": {"N": {"i": "2"}, "_has_manual_control_dependencies": {"b": true}, "T": {"type": "DT_INT32"}}}, {"name": "StatefulPartitionedCall/CNN_BiLSTM_MHA_Classifier_1/bilstm_1_1/backward_lstm_2_1/while/merge/_107", "op": "Merge", "input": ["StatefulPartitionedCall/CNN_BiLSTM_MHA_Classifier_1/bilstm_1_1/backward_lstm_2_1/while/enter/_96", "StatefulPartitionedCall/CNN_BiLSTM_MHA_Classifier_1/bilstm_1_1/backward_lstm_2_1/while/next_iteration/_131"], "attr": {"N": {"i": "2"}, "_has_manual_control_dependencies": {"b": true}, "T": {"type": "DT_VARIANT"}}}, {"name": "StatefulPartitionedCall/CNN_BiLSTM_MHA_Classifier_1/bilstm_1_1/backward_lstm_2_1/while/merge/_110", "op": "Merge", "input": ["StatefulPartitionedCall/CNN_BiLSTM_MHA_Classifier_1/bilstm_1_1/backward_lstm_2_1/while/enter/_99", "StatefulPartitionedCall/CNN_BiLSTM_MHA_Classifier_1/bilstm_1_1/backward_lstm_2_1/while/next_iteration/_134"], "attr": {"N": {"i": "2"}, "_has_manual_control_dependencies": {"b": true}, "T": {"type": "DT_VARIANT"}}}, {"name": "StatefulPartitionedCall/CNN_BiLSTM_MHA_Classifier_1/bilstm_1_1/backward_lstm_2_1/while/merge/_105", "op": "Merge", "input": ["StatefulPartitionedCall/CNN_BiLSTM_MHA_Classifier_1/bilstm_1_1/backward_lstm_2_1/while/enter/_94", "StatefulPartitionedCall/CNN_BiLSTM_MHA_Classifier_1/bilstm_1_1/backward_lstm_2_1/while/next_iteration/_129"], "attr": {"N": {"i": "2"}, "_has_manual_control_dependencies": {"b": true}, "T": {"type": "DT_INT32"}}}, {"name": "StatefulPartitionedCall/CNN_BiLSTM_MHA_Classifier_1/bilstm_1_1/backward_lstm_2_1/while/merge/_104", "op": "Merge", "input": ["StatefulPartitionedCall/CNN_BiLSTM_MHA_Classifier_1/bilstm_1_1/backward_lstm_2_1/while/enter/_93", "StatefulPartitionedCall/CNN_BiLSTM_MHA_Classifier_1/bilstm_1_1/backward_lstm_2_1/while/next_iteration/_128"], "attr": {"N": {"i": "2"}, "T": {"type": "DT_INT32"}}}, {"name": "StatefulPartitionedCall/CNN_BiLSTM_MHA_Classifier_1/bilstm_1_1/backward_lstm_2_1/while/merge/_108", "op": "Merge", "input": ["StatefulPartitionedCall/CNN_BiLSTM_MHA_Classifier_1/bilstm_1_1/backward_lstm_2_1/while/enter/_97", "StatefulPartitionedCall/CNN_BiLSTM_MHA_Classifier_1/bilstm_1_1/backward_lstm_2_1/while/next_iteration/_132"], "attr": {"N": {"i": "2"}, "_has_manual_control_dependencies": {"b": true}, "T": {"type": "DT_FLOAT"}}}, {"name": "StatefulPartitionedCall/CNN_BiLSTM_MHA_Classifier_1/bilstm_1_1/backward_lstm_2_1/while/merge/_109", "op": "Merge", "input": ["StatefulPartitionedCall/CNN_BiLSTM_MHA_Classifier_1/bilstm_1_1/backward_lstm_2_1/while/enter/_98", "StatefulPartitionedCall/CNN_BiLSTM_MHA_Classifier_1/bilstm_1_1/backward_lstm_2_1/while/next_iteration/_133"], "attr": {"N": {"i": "2"}, "_has_manual_control_dependencies": {"b": true}, "T": {"type": "DT_FLOAT"}}}, {"name": "StatefulPartitionedCall/CNN_BiLSTM_MHA_Classifier_1/bilstm_1_1/backward_lstm_2_1/while/merge/_106", "op": "Merge", "input": ["StatefulPartitionedCall/CNN_BiLSTM_MHA_Classifier_1/bilstm_1_1/backward_lstm_2_1/while/enter/_95", "StatefulPartitionedCall/CNN_BiLSTM_MHA_Classifier_1/bilstm_1_1/backward_lstm_2_1/while/next_iteration/_130"], "attr": {"N": {"i": "2"}, "_has_manual_control_dependencies": {"b": true}, "T": {"type": "DT_INT32"}}}, {"name": "Func/StatefulPartitionedCall/CNN_BiLSTM_MHA_Classifier_1/bilstm_1_1/forward_lstm_2_1/while/cond/_47/input_control_node/_223", "op": "NoOp", "input": [], "attr": {"_has_manual_control_dependencies": {"b": true}}}, {"name": "Func/StatefulPartitionedCall/CNN_BiLSTM_MHA_Classifier_1/bilstm_1_1/backward_lstm_2_1/while/cond/_91/input_control_node/_257", "op": "NoOp", "input": [], "attr": {"_has_manual_control_dependencies": {"b": true}}}, {"name": "StatefulPartitionedCall/CNN_BiLSTM_MHA_Classifier_1/bilstm_1_1/forward_lstm_2_1/while/cond/_47/CNN_BiLSTM_MHA_Classifier_1/bilstm_1_1/forward_lstm_2_1/while/Less_1", "op": "Less", "input": ["StatefulPartitionedCall/CNN_BiLSTM_MHA_Classifier_1/bilstm_1_1/forward_lstm_2_1/while/merge/_60", "StatefulPartitionedCall/CNN_BiLSTM_MHA_Classifier_1/bilstm_1_1/forward_lstm_2_1/while/merge/_61"], "attr": {"T": {"type": "DT_INT32"}}}, {"name": "StatefulPartitionedCall/CNN_BiLSTM_MHA_Classifier_1/bilstm_1_1/forward_lstm_2_1/while/cond/_47/CNN_BiLSTM_MHA_Classifier_1/bilstm_1_1/forward_lstm_2_1/while/Less/y", "op": "Const", "input": [], "attr": {"value": {"tensor": {"dtype": "DT_INT32", "tensorShape": {}}}, "dtype": {"type": "DT_INT32"}}}, {"name": "StatefulPartitionedCall/CNN_BiLSTM_MHA_Classifier_1/bilstm_1_1/backward_lstm_2_1/while/cond/_91/CNN_BiLSTM_MHA_Classifier_1/bilstm_1_1/backward_lstm_2_1/while/Less_1", "op": "Less", "input": ["StatefulPartitionedCall/CNN_BiLSTM_MHA_Classifier_1/bilstm_1_1/backward_lstm_2_1/while/merge/_104", "StatefulPartitionedCall/CNN_BiLSTM_MHA_Classifier_1/bilstm_1_1/backward_lstm_2_1/while/merge/_105"], "attr": {"T": {"type": "DT_INT32"}}}, {"name": "StatefulPartitionedCall/CNN_BiLSTM_MHA_Classifier_1/bilstm_1_1/backward_lstm_2_1/while/cond/_91/CNN_BiLSTM_MHA_Classifier_1/bilstm_1_1/backward_lstm_2_1/while/Less/y", "op": "Const", "input": [], "attr": {"value": {"tensor": {"dtype": "DT_INT32", "tensorShape": {}}}, "dtype": {"type": "DT_INT32"}}}, {"name": "StatefulPartitionedCall/CNN_BiLSTM_MHA_Classifier_1/bilstm_1_1/forward_lstm_2_1/while/cond/_47/CNN_BiLSTM_MHA_Classifier_1/bilstm_1_1/forward_lstm_2_1/while/Less", "op": "Less", "input": ["StatefulPartitionedCall/CNN_BiLSTM_MHA_Classifier_1/bilstm_1_1/forward_lstm_2_1/while/merge/_62", "StatefulPartitionedCall/CNN_BiLSTM_MHA_Classifier_1/bilstm_1_1/forward_lstm_2_1/while/cond/_47/CNN_BiLSTM_MHA_Classifier_1/bilstm_1_1/forward_lstm_2_1/while/Less/y"], "attr": {"T": {"type": "DT_INT32"}}}, {"name": "StatefulPartitionedCall/CNN_BiLSTM_MHA_Classifier_1/bilstm_1_1/backward_lstm_2_1/while/cond/_91/CNN_BiLSTM_MHA_Classifier_1/bilstm_1_1/backward_lstm_2_1/while/Less", "op": "Less", "input": ["StatefulPartitionedCall/CNN_BiLSTM_MHA_Classifier_1/bilstm_1_1/backward_lstm_2_1/while/merge/_106", "StatefulPartitionedCall/CNN_BiLSTM_MHA_Classifier_1/bilstm_1_1/backward_lstm_2_1/while/cond/_91/CNN_BiLSTM_MHA_Classifier_1/bilstm_1_1/backward_lstm_2_1/while/Less/y"], "attr": {"T": {"type": "DT_INT32"}}}, {"name": "StatefulPartitionedCall/CNN_BiLSTM_MHA_Classifier_1/bilstm_1_1/forward_lstm_2_1/while/cond/_47/CNN_BiLSTM_MHA_Classifier_1/bilstm_1_1/forward_lstm_2_1/while/LogicalAnd", "op": "LogicalAnd", "input": ["StatefulPartitionedCall/CNN_BiLSTM_MHA_Classifier_1/bilstm_1_1/forward_lstm_2_1/while/cond/_47/CNN_BiLSTM_MHA_Classifier_1/bilstm_1_1/forward_lstm_2_1/while/Less_1", "StatefulPartitionedCall/CNN_BiLSTM_MHA_Classifier_1/bilstm_1_1/forward_lstm_2_1/while/cond/_47/CNN_BiLSTM_MHA_Classifier_1/bilstm_1_1/forward_lstm_2_1/while/Less"]}, {"name": "StatefulPartitionedCall/CNN_BiLSTM_MHA_Classifier_1/bilstm_1_1/backward_lstm_2_1/while/cond/_91/CNN_BiLSTM_MHA_Classifier_1/bilstm_1_1/backward_lstm_2_1/while/LogicalAnd", "op": "LogicalAnd", "input": ["StatefulPartitionedCall/CNN_BiLSTM_MHA_Classifier_1/bilstm_1_1/backward_lstm_2_1/while/cond/_91/CNN_BiLSTM_MHA_Classifier_1/bilstm_1_1/backward_lstm_2_1/while/Less_1", "StatefulPartitionedCall/CNN_BiLSTM_MHA_Classifier_1/bilstm_1_1/backward_lstm_2_1/while/cond/_91/CNN_BiLSTM_MHA_Classifier_1/bilstm_1_1/backward_lstm_2_1/while/Less"]}, {"name": "StatefulPartitionedCall/CNN_BiLSTM_MHA_Classifier_1/bilstm_1_1/forward_lstm_2_1/while/LoopCond/_67", "op": "LoopCond", "input": ["StatefulPartitionedCall/CNN_BiLSTM_MHA_Classifier_1/bilstm_1_1/forward_lstm_2_1/while/cond/_47/CNN_BiLSTM_MHA_Classifier_1/bilstm_1_1/forward_lstm_2_1/while/LogicalAnd"]}, {"name": "StatefulPartitionedCall/CNN_BiLSTM_MHA_Classifier_1/bilstm_1_1/backward_lstm_2_1/while/LoopCond/_111", "op": "LoopCond", "input": ["StatefulPartitionedCall/CNN_BiLSTM_MHA_Classifier_1/bilstm_1_1/backward_lstm_2_1/while/cond/_91/CNN_BiLSTM_MHA_Classifier_1/bilstm_1_1/backward_lstm_2_1/while/LogicalAnd"]}, {"name": "StatefulPartitionedCall/CNN_BiLSTM_MHA_Classifier_1/bilstm_1_1/forward_lstm_2_1/while/StatefulPartitionedCall/CNN_BiLSTM_MHA_Classifier_1/bilstm_1_1/forward_lstm_2_1/Max_switch/_69", "op": "Switch", "input": ["StatefulPartitionedCall/CNN_BiLSTM_MHA_Classifier_1/bilstm_1_1/forward_lstm_2_1/while/merge/_61", "StatefulPartitionedCall/CNN_BiLSTM_MHA_Classifier_1/bilstm_1_1/forward_lstm_2_1/while/LoopCond/_67"], "attr": {"T": {"type": "DT_INT32"}}}, {"name": "StatefulPartitionedCall/CNN_BiLSTM_MHA_Classifier_1/bilstm_1_1/forward_lstm_2_1/while/StatefulPartitionedCall/CNN_BiLSTM_MHA_Classifier_1/bilstm_1_1/forward_lstm_2_1/while/loop_counter_switch/_68", "op": "Switch", "input": ["StatefulPartitionedCall/CNN_BiLSTM_MHA_Classifier_1/bilstm_1_1/forward_lstm_2_1/while/merge/_60", "StatefulPartitionedCall/CNN_BiLSTM_MHA_Classifier_1/bilstm_1_1/forward_lstm_2_1/while/LoopCond/_67"], "attr": {"T": {"type": "DT_INT32"}}}, {"name": "StatefulPartitionedCall/CNN_BiLSTM_MHA_Classifier_1/bilstm_1_1/forward_lstm_2_1/while/StatefulPartitionedCall/CNN_BiLSTM_MHA_Classifier_1/bilstm_1_1/forward_lstm_2_1/zeros_1_switch/_73", "op": "Switch", "input": ["StatefulPartitionedCall/CNN_BiLSTM_MHA_Classifier_1/bilstm_1_1/forward_lstm_2_1/while/merge/_65", "StatefulPartitionedCall/CNN_BiLSTM_MHA_Classifier_1/bilstm_1_1/forward_lstm_2_1/while/LoopCond/_67"], "attr": {"_has_manual_control_dependencies": {"b": true}, "T": {"type": "DT_FLOAT"}}}, {"name": "StatefulPartitionedCall/CNN_BiLSTM_MHA_Classifier_1/bilstm_1_1/forward_lstm_2_1/while/StatefulPartitionedCall/CNN_BiLSTM_MHA_Classifier_1/bilstm_1_1/forward_lstm_2_1/TensorArrayUnstack/TensorListFromTensor_switch/_74", "op": "Switch", "input": ["StatefulPartitionedCall/CNN_BiLSTM_MHA_Classifier_1/bilstm_1_1/forward_lstm_2_1/while/merge/_66", "StatefulPartitionedCall/CNN_BiLSTM_MHA_Classifier_1/bilstm_1_1/forward_lstm_2_1/while/LoopCond/_67"], "attr": {"_has_manual_control_dependencies": {"b": true}, "T": {"type": "DT_VARIANT"}}}, {"name": "StatefulPartitionedCall/CNN_BiLSTM_MHA_Classifier_1/bilstm_1_1/forward_lstm_2_1/while/StatefulPartitionedCall/CNN_BiLSTM_MHA_Classifier_1/bilstm_1_1/forward_lstm_2_1/time_switch/_70", "op": "Switch", "input": ["StatefulPartitionedCall/CNN_BiLSTM_MHA_Classifier_1/bilstm_1_1/forward_lstm_2_1/while/merge/_62", "StatefulPartitionedCall/CNN_BiLSTM_MHA_Classifier_1/bilstm_1_1/forward_lstm_2_1/while/LoopCond/_67"], "attr": {"T": {"type": "DT_INT32"}}}, {"name": "StatefulPartitionedCall/CNN_BiLSTM_MHA_Classifier_1/bilstm_1_1/forward_lstm_2_1/while/StatefulPartitionedCall/CNN_BiLSTM_MHA_Classifier_1/bilstm_1_1/forward_lstm_2_1/zeros_switch/_72", "op": "Switch", "input": ["StatefulPartitionedCall/CNN_BiLSTM_MHA_Classifier_1/bilstm_1_1/forward_lstm_2_1/while/merge/_64", "StatefulPartitionedCall/CNN_BiLSTM_MHA_Classifier_1/bilstm_1_1/forward_lstm_2_1/while/LoopCond/_67"], "attr": {"_has_manual_control_dependencies": {"b": true}, "T": {"type": "DT_FLOAT"}}}, {"name": "StatefulPartitionedCall/CNN_BiLSTM_MHA_Classifier_1/bilstm_1_1/forward_lstm_2_1/while/StatefulPartitionedCall/CNN_BiLSTM_MHA_Classifier_1/bilstm_1_1/forward_lstm_2_1/TensorArrayV2_1_switch/_71", "op": "Switch", "input": ["StatefulPartitionedCall/CNN_BiLSTM_MHA_Classifier_1/bilstm_1_1/forward_lstm_2_1/while/merge/_63", "StatefulPartitionedCall/CNN_BiLSTM_MHA_Classifier_1/bilstm_1_1/forward_lstm_2_1/while/LoopCond/_67"], "attr": {"T": {"type": "DT_VARIANT"}}}, {"name": "StatefulPartitionedCall/CNN_BiLSTM_MHA_Classifier_1/bilstm_1_1/backward_lstm_2_1/while/StatefulPartitionedCall/CNN_BiLSTM_MHA_Classifier_1/bilstm_1_1/backward_lstm_2_1/Max_switch/_113", "op": "Switch", "input": ["StatefulPartitionedCall/CNN_BiLSTM_MHA_Classifier_1/bilstm_1_1/backward_lstm_2_1/while/merge/_105", "StatefulPartitionedCall/CNN_BiLSTM_MHA_Classifier_1/bilstm_1_1/backward_lstm_2_1/while/LoopCond/_111"], "attr": {"_has_manual_control_dependencies": {"b": true}, "T": {"type": "DT_INT32"}}}, {"name": "StatefulPartitionedCall/CNN_BiLSTM_MHA_Classifier_1/bilstm_1_1/backward_lstm_2_1/while/StatefulPartitionedCall/CNN_BiLSTM_MHA_Classifier_1/bilstm_1_1/backward_lstm_2_1/while/loop_counter_switch/_112", "op": "Switch", "input": ["StatefulPartitionedCall/CNN_BiLSTM_MHA_Classifier_1/bilstm_1_1/backward_lstm_2_1/while/merge/_104", "StatefulPartitionedCall/CNN_BiLSTM_MHA_Classifier_1/bilstm_1_1/backward_lstm_2_1/while/LoopCond/_111"], "attr": {"T": {"type": "DT_INT32"}}}, {"name": "StatefulPartitionedCall/CNN_BiLSTM_MHA_Classifier_1/bilstm_1_1/backward_lstm_2_1/while/StatefulPartitionedCall/CNN_BiLSTM_MHA_Classifier_1/bilstm_1_1/backward_lstm_2_1/zeros_1_switch/_117", "op": "Switch", "input": ["StatefulPartitionedCall/CNN_BiLSTM_MHA_Classifier_1/bilstm_1_1/backward_lstm_2_1/while/merge/_109", "StatefulPartitionedCall/CNN_BiLSTM_MHA_Classifier_1/bilstm_1_1/backward_lstm_2_1/while/LoopCond/_111"], "attr": {"_has_manual_control_dependencies": {"b": true}, "T": {"type": "DT_FLOAT"}}}, {"name": "StatefulPartitionedCall/CNN_BiLSTM_MHA_Classifier_1/bilstm_1_1/backward_lstm_2_1/while/StatefulPartitionedCall/CNN_BiLSTM_MHA_Classifier_1/bilstm_1_1/backward_lstm_2_1/TensorArrayUnstack/TensorListFromTensor_switch/_118", "op": "Switch", "input": ["StatefulPartitionedCall/CNN_BiLSTM_MHA_Classifier_1/bilstm_1_1/backward_lstm_2_1/while/merge/_110", "StatefulPartitionedCall/CNN_BiLSTM_MHA_Classifier_1/bilstm_1_1/backward_lstm_2_1/while/LoopCond/_111"], "attr": {"_has_manual_control_dependencies": {"b": true}, "T": {"type": "DT_VARIANT"}}}, {"name": "StatefulPartitionedCall/CNN_BiLSTM_MHA_Classifier_1/bilstm_1_1/backward_lstm_2_1/while/StatefulPartitionedCall/CNN_BiLSTM_MHA_Classifier_1/bilstm_1_1/backward_lstm_2_1/time_switch/_114", "op": "Switch", "input": ["StatefulPartitionedCall/CNN_BiLSTM_MHA_Classifier_1/bilstm_1_1/backward_lstm_2_1/while/merge/_106", "StatefulPartitionedCall/CNN_BiLSTM_MHA_Classifier_1/bilstm_1_1/backward_lstm_2_1/while/LoopCond/_111"], "attr": {"_has_manual_control_dependencies": {"b": true}, "T": {"type": "DT_INT32"}}}, {"name": "StatefulPartitionedCall/CNN_BiLSTM_MHA_Classifier_1/bilstm_1_1/backward_lstm_2_1/while/StatefulPartitionedCall/CNN_BiLSTM_MHA_Classifier_1/bilstm_1_1/backward_lstm_2_1/zeros_switch/_116", "op": "Switch", "input": ["StatefulPartitionedCall/CNN_BiLSTM_MHA_Classifier_1/bilstm_1_1/backward_lstm_2_1/while/merge/_108", "StatefulPartitionedCall/CNN_BiLSTM_MHA_Classifier_1/bilstm_1_1/backward_lstm_2_1/while/LoopCond/_111"], "attr": {"_has_manual_control_dependencies": {"b": true}, "T": {"type": "DT_FLOAT"}}}, {"name": "StatefulPartitionedCall/CNN_BiLSTM_MHA_Classifier_1/bilstm_1_1/backward_lstm_2_1/while/StatefulPartitionedCall/CNN_BiLSTM_MHA_Classifier_1/bilstm_1_1/backward_lstm_2_1/TensorArrayV2_1_switch/_115", "op": "Switch", "input": ["StatefulPartitionedCall/CNN_BiLSTM_MHA_Classifier_1/bilstm_1_1/backward_lstm_2_1/while/merge/_107", "StatefulPartitionedCall/CNN_BiLSTM_MHA_Classifier_1/bilstm_1_1/backward_lstm_2_1/while/LoopCond/_111"], "attr": {"_has_manual_control_dependencies": {"b": true}, "T": {"type": "DT_VARIANT"}}}, {"name": "StatefulPartitionedCall/CNN_BiLSTM_MHA_Classifier_1/bilstm_1_1/forward_lstm_2_1/while/exit/_77", "op": "Exit", "input": ["StatefulPartitionedCall/CNN_BiLSTM_MHA_Classifier_1/bilstm_1_1/forward_lstm_2_1/while/StatefulPartitionedCall/CNN_BiLSTM_MHA_Classifier_1/bilstm_1_1/forward_lstm_2_1/Max_switch/_69"], "attr": {"_has_manual_control_dependencies": {"b": true}, "T": {"type": "DT_INT32"}}}, {"name": "StatefulPartitionedCall/CNN_BiLSTM_MHA_Classifier_1/bilstm_1_1/forward_lstm_2_1/while/exit/_76", "op": "Exit", "input": ["StatefulPartitionedCall/CNN_BiLSTM_MHA_Classifier_1/bilstm_1_1/forward_lstm_2_1/while/StatefulPartitionedCall/CNN_BiLSTM_MHA_Classifier_1/bilstm_1_1/forward_lstm_2_1/while/loop_counter_switch/_68"], "attr": {"_has_manual_control_dependencies": {"b": true}, "T": {"type": "DT_INT32"}}}, {"name": "StatefulPartitionedCall/CNN_BiLSTM_MHA_Classifier_1/bilstm_1_1/forward_lstm_2_1/while/loop_body_control/_75", "op": "Identity", "input": ["StatefulPartitionedCall/CNN_BiLSTM_MHA_Classifier_1/bilstm_1_1/forward_lstm_2_1/while/StatefulPartitionedCall/CNN_BiLSTM_MHA_Classifier_1/bilstm_1_1/forward_lstm_2_1/while/loop_counter_switch/_68:1"], "attr": {"_has_manual_control_dependencies": {"b": true}, "T": {"type": "DT_INT32"}}}, {"name": "StatefulPartitionedCall/CNN_BiLSTM_MHA_Classifier_1/bilstm_1_1/forward_lstm_2_1/while/exit/_81", "op": "Exit", "input": ["StatefulPartitionedCall/CNN_BiLSTM_MHA_Classifier_1/bilstm_1_1/forward_lstm_2_1/while/StatefulPartitionedCall/CNN_BiLSTM_MHA_Classifier_1/bilstm_1_1/forward_lstm_2_1/zeros_1_switch/_73"], "attr": {"_has_manual_control_dependencies": {"b": true}, "T": {"type": "DT_FLOAT"}}}, {"name": "StatefulPartitionedCall/CNN_BiLSTM_MHA_Classifier_1/bilstm_1_1/forward_lstm_2_1/while/exit/_82", "op": "Exit", "input": ["StatefulPartitionedCall/CNN_BiLSTM_MHA_Classifier_1/bilstm_1_1/forward_lstm_2_1/while/StatefulPartitionedCall/CNN_BiLSTM_MHA_Classifier_1/bilstm_1_1/forward_lstm_2_1/TensorArrayUnstack/TensorListFromTensor_switch/_74"], "attr": {"_has_manual_control_dependencies": {"b": true}, "T": {"type": "DT_VARIANT"}}}, {"name": "StatefulPartitionedCall/CNN_BiLSTM_MHA_Classifier_1/bilstm_1_1/forward_lstm_2_1/while/exit/_78", "op": "Exit", "input": ["StatefulPartitionedCall/CNN_BiLSTM_MHA_Classifier_1/bilstm_1_1/forward_lstm_2_1/while/StatefulPartitionedCall/CNN_BiLSTM_MHA_Classifier_1/bilstm_1_1/forward_lstm_2_1/time_switch/_70"], "attr": {"_has_manual_control_dependencies": {"b": true}, "T": {"type": "DT_INT32"}}}, {"name": "StatefulPartitionedCall/CNN_BiLSTM_MHA_Classifier_1/bilstm_1_1/forward_lstm_2_1/while/exit/_80", "op": "Exit", "input": ["StatefulPartitionedCall/CNN_BiLSTM_MHA_Classifier_1/bilstm_1_1/forward_lstm_2_1/while/StatefulPartitionedCall/CNN_BiLSTM_MHA_Classifier_1/bilstm_1_1/forward_lstm_2_1/zeros_switch/_72"], "attr": {"_has_manual_control_dependencies": {"b": true}, "T": {"type": "DT_FLOAT"}}}, {"name": "StatefulPartitionedCall/CNN_BiLSTM_MHA_Classifier_1/bilstm_1_1/forward_lstm_2_1/while/exit/_79", "op": "Exit", "input": ["StatefulPartitionedCall/CNN_BiLSTM_MHA_Classifier_1/bilstm_1_1/forward_lstm_2_1/while/StatefulPartitionedCall/CNN_BiLSTM_MHA_Classifier_1/bilstm_1_1/forward_lstm_2_1/TensorArrayV2_1_switch/_71"], "attr": {"_has_manual_control_dependencies": {"b": true}, "T": {"type": "DT_VARIANT"}}}, {"name": "StatefulPartitionedCall/CNN_BiLSTM_MHA_Classifier_1/bilstm_1_1/backward_lstm_2_1/while/exit/_121", "op": "Exit", "input": ["StatefulPartitionedCall/CNN_BiLSTM_MHA_Classifier_1/bilstm_1_1/backward_lstm_2_1/while/StatefulPartitionedCall/CNN_BiLSTM_MHA_Classifier_1/bilstm_1_1/backward_lstm_2_1/Max_switch/_113"], "attr": {"_has_manual_control_dependencies": {"b": true}, "T": {"type": "DT_INT32"}}}, {"name": "StatefulPartitionedCall/CNN_BiLSTM_MHA_Classifier_1/bilstm_1_1/backward_lstm_2_1/while/exit/_120", "op": "Exit", "input": ["StatefulPartitionedCall/CNN_BiLSTM_MHA_Classifier_1/bilstm_1_1/backward_lstm_2_1/while/StatefulPartitionedCall/CNN_BiLSTM_MHA_Classifier_1/bilstm_1_1/backward_lstm_2_1/while/loop_counter_switch/_112"], "attr": {"_has_manual_control_dependencies": {"b": true}, "T": {"type": "DT_INT32"}}}, {"name": "StatefulPartitionedCall/CNN_BiLSTM_MHA_Classifier_1/bilstm_1_1/backward_lstm_2_1/while/loop_body_control/_119", "op": "Identity", "input": ["StatefulPartitionedCall/CNN_BiLSTM_MHA_Classifier_1/bilstm_1_1/backward_lstm_2_1/while/StatefulPartitionedCall/CNN_BiLSTM_MHA_Classifier_1/bilstm_1_1/backward_lstm_2_1/while/loop_counter_switch/_112:1"], "attr": {"_has_manual_control_dependencies": {"b": true}, "T": {"type": "DT_INT32"}}}, {"name": "StatefulPartitionedCall/CNN_BiLSTM_MHA_Classifier_1/bilstm_1_1/backward_lstm_2_1/while/exit/_125", "op": "Exit", "input": ["StatefulPartitionedCall/CNN_BiLSTM_MHA_Classifier_1/bilstm_1_1/backward_lstm_2_1/while/StatefulPartitionedCall/CNN_BiLSTM_MHA_Classifier_1/bilstm_1_1/backward_lstm_2_1/zeros_1_switch/_117"], "attr": {"_has_manual_control_dependencies": {"b": true}, "T": {"type": "DT_FLOAT"}}}, {"name": "StatefulPartitionedCall/CNN_BiLSTM_MHA_Classifier_1/bilstm_1_1/backward_lstm_2_1/while/exit/_126", "op": "Exit", "input": ["StatefulPartitionedCall/CNN_BiLSTM_MHA_Classifier_1/bilstm_1_1/backward_lstm_2_1/while/StatefulPartitionedCall/CNN_BiLSTM_MHA_Classifier_1/bilstm_1_1/backward_lstm_2_1/TensorArrayUnstack/TensorListFromTensor_switch/_118"], "attr": {"_has_manual_control_dependencies": {"b": true}, "T": {"type": "DT_VARIANT"}}}, {"name": "StatefulPartitionedCall/CNN_BiLSTM_MHA_Classifier_1/bilstm_1_1/backward_lstm_2_1/while/exit/_122", "op": "Exit", "input": ["StatefulPartitionedCall/CNN_BiLSTM_MHA_Classifier_1/bilstm_1_1/backward_lstm_2_1/while/StatefulPartitionedCall/CNN_BiLSTM_MHA_Classifier_1/bilstm_1_1/backward_lstm_2_1/time_switch/_114"], "attr": {"_has_manual_control_dependencies": {"b": true}, "T": {"type": "DT_INT32"}}}, {"name": "StatefulPartitionedCall/CNN_BiLSTM_MHA_Classifier_1/bilstm_1_1/backward_lstm_2_1/while/exit/_124", "op": "Exit", "input": ["StatefulPartitionedCall/CNN_BiLSTM_MHA_Classifier_1/bilstm_1_1/backward_lstm_2_1/while/StatefulPartitionedCall/CNN_BiLSTM_MHA_Classifier_1/bilstm_1_1/backward_lstm_2_1/zeros_switch/_116"], "attr": {"_has_manual_control_dependencies": {"b": true}, "T": {"type": "DT_FLOAT"}}}, {"name": "StatefulPartitionedCall/CNN_BiLSTM_MHA_Classifier_1/bilstm_1_1/backward_lstm_2_1/while/exit/_123", "op": "Exit", "input": ["StatefulPartitionedCall/CNN_BiLSTM_MHA_Classifier_1/bilstm_1_1/backward_lstm_2_1/while/StatefulPartitionedCall/CNN_BiLSTM_MHA_Classifier_1/bilstm_1_1/backward_lstm_2_1/TensorArrayV2_1_switch/_115"], "attr": {"_has_manual_control_dependencies": {"b": true}, "T": {"type": "DT_VARIANT"}}}, {"name": "Func/StatefulPartitionedCall/CNN_BiLSTM_MHA_Classifier_1/bilstm_1_1/forward_lstm_2_1/while/body/_48/input_control_node/_235", "op": "NoOp", "input": [], "attr": {"_has_manual_control_dependencies": {"b": true}}}, {"name": "StatefulPartitionedCall/CNN_BiLSTM_MHA_Classifier_1/bilstm_1_1/forward_lstm_2_1/TensorArrayV2Stack/TensorListStack", "op": "TensorListStack", "input": ["StatefulPartitionedCall/CNN_BiLSTM_MHA_Classifier_1/bilstm_1_1/forward_lstm_2_1/while/exit/_79", "StatefulPartitionedCall/CNN_BiLSTM_MHA_Classifier_1/bilstm_1_1/forward_lstm_2_1/TensorArrayV2Stack/TensorListStack/element_shape"], "attr": {"num_elements": {"i": "64"}, "element_dtype": {"type": "DT_FLOAT"}}}, {"name": "Func/StatefulPartitionedCall/CNN_BiLSTM_MHA_Classifier_1/bilstm_1_1/backward_lstm_2_1/while/body/_92/input_control_node/_269", "op": "NoOp", "input": [], "attr": {"_has_manual_control_dependencies": {"b": true}}}, {"name": "StatefulPartitionedCall/CNN_BiLSTM_MHA_Classifier_1/bilstm_1_1/backward_lstm_2_1/TensorArrayV2Stack/TensorListStack", "op": "TensorListStack", "input": ["StatefulPartitionedCall/CNN_BiLSTM_MHA_Classifier_1/bilstm_1_1/backward_lstm_2_1/while/exit/_123", "StatefulPartitionedCall/CNN_BiLSTM_MHA_Classifier_1/bilstm_1_1/backward_lstm_2_1/TensorArrayV2Stack/TensorListStack/element_shape"], "attr": {"num_elements": {"i": "64"}, "element_dtype": {"type": "DT_FLOAT"}}}, {"name": "StatefulPartitionedCall/CNN_BiLSTM_MHA_Classifier_1/bilstm_1_1/forward_lstm_2_1/while/body/_48/CNN_BiLSTM_MHA_Classifier_1/bilstm_1_1/forward_lstm_2_1/while/add_1/y", "op": "Const", "input": [], "attr": {"value": {"tensor": {"dtype": "DT_INT32", "tensorShape": {}}}, "dtype": {"type": "DT_INT32"}}}, {"name": "StatefulPartitionedCall/CNN_BiLSTM_MHA_Classifier_1/bilstm_1_1/forward_lstm_2_1/while/body/_48/CNN_BiLSTM_MHA_Classifier_1/bilstm_1_1/forward_lstm_2_1/while/lstm_cell_1/split/split_dim", "op": "Const", "input": [], "attr": {"value": {"tensor": {"dtype": "DT_INT32", "tensorShape": {}}}, "dtype": {"type": "DT_INT32"}}}, {"name": "StatefulPartitionedCall/CNN_BiLSTM_MHA_Classifier_1/bilstm_1_1/forward_lstm_2_1/while/body/_48/CNN_BiLSTM_MHA_Classifier_1/bilstm_1_1/forward_lstm_2_1/while/add/y", "op": "Const", "input": [], "attr": {"value": {"tensor": {"dtype": "DT_INT32", "tensorShape": {}}}, "dtype": {"type": "DT_INT32"}}}, {"name": "Func/StatefulPartitionedCall/CNN_BiLSTM_MHA_Classifier_1/bilstm_1_1/forward_lstm_2_1/while/body/_48/input/_238", "op": "Identity", "input": ["StatefulPartitionedCall/CNN_BiLSTM_MHA_Classifier_1/bilstm_1_1/forward_lstm_2_1/while/StatefulPartitionedCall/CNN_BiLSTM_MHA_Classifier_1/bilstm_1_1/forward_lstm_2_1/time_switch/_70:1"], "attr": {"T": {"type": "DT_INT32"}}}, {"name": "StatefulPartitionedCall/CNN_BiLSTM_MHA_Classifier_1/bilstm_1_1/forward_lstm_2_1/while/body/_48/CNN_BiLSTM_MHA_Classifier_1/bilstm_1_1/forward_lstm_2_1/while/TensorArrayV2Read/TensorListGetItem/element_shape", "op": "Const", "input": [], "attr": {"value": {"tensor": {"dtype": "DT_INT32", "tensorShape": {"dim": [{"size": "2"}]}}}, "dtype": {"type": "DT_INT32"}}}, {"name": "StatefulPartitionedCall/CNN_BiLSTM_MHA_Classifier_1/bilstm_1_1/forward_lstm_2_1/while/body/_48/CNN_BiLSTM_MHA_Classifier_1/bilstm_1_1/forward_lstm_2_1/while/lstm_cell_1/Cast/ReadVariableOp", "op": "Const", "input": [], "attr": {"value": {"tensor": {"dtype": "DT_FLOAT", "tensorShape": {"dim": [{"size": "96"}, {"size": "256"}]}}}, "dtype": {"type": "DT_FLOAT"}}}, {"name": "StatefulPartitionedCall/CNN_BiLSTM_MHA_Classifier_1/bilstm_1_1/forward_lstm_2_1/while/body/_48/CNN_BiLSTM_MHA_Classifier_1/bilstm_1_1/forward_lstm_2_1/while/lstm_cell_1/Cast_1/ReadVariableOp", "op": "Const", "input": [], "attr": {"value": {"tensor": {"dtype": "DT_FLOAT", "tensorShape": {"dim": [{"size": "64"}, {"size": "256"}]}}}, "dtype": {"type": "DT_FLOAT"}}}, {"name": "StatefulPartitionedCall/CNN_BiLSTM_MHA_Classifier_1/bilstm_1_1/forward_lstm_2_1/while/body/_48/CNN_BiLSTM_MHA_Classifier_1/bilstm_1_1/forward_lstm_2_1/while/lstm_cell_1/add_1/ReadVariableOp", "op": "Const", "input": [], "attr": {"value": {"tensor": {"dtype": "DT_FLOAT", "tensorShape": {"dim": [{"size": "256"}]}}}, "dtype": {"type": "DT_FLOAT"}}}, {"name": "StatefulPartitionedCall/CNN_BiLSTM_MHA_Classifier_1/bilstm_1_1/forward_lstm_2_1/transpose_1", "op": "Transpose", "input": ["StatefulPartitionedCall/CNN_BiLSTM_MHA_Classifier_1/bilstm_1_1/forward_lstm_2_1/TensorArrayV2Stack/TensorListStack", "StatefulPartitionedCall/CNN_BiLSTM_MHA_Classifier_1/bilstm_1_1/forward_lstm_2_1/transpose_1/perm"], "attr": {"Tperm": {"type": "DT_INT32"}, "T": {"type": "DT_FLOAT"}}}, {"name": "StatefulPartitionedCall/CNN_BiLSTM_MHA_Classifier_1/bilstm_1_1/backward_lstm_2_1/while/body/_92/CNN_BiLSTM_MHA_Classifier_1/bilstm_1_1/backward_lstm_2_1/while/add_1/y", "op": "Const", "input": [], "attr": {"value": {"tensor": {"dtype": "DT_INT32", "tensorShape": {}}}, "dtype": {"type": "DT_INT32"}}}, {"name": "StatefulPartitionedCall/CNN_BiLSTM_MHA_Classifier_1/bilstm_1_1/backward_lstm_2_1/while/body/_92/CNN_BiLSTM_MHA_Classifier_1/bilstm_1_1/backward_lstm_2_1/while/lstm_cell_1/split/split_dim", "op": "Const", "input": [], "attr": {"value": {"tensor": {"dtype": "DT_INT32", "tensorShape": {}}}, "dtype": {"type": "DT_INT32"}}}, {"name": "StatefulPartitionedCall/CNN_BiLSTM_MHA_Classifier_1/bilstm_1_1/backward_lstm_2_1/while/body/_92/CNN_BiLSTM_MHA_Classifier_1/bilstm_1_1/backward_lstm_2_1/while/add/y", "op": "Const", "input": [], "attr": {"value": {"tensor": {"dtype": "DT_INT32", "tensorShape": {}}}, "dtype": {"type": "DT_INT32"}}}, {"name": "Func/StatefulPartitionedCall/CNN_BiLSTM_MHA_Classifier_1/bilstm_1_1/backward_lstm_2_1/while/body/_92/input/_272", "op": "Identity", "input": ["StatefulPartitionedCall/CNN_BiLSTM_MHA_Classifier_1/bilstm_1_1/backward_lstm_2_1/while/StatefulPartitionedCall/CNN_BiLSTM_MHA_Classifier_1/bilstm_1_1/backward_lstm_2_1/time_switch/_114:1"], "attr": {"T": {"type": "DT_INT32"}}}, {"name": "StatefulPartitionedCall/CNN_BiLSTM_MHA_Classifier_1/bilstm_1_1/backward_lstm_2_1/while/body/_92/CNN_BiLSTM_MHA_Classifier_1/bilstm_1_1/backward_lstm_2_1/while/TensorArrayV2Read/TensorListGetItem/element_shape", "op": "Const", "input": [], "attr": {"value": {"tensor": {"dtype": "DT_INT32", "tensorShape": {"dim": [{"size": "2"}]}}}, "dtype": {"type": "DT_INT32"}}}, {"name": "StatefulPartitionedCall/CNN_BiLSTM_MHA_Classifier_1/bilstm_1_1/backward_lstm_2_1/while/body/_92/CNN_BiLSTM_MHA_Classifier_1/bilstm_1_1/backward_lstm_2_1/while/lstm_cell_1/Cast/ReadVariableOp", "op": "Const", "input": [], "attr": {"value": {"tensor": {"dtype": "DT_FLOAT", "tensorShape": {"dim": [{"size": "96"}, {"size": "256"}]}}}, "dtype": {"type": "DT_FLOAT"}}}, {"name": "StatefulPartitionedCall/CNN_BiLSTM_MHA_Classifier_1/bilstm_1_1/backward_lstm_2_1/while/body/_92/CNN_BiLSTM_MHA_Classifier_1/bilstm_1_1/backward_lstm_2_1/while/lstm_cell_1/Cast_1/ReadVariableOp", "op": "Const", "input": [], "attr": {"value": {"tensor": {"dtype": "DT_FLOAT", "tensorShape": {"dim": [{"size": "64"}, {"size": "256"}]}}}, "dtype": {"type": "DT_FLOAT"}}}, {"name": "StatefulPartitionedCall/CNN_BiLSTM_MHA_Classifier_1/bilstm_1_1/backward_lstm_2_1/while/body/_92/CNN_BiLSTM_MHA_Classifier_1/bilstm_1_1/backward_lstm_2_1/while/lstm_cell_1/add_1/ReadVariableOp", "op": "Const", "input": [], "attr": {"value": {"tensor": {"dtype": "DT_FLOAT", "tensorShape": {"dim": [{"size": "256"}]}}}, "dtype": {"type": "DT_FLOAT"}}}, {"name": "StatefulPartitionedCall/CNN_BiLSTM_MHA_Classifier_1/bilstm_1_1/backward_lstm_2_1/transpose_1", "op": "Transpose", "input": ["StatefulPartitionedCall/CNN_BiLSTM_MHA_Classifier_1/bilstm_1_1/backward_lstm_2_1/TensorArrayV2Stack/TensorListStack", "StatefulPartitionedCall/CNN_BiLSTM_MHA_Classifier_1/bilstm_1_1/backward_lstm_2_1/transpose_1/perm"], "attr": {"Tperm": {"type": "DT_INT32"}, "T": {"type": "DT_FLOAT"}}}, {"name": "StatefulPartitionedCall/CNN_BiLSTM_MHA_Classifier_1/bilstm_1_1/forward_lstm_2_1/while/body/_48/CNN_BiLSTM_MHA_Classifier_1/bilstm_1_1/forward_lstm_2_1/while/add_1", "op": "AddV2", "input": ["StatefulPartitionedCall/CNN_BiLSTM_MHA_Classifier_1/bilstm_1_1/forward_lstm_2_1/while/StatefulPartitionedCall/CNN_BiLSTM_MHA_Classifier_1/bilstm_1_1/forward_lstm_2_1/while/loop_counter_switch/_68:1", "StatefulPartitionedCall/CNN_BiLSTM_MHA_Classifier_1/bilstm_1_1/forward_lstm_2_1/while/body/_48/CNN_BiLSTM_MHA_Classifier_1/bilstm_1_1/forward_lstm_2_1/while/add_1/y"], "attr": {"T": {"type": "DT_INT32"}}}, {"name": "StatefulPartitionedCall/CNN_BiLSTM_MHA_Classifier_1/bilstm_1_1/forward_lstm_2_1/while/body/_48/CNN_BiLSTM_MHA_Classifier_1/bilstm_1_1/forward_lstm_2_1/while/add", "op": "AddV2", "input": ["Func/StatefulPartitionedCall/CNN_BiLSTM_MHA_Classifier_1/bilstm_1_1/forward_lstm_2_1/while/body/_48/input/_238", "StatefulPartitionedCall/CNN_BiLSTM_MHA_Classifier_1/bilstm_1_1/forward_lstm_2_1/while/body/_48/CNN_BiLSTM_MHA_Classifier_1/bilstm_1_1/forward_lstm_2_1/while/add/y"], "attr": {"T": {"type": "DT_INT32"}}}, {"name": "StatefulPartitionedCall/CNN_BiLSTM_MHA_Classifier_1/bilstm_1_1/forward_lstm_2_1/while/body/_48/CNN_BiLSTM_MHA_Classifier_1/bilstm_1_1/forward_lstm_2_1/while/TensorArrayV2Read/TensorListGetItem", "op": "TensorListGetItem", "input": ["StatefulPartitionedCall/CNN_BiLSTM_MHA_Classifier_1/bilstm_1_1/forward_lstm_2_1/while/StatefulPartitionedCall/CNN_BiLSTM_MHA_Classifier_1/bilstm_1_1/forward_lstm_2_1/TensorArrayUnstack/TensorListFromTensor_switch/_74:1", "Func/StatefulPartitionedCall/CNN_BiLSTM_MHA_Classifier_1/bilstm_1_1/forward_lstm_2_1/while/body/_48/input/_238", "StatefulPartitionedCall/CNN_BiLSTM_MHA_Classifier_1/bilstm_1_1/forward_lstm_2_1/while/body/_48/CNN_BiLSTM_MHA_Classifier_1/bilstm_1_1/forward_lstm_2_1/while/TensorArrayV2Read/TensorListGetItem/element_shape"], "attr": {"element_dtype": {"type": "DT_FLOAT"}}}, {"name": "StatefulPartitionedCall/CNN_BiLSTM_MHA_Classifier_1/bilstm_1_1/forward_lstm_2_1/while/body/_48/CNN_BiLSTM_MHA_Classifier_1/bilstm_1_1/forward_lstm_2_1/while/lstm_cell_1/MatMul_1", "op": "MatMul", "input": ["StatefulPartitionedCall/CNN_BiLSTM_MHA_Classifier_1/bilstm_1_1/forward_lstm_2_1/while/StatefulPartitionedCall/CNN_BiLSTM_MHA_Classifier_1/bilstm_1_1/forward_lstm_2_1/zeros_switch/_72:1", "StatefulPartitionedCall/CNN_BiLSTM_MHA_Classifier_1/bilstm_1_1/forward_lstm_2_1/while/body/_48/CNN_BiLSTM_MHA_Classifier_1/bilstm_1_1/forward_lstm_2_1/while/lstm_cell_1/Cast_1/ReadVariableOp"], "device": "/device:CPU:0", "attr": {"transpose_a": {"b": false}, "grad_a": {"b": false}, "T": {"type": "DT_FLOAT"}, "grad_b": {"b": false}, "transpose_b": {"b": false}}}, {"name": "Func/StatefulPartitionedCall/CNN_BiLSTM_MHA_Classifier_1/bilstm_1_1/forward_lstm_2_1/while/body/_48/output_control_node/_256", "op": "NoOp", "input": [], "attr": {"_has_manual_control_dependencies": {"b": true}}}, {"name": "StatefulPartitionedCall/CNN_BiLSTM_MHA_Classifier_1/bilstm_1_1/forward_lstm_2_1/while/body/_48/CNN_BiLSTM_MHA_Classifier_1/bilstm_1_1/forward_lstm_2_1/while/NoOp", "op": "NoOp", "input": [], "attr": {"_has_manual_control_dependencies": {"b": true}}}, {"name": "StatefulPartitionedCall/CNN_BiLSTM_MHA_Classifier_1/bilstm_1_1/backward_lstm_2_1/while/body/_92/CNN_BiLSTM_MHA_Classifier_1/bilstm_1_1/backward_lstm_2_1/while/add_1", "op": "AddV2", "input": ["StatefulPartitionedCall/CNN_BiLSTM_MHA_Classifier_1/bilstm_1_1/backward_lstm_2_1/while/StatefulPartitionedCall/CNN_BiLSTM_MHA_Classifier_1/bilstm_1_1/backward_lstm_2_1/while/loop_counter_switch/_112:1", "StatefulPartitionedCall/CNN_BiLSTM_MHA_Classifier_1/bilstm_1_1/backward_lstm_2_1/while/body/_92/CNN_BiLSTM_MHA_Classifier_1/bilstm_1_1/backward_lstm_2_1/while/add_1/y"], "attr": {"T": {"type": "DT_INT32"}}}, {"name": "StatefulPartitionedCall/CNN_BiLSTM_MHA_Classifier_1/bilstm_1_1/backward_lstm_2_1/while/body/_92/CNN_BiLSTM_MHA_Classifier_1/bilstm_1_1/backward_lstm_2_1/while/add", "op": "AddV2", "input": ["Func/StatefulPartitionedCall/CNN_BiLSTM_MHA_Classifier_1/bilstm_1_1/backward_lstm_2_1/while/body/_92/input/_272", "StatefulPartitionedCall/CNN_BiLSTM_MHA_Classifier_1/bilstm_1_1/backward_lstm_2_1/while/body/_92/CNN_BiLSTM_MHA_Classifier_1/bilstm_1_1/backward_lstm_2_1/while/add/y"], "attr": {"T": {"type": "DT_INT32"}}}, {"name": "StatefulPartitionedCall/CNN_BiLSTM_MHA_Classifier_1/bilstm_1_1/backward_lstm_2_1/while/body/_92/CNN_BiLSTM_MHA_Classifier_1/bilstm_1_1/backward_lstm_2_1/while/TensorArrayV2Read/TensorListGetItem", "op": "TensorListGetItem", "input": ["StatefulPartitionedCall/CNN_BiLSTM_MHA_Classifier_1/bilstm_1_1/backward_lstm_2_1/while/StatefulPartitionedCall/CNN_BiLSTM_MHA_Classifier_1/bilstm_1_1/backward_lstm_2_1/TensorArrayUnstack/TensorListFromTensor_switch/_118:1", "Func/StatefulPartitionedCall/CNN_BiLSTM_MHA_Classifier_1/bilstm_1_1/backward_lstm_2_1/while/body/_92/input/_272", "StatefulPartitionedCall/CNN_BiLSTM_MHA_Classifier_1/bilstm_1_1/backward_lstm_2_1/while/body/_92/CNN_BiLSTM_MHA_Classifier_1/bilstm_1_1/backward_lstm_2_1/while/TensorArrayV2Read/TensorListGetItem/element_shape"], "attr": {"element_dtype": {"type": "DT_FLOAT"}}}, {"name": "StatefulPartitionedCall/CNN_BiLSTM_MHA_Classifier_1/bilstm_1_1/backward_lstm_2_1/while/body/_92/CNN_BiLSTM_MHA_Classifier_1/bilstm_1_1/backward_lstm_2_1/while/lstm_cell_1/MatMul_1", "op": "MatMul", "input": ["StatefulPartitionedCall/CNN_BiLSTM_MHA_Classifier_1/bilstm_1_1/backward_lstm_2_1/while/StatefulPartitionedCall/CNN_BiLSTM_MHA_Classifier_1/bilstm_1_1/backward_lstm_2_1/zeros_switch/_116:1", "StatefulPartitionedCall/CNN_BiLSTM_MHA_Classifier_1/bilstm_1_1/backward_lstm_2_1/while/body/_92/CNN_BiLSTM_MHA_Classifier_1/bilstm_1_1/backward_lstm_2_1/while/lstm_cell_1/Cast_1/ReadVariableOp"], "device": "/device:CPU:0", "attr": {"grad_a": {"b": false}, "transpose_a": {"b": false}, "T": {"type": "DT_FLOAT"}, "grad_b": {"b": false}, "transpose_b": {"b": false}}}, {"name": "Func/StatefulPartitionedCall/CNN_BiLSTM_MHA_Classifier_1/bilstm_1_1/backward_lstm_2_1/while/body/_92/output_control_node/_290", "op": "NoOp", "input": [], "attr": {"_has_manual_control_dependencies": {"b": true}}}, {"name": "StatefulPartitionedCall/CNN_BiLSTM_MHA_Classifier_1/bilstm_1_1/backward_lstm_2_1/while/body/_92/CNN_BiLSTM_MHA_Classifier_1/bilstm_1_1/backward_lstm_2_1/while/NoOp", "op": "NoOp", "input": [], "attr": {"_has_manual_control_dependencies": {"b": true}}}, {"name": "StatefulPartitionedCall/CNN_BiLSTM_MHA_Classifier_1/bilstm_1_1/ReverseV2", "op": "ReverseV2", "input": ["StatefulPartitionedCall/CNN_BiLSTM_MHA_Classifier_1/bilstm_1_1/backward_lstm_2_1/transpose_1", "StatefulPartitionedCall/CNN_BiLSTM_MHA_Classifier_1/bilstm_1_1/ReverseV2/axis"], "attr": {"Tidx": {"type": "DT_INT32"}, "T": {"type": "DT_FLOAT"}}}, {"name": "StatefulPartitionedCall/CNN_BiLSTM_MHA_Classifier_1/bilstm_1_1/forward_lstm_2_1/while/body/_48/CNN_BiLSTM_MHA_Classifier_1/bilstm_1_1/forward_lstm_2_1/while/lstm_cell_1/add", "op": "AddV2", "input": ["StatefulPartitionedCall/CNN_BiLSTM_MHA_Classifier_1/bilstm_1_1/forward_lstm_2_1/while/body/_48/CNN_BiLSTM_MHA_Classifier_1/bilstm_1_1/forward_lstm_2_1/while/lstm_cell_1/add_1/ReadVariableOp", "StatefulPartitionedCall/CNN_BiLSTM_MHA_Classifier_1/bilstm_1_1/forward_lstm_2_1/while/body/_48/CNN_BiLSTM_MHA_Classifier_1/bilstm_1_1/forward_lstm_2_1/while/lstm_cell_1/MatMul_1"], "attr": {"T": {"type": "DT_FLOAT"}}}, {"name": "StatefulPartitionedCall/CNN_BiLSTM_MHA_Classifier_1/bilstm_1_1/forward_lstm_2_1/while/next_iteration/_90", "op": "NextIteration", "input": ["StatefulPartitionedCall/CNN_BiLSTM_MHA_Classifier_1/bilstm_1_1/forward_lstm_2_1/while/StatefulPartitionedCall/CNN_BiLSTM_MHA_Classifier_1/bilstm_1_1/forward_lstm_2_1/TensorArrayUnstack/TensorListFromTensor_switch/_74:1"], "attr": {"T": {"type": "DT_VARIANT"}}}, {"name": "StatefulPartitionedCall/CNN_BiLSTM_MHA_Classifier_1/bilstm_1_1/forward_lstm_2_1/while/next_iteration/_85", "op": "NextIteration", "input": ["StatefulPartitionedCall/CNN_BiLSTM_MHA_Classifier_1/bilstm_1_1/forward_lstm_2_1/while/StatefulPartitionedCall/CNN_BiLSTM_MHA_Classifier_1/bilstm_1_1/forward_lstm_2_1/Max_switch/_69:1"], "attr": {"T": {"type": "DT_INT32"}}}, {"name": "StatefulPartitionedCall/CNN_BiLSTM_MHA_Classifier_1/bilstm_1_1/forward_lstm_2_1/while/next_iteration/_84", "op": "NextIteration", "input": ["StatefulPartitionedCall/CNN_BiLSTM_MHA_Classifier_1/bilstm_1_1/forward_lstm_2_1/while/body/_48/CNN_BiLSTM_MHA_Classifier_1/bilstm_1_1/forward_lstm_2_1/while/add_1"], "attr": {"T": {"type": "DT_INT32"}}}, {"name": "StatefulPartitionedCall/CNN_BiLSTM_MHA_Classifier_1/bilstm_1_1/forward_lstm_2_1/while/next_iteration/_86", "op": "NextIteration", "input": ["StatefulPartitionedCall/CNN_BiLSTM_MHA_Classifier_1/bilstm_1_1/forward_lstm_2_1/while/body/_48/CNN_BiLSTM_MHA_Classifier_1/bilstm_1_1/forward_lstm_2_1/while/add"], "attr": {"T": {"type": "DT_INT32"}}}, {"name": "StatefulPartitionedCall/CNN_BiLSTM_MHA_Classifier_1/bilstm_1_1/backward_lstm_2_1/while/body/_92/CNN_BiLSTM_MHA_Classifier_1/bilstm_1_1/backward_lstm_2_1/while/lstm_cell_1/add", "op": "AddV2", "input": ["StatefulPartitionedCall/CNN_BiLSTM_MHA_Classifier_1/bilstm_1_1/backward_lstm_2_1/while/body/_92/CNN_BiLSTM_MHA_Classifier_1/bilstm_1_1/backward_lstm_2_1/while/lstm_cell_1/add_1/ReadVariableOp", "StatefulPartitionedCall/CNN_BiLSTM_MHA_Classifier_1/bilstm_1_1/backward_lstm_2_1/while/body/_92/CNN_BiLSTM_MHA_Classifier_1/bilstm_1_1/backward_lstm_2_1/while/lstm_cell_1/MatMul_1"], "attr": {"T": {"type": "DT_FLOAT"}}}, {"name": "StatefulPartitionedCall/CNN_BiLSTM_MHA_Classifier_1/bilstm_1_1/backward_lstm_2_1/while/next_iteration/_134", "op": "NextIteration", "input": ["StatefulPartitionedCall/CNN_BiLSTM_MHA_Classifier_1/bilstm_1_1/backward_lstm_2_1/while/StatefulPartitionedCall/CNN_BiLSTM_MHA_Classifier_1/bilstm_1_1/backward_lstm_2_1/TensorArrayUnstack/TensorListFromTensor_switch/_118:1"], "attr": {"T": {"type": "DT_VARIANT"}}}, {"name": "StatefulPartitionedCall/CNN_BiLSTM_MHA_Classifier_1/bilstm_1_1/backward_lstm_2_1/while/next_iteration/_129", "op": "NextIteration", "input": ["StatefulPartitionedCall/CNN_BiLSTM_MHA_Classifier_1/bilstm_1_1/backward_lstm_2_1/while/StatefulPartitionedCall/CNN_BiLSTM_MHA_Classifier_1/bilstm_1_1/backward_lstm_2_1/Max_switch/_113:1"], "attr": {"T": {"type": "DT_INT32"}}}, {"name": "StatefulPartitionedCall/CNN_BiLSTM_MHA_Classifier_1/bilstm_1_1/backward_lstm_2_1/while/next_iteration/_128", "op": "NextIteration", "input": ["StatefulPartitionedCall/CNN_BiLSTM_MHA_Classifier_1/bilstm_1_1/backward_lstm_2_1/while/body/_92/CNN_BiLSTM_MHA_Classifier_1/bilstm_1_1/backward_lstm_2_1/while/add_1"], "attr": {"T": {"type": "DT_INT32"}}}, {"name": "StatefulPartitionedCall/CNN_BiLSTM_MHA_Classifier_1/bilstm_1_1/backward_lstm_2_1/while/next_iteration/_130", "op": "NextIteration", "input": ["StatefulPartitionedCall/CNN_BiLSTM_MHA_Classifier_1/bilstm_1_1/backward_lstm_2_1/while/body/_92/CNN_BiLSTM_MHA_Classifier_1/bilstm_1_1/backward_lstm_2_1/while/add"], "attr": {"T": {"type": "DT_INT32"}}}, {"name": "StatefulPartitionedCall/CNN_BiLSTM_MHA_Classifier_1/bilstm_1_1/concat", "op": "ConcatV2", "input": ["StatefulPartitionedCall/CNN_BiLSTM_MHA_Classifier_1/bilstm_1_1/forward_lstm_2_1/transpose_1", "StatefulPartitionedCall/CNN_BiLSTM_MHA_Classifier_1/bilstm_1_1/ReverseV2", "StatefulPartitionedCall/CNN_BiLSTM_MHA_Classifier_1/bilstm_1_1/concat/axis"], "attr": {"N": {"i": "2"}, "T": {"type": "DT_FLOAT"}, "Tidx": {"type": "DT_INT32"}}}, {"name": "StatefulPartitionedCall/CNN_BiLSTM_MHA_Classifier_1/bilstm_1_1/forward_lstm_2_1/while/body/_48/CNN_BiLSTM_MHA_Classifier_1/bilstm_1_1/forward_lstm_2_1/while/lstm_cell_1/add_1", "op": "_FusedMatMul", "input": ["StatefulPartitionedCall/CNN_BiLSTM_MHA_Classifier_1/bilstm_1_1/forward_lstm_2_1/while/body/_48/CNN_BiLSTM_MHA_Classifier_1/bilstm_1_1/forward_lstm_2_1/while/TensorArrayV2Read/TensorListGetItem", "StatefulPartitionedCall/CNN_BiLSTM_MHA_Classifier_1/bilstm_1_1/forward_lstm_2_1/while/body/_48/CNN_BiLSTM_MHA_Classifier_1/bilstm_1_1/forward_lstm_2_1/while/lstm_cell_1/Cast/ReadVariableOp", "StatefulPartitionedCall/CNN_BiLSTM_MHA_Classifier_1/bilstm_1_1/forward_lstm_2_1/while/body/_48/CNN_BiLSTM_MHA_Classifier_1/bilstm_1_1/forward_lstm_2_1/while/lstm_cell_1/add"], "device": "/device:CPU:0", "attr": {"transpose_a": {"b": false}, "transpose_b": {"b": false}, "fused_ops": {"list": {"s": ["Qmlhc0FkZA=="]}}, "num_args": {"i": "1"}, "leakyrelu_alpha": {"f": 0.2}, "epsilon": {"f": 0.0}, "T": {"type": "DT_FLOAT"}}}, {"name": "StatefulPartitionedCall/CNN_BiLSTM_MHA_Classifier_1/bilstm_1_1/backward_lstm_2_1/while/body/_92/CNN_BiLSTM_MHA_Classifier_1/bilstm_1_1/backward_lstm_2_1/while/lstm_cell_1/add_1", "op": "_FusedMatMul", "input": ["StatefulPartitionedCall/CNN_BiLSTM_MHA_Classifier_1/bilstm_1_1/backward_lstm_2_1/while/body/_92/CNN_BiLSTM_MHA_Classifier_1/bilstm_1_1/backward_lstm_2_1/while/TensorArrayV2Read/TensorListGetItem", "StatefulPartitionedCall/CNN_BiLSTM_MHA_Classifier_1/bilstm_1_1/backward_lstm_2_1/while/body/_92/CNN_BiLSTM_MHA_Classifier_1/bilstm_1_1/backward_lstm_2_1/while/lstm_cell_1/Cast/ReadVariableOp", "StatefulPartitionedCall/CNN_BiLSTM_MHA_Classifier_1/bilstm_1_1/backward_lstm_2_1/while/body/_92/CNN_BiLSTM_MHA_Classifier_1/bilstm_1_1/backward_lstm_2_1/while/lstm_cell_1/add"], "device": "/device:CPU:0", "attr": {"transpose_a": {"b": false}, "transpose_b": {"b": false}, "fused_ops": {"list": {"s": ["Qmlhc0FkZA=="]}}, "leakyrelu_alpha": {"f": 0.2}, "num_args": {"i": "1"}, "epsilon": {"f": 0.0}, "T": {"type": "DT_FLOAT"}}}, {"name": "StatefulPartitionedCall/CNN_BiLSTM_MHA_Classifier_1/bilstm_2_1/backward_lstm_3_1/transpose", "op": "Transpose", "input": ["StatefulPartitionedCall/CNN_BiLSTM_MHA_Classifier_1/bilstm_1_1/concat", "StatefulPartitionedCall/CNN_BiLSTM_MHA_Classifier_1/bilstm_2_1/backward_lstm_3_1/transpose/perm"], "attr": {"Tperm": {"type": "DT_INT32"}, "T": {"type": "DT_FLOAT"}}}, {"name": "StatefulPartitionedCall/CNN_BiLSTM_MHA_Classifier_1/bilstm_2_1/backward_lstm_3_1/Shape", "op": "Shape", "input": ["StatefulPartitionedCall/CNN_BiLSTM_MHA_Classifier_1/bilstm_1_1/concat"], "attr": {"T": {"type": "DT_FLOAT"}, "out_type": {"type": "DT_INT32"}}, "experimentalType": {"typeId": "TFT_PRODUCT", "args": [{"typeId": "TFT_SHAPE_TENSOR", "args": [{"typeId": "TFT_INT32"}]}]}}, {"name": "StatefulPartitionedCall/CNN_BiLSTM_MHA_Classifier_1/bilstm_2_1/forward_lstm_3_1/transpose", "op": "Transpose", "input": ["StatefulPartitionedCall/CNN_BiLSTM_MHA_Classifier_1/bilstm_1_1/concat", "StatefulPartitionedCall/CNN_BiLSTM_MHA_Classifier_1/bilstm_2_1/forward_lstm_3_1/transpose/perm"], "attr": {"Tperm": {"type": "DT_INT32"}, "T": {"type": "DT_FLOAT"}}}, {"name": "StatefulPartitionedCall/CNN_BiLSTM_MHA_Classifier_1/bilstm_2_1/forward_lstm_3_1/Shape", "op": "Shape", "input": ["StatefulPartitionedCall/CNN_BiLSTM_MHA_Classifier_1/bilstm_1_1/concat"], "attr": {"T": {"type": "DT_FLOAT"}, "out_type": {"type": "DT_INT32"}}, "experimentalType": {"typeId": "TFT_PRODUCT", "args": [{"typeId": "TFT_SHAPE_TENSOR", "args": [{"typeId": "TFT_INT32"}]}]}}, {"name": "StatefulPartitionedCall/CNN_BiLSTM_MHA_Classifier_1/bilstm_1_1/forward_lstm_2_1/while/body/_48/CNN_BiLSTM_MHA_Classifier_1/bilstm_1_1/forward_lstm_2_1/while/lstm_cell_1/split", "op": "Split", "input": ["StatefulPartitionedCall/CNN_BiLSTM_MHA_Classifier_1/bilstm_1_1/forward_lstm_2_1/while/body/_48/CNN_BiLSTM_MHA_Classifier_1/bilstm_1_1/forward_lstm_2_1/while/lstm_cell_1/split/split_dim", "StatefulPartitionedCall/CNN_BiLSTM_MHA_Classifier_1/bilstm_1_1/forward_lstm_2_1/while/body/_48/CNN_BiLSTM_MHA_Classifier_1/bilstm_1_1/forward_lstm_2_1/while/lstm_cell_1/add_1"], "attr": {"num_split": {"i": "4"}, "T": {"type": "DT_FLOAT"}}}, {"name": "StatefulPartitionedCall/CNN_BiLSTM_MHA_Classifier_1/bilstm_1_1/backward_lstm_2_1/while/body/_92/CNN_BiLSTM_MHA_Classifier_1/bilstm_1_1/backward_lstm_2_1/while/lstm_cell_1/split", "op": "Split", "input": ["StatefulPartitionedCall/CNN_BiLSTM_MHA_Classifier_1/bilstm_1_1/backward_lstm_2_1/while/body/_92/CNN_BiLSTM_MHA_Classifier_1/bilstm_1_1/backward_lstm_2_1/while/lstm_cell_1/split/split_dim", "StatefulPartitionedCall/CNN_BiLSTM_MHA_Classifier_1/bilstm_1_1/backward_lstm_2_1/while/body/_92/CNN_BiLSTM_MHA_Classifier_1/bilstm_1_1/backward_lstm_2_1/while/lstm_cell_1/add_1"], "attr": {"num_split": {"i": "4"}, "T": {"type": "DT_FLOAT"}}}, {"name": "StatefulPartitionedCall/CNN_BiLSTM_MHA_Classifier_1/bilstm_2_1/backward_lstm_3_1/ReverseV2", "op": "ReverseV2", "input": ["StatefulPartitionedCall/CNN_BiLSTM_MHA_Classifier_1/bilstm_2_1/backward_lstm_3_1/transpose", "StatefulPartitionedCall/CNN_BiLSTM_MHA_Classifier_1/bilstm_2_1/backward_lstm_3_1/ReverseV2/axis"], "attr": {"Tidx": {"type": "DT_INT32"}, "T": {"type": "DT_FLOAT"}}}, {"name": "StatefulPartitionedCall/CNN_BiLSTM_MHA_Classifier_1/bilstm_2_1/backward_lstm_3_1/strided_slice", "op": "StridedSlice", "input": ["StatefulPartitionedCall/CNN_BiLSTM_MHA_Classifier_1/bilstm_2_1/backward_lstm_3_1/Shape", "StatefulPartitionedCall/CNN_BiLSTM_MHA_Classifier_1/bilstm_2_1/backward_lstm_3_1/strided_slice/stack", "StatefulPartitionedCall/CNN_BiLSTM_MHA_Classifier_1/bilstm_2_1/backward_lstm_3_1/strided_slice/stack_1", "StatefulPartitionedCall/CNN_BiLSTM_MHA_Classifier_1/bilstm_2_1/backward_lstm_3_1/strided_slice/stack_2"], "attr": {"shrink_axis_mask": {"i": "1"}, "Index": {"type": "DT_INT32"}, "new_axis_mask": {"i": "0"}, "begin_mask": {"i": "0"}, "end_mask": {"i": "0"}, "T": {"type": "DT_INT32"}, "ellipsis_mask": {"i": "0"}}}, {"name": "StatefulPartitionedCall/CNN_BiLSTM_MHA_Classifier_1/bilstm_2_1/forward_lstm_3_1/TensorArrayUnstack/TensorListFromTensor", "op": "TensorListFromTensor", "input": ["StatefulPartitionedCall/CNN_BiLSTM_MHA_Classifier_1/bilstm_2_1/forward_lstm_3_1/transpose", "StatefulPartitionedCall/CNN_BiLSTM_MHA_Classifier_1/bilstm_2_1/forward_lstm_3_1/TensorArrayUnstack/TensorListFromTensor/element_shape"], "attr": {"shape_type": {"type": "DT_INT32"}, "_has_manual_control_dependencies": {"b": true}, "element_dtype": {"type": "DT_FLOAT"}}, "experimentalType": {"typeId": "TFT_PRODUCT", "args": [{"typeId": "TFT_ARRAY", "args": [{"typeId": "TFT_TENSOR", "args": [{"typeId": "TFT_FLOAT"}]}]}]}}, {"name": "StatefulPartitionedCall/CNN_BiLSTM_MHA_Classifier_1/bilstm_2_1/forward_lstm_3_1/strided_slice", "op": "StridedSlice", "input": ["StatefulPartitionedCall/CNN_BiLSTM_MHA_Classifier_1/bilstm_2_1/forward_lstm_3_1/Shape", "StatefulPartitionedCall/CNN_BiLSTM_MHA_Classifier_1/bilstm_2_1/forward_lstm_3_1/strided_slice/stack", "StatefulPartitionedCall/CNN_BiLSTM_MHA_Classifier_1/bilstm_2_1/forward_lstm_3_1/strided_slice/stack_1", "StatefulPartitionedCall/CNN_BiLSTM_MHA_Classifier_1/bilstm_2_1/forward_lstm_3_1/strided_slice/stack_2"], "attr": {"shrink_axis_mask": {"i": "1"}, "Index": {"type": "DT_INT32"}, "new_axis_mask": {"i": "0"}, "begin_mask": {"i": "0"}, "T": {"type": "DT_INT32"}, "end_mask": {"i": "0"}, "ellipsis_mask": {"i": "0"}}}, {"name": "StatefulPartitionedCall/CNN_BiLSTM_MHA_Classifier_1/bilstm_1_1/forward_lstm_2_1/while/body/_48/CNN_BiLSTM_MHA_Classifier_1/bilstm_1_1/forward_lstm_2_1/while/lstm_cell_1/Sigmoid", "op": "Sigmoid", "input": ["StatefulPartitionedCall/CNN_BiLSTM_MHA_Classifier_1/bilstm_1_1/forward_lstm_2_1/while/body/_48/CNN_BiLSTM_MHA_Classifier_1/bilstm_1_1/forward_lstm_2_1/while/lstm_cell_1/split"], "attr": {"T": {"type": "DT_FLOAT"}}}, {"name": "StatefulPartitionedCall/CNN_BiLSTM_MHA_Classifier_1/bilstm_1_1/forward_lstm_2_1/while/body/_48/CNN_BiLSTM_MHA_Classifier_1/bilstm_1_1/forward_lstm_2_1/while/lstm_cell_1/Sigmoid_1", "op": "Sigmoid", "input": ["StatefulPartitionedCall/CNN_BiLSTM_MHA_Classifier_1/bilstm_1_1/forward_lstm_2_1/while/body/_48/CNN_BiLSTM_MHA_Classifier_1/bilstm_1_1/forward_lstm_2_1/while/lstm_cell_1/split:1"], "attr": {"T": {"type": "DT_FLOAT"}}}, {"name": "StatefulPartitionedCall/CNN_BiLSTM_MHA_Classifier_1/bilstm_1_1/forward_lstm_2_1/while/body/_48/CNN_BiLSTM_MHA_Classifier_1/bilstm_1_1/forward_lstm_2_1/while/lstm_cell_1/Tanh", "op": "Tanh", "input": ["StatefulPartitionedCall/CNN_BiLSTM_MHA_Classifier_1/bilstm_1_1/forward_lstm_2_1/while/body/_48/CNN_BiLSTM_MHA_Classifier_1/bilstm_1_1/forward_lstm_2_1/while/lstm_cell_1/split:2"], "attr": {"T": {"type": "DT_FLOAT"}}}, {"name": "StatefulPartitionedCall/CNN_BiLSTM_MHA_Classifier_1/bilstm_1_1/forward_lstm_2_1/while/body/_48/CNN_BiLSTM_MHA_Classifier_1/bilstm_1_1/forward_lstm_2_1/while/lstm_cell_1/Sigmoid_2", "op": "Sigmoid", "input": ["StatefulPartitionedCall/CNN_BiLSTM_MHA_Classifier_1/bilstm_1_1/forward_lstm_2_1/while/body/_48/CNN_BiLSTM_MHA_Classifier_1/bilstm_1_1/forward_lstm_2_1/while/lstm_cell_1/split:3"], "attr": {"T": {"type": "DT_FLOAT"}}}, {"name": "StatefulPartitionedCall/CNN_BiLSTM_MHA_Classifier_1/bilstm_1_1/backward_lstm_2_1/while/body/_92/CNN_BiLSTM_MHA_Classifier_1/bilstm_1_1/backward_lstm_2_1/while/lstm_cell_1/Sigmoid", "op": "Sigmoid", "input": ["StatefulPartitionedCall/CNN_BiLSTM_MHA_Classifier_1/bilstm_1_1/backward_lstm_2_1/while/body/_92/CNN_BiLSTM_MHA_Classifier_1/bilstm_1_1/backward_lstm_2_1/while/lstm_cell_1/split"], "attr": {"T": {"type": "DT_FLOAT"}}}, {"name": "StatefulPartitionedCall/CNN_BiLSTM_MHA_Classifier_1/bilstm_1_1/backward_lstm_2_1/while/body/_92/CNN_BiLSTM_MHA_Classifier_1/bilstm_1_1/backward_lstm_2_1/while/lstm_cell_1/Sigmoid_1", "op": "Sigmoid", "input": ["StatefulPartitionedCall/CNN_BiLSTM_MHA_Classifier_1/bilstm_1_1/backward_lstm_2_1/while/body/_92/CNN_BiLSTM_MHA_Classifier_1/bilstm_1_1/backward_lstm_2_1/while/lstm_cell_1/split:1"], "attr": {"T": {"type": "DT_FLOAT"}}}, {"name": "StatefulPartitionedCall/CNN_BiLSTM_MHA_Classifier_1/bilstm_1_1/backward_lstm_2_1/while/body/_92/CNN_BiLSTM_MHA_Classifier_1/bilstm_1_1/backward_lstm_2_1/while/lstm_cell_1/Tanh", "op": "Tanh", "input": ["StatefulPartitionedCall/CNN_BiLSTM_MHA_Classifier_1/bilstm_1_1/backward_lstm_2_1/while/body/_92/CNN_BiLSTM_MHA_Classifier_1/bilstm_1_1/backward_lstm_2_1/while/lstm_cell_1/split:2"], "attr": {"T": {"type": "DT_FLOAT"}}}, {"name": "StatefulPartitionedCall/CNN_BiLSTM_MHA_Classifier_1/bilstm_1_1/backward_lstm_2_1/while/body/_92/CNN_BiLSTM_MHA_Classifier_1/bilstm_1_1/backward_lstm_2_1/while/lstm_cell_1/Sigmoid_2", "op": "Sigmoid", "input": ["StatefulPartitionedCall/CNN_BiLSTM_MHA_Classifier_1/bilstm_1_1/backward_lstm_2_1/while/body/_92/CNN_BiLSTM_MHA_Classifier_1/bilstm_1_1/backward_lstm_2_1/while/lstm_cell_1/split:3"], "attr": {"T": {"type": "DT_FLOAT"}}}, {"name": "StatefulPartitionedCall/CNN_BiLSTM_MHA_Classifier_1/bilstm_2_1/backward_lstm_3_1/TensorArrayUnstack/TensorListFromTensor", "op": "TensorListFromTensor", "input": ["StatefulPartitionedCall/CNN_BiLSTM_MHA_Classifier_1/bilstm_2_1/backward_lstm_3_1/ReverseV2", "StatefulPartitionedCall/CNN_BiLSTM_MHA_Classifier_1/bilstm_2_1/backward_lstm_3_1/TensorArrayUnstack/TensorListFromTensor/element_shape"], "attr": {"shape_type": {"type": "DT_INT32"}, "_has_manual_control_dependencies": {"b": true}, "element_dtype": {"type": "DT_FLOAT"}}, "experimentalType": {"typeId": "TFT_PRODUCT", "args": [{"typeId": "TFT_ARRAY", "args": [{"typeId": "TFT_TENSOR", "args": [{"typeId": "TFT_FLOAT"}]}]}]}}, {"name": "StatefulPartitionedCall/CNN_BiLSTM_MHA_Classifier_1/bilstm_2_1/backward_lstm_3_1/zeros/packed", "op": "Pack", "input": ["StatefulPartitionedCall/CNN_BiLSTM_MHA_Classifier_1/bilstm_2_1/backward_lstm_3_1/strided_slice", "StatefulPartitionedCall/CNN_BiLSTM_MHA_Classifier_1/bilstm_2_1/backward_lstm_3_1/zeros/packed/1"], "attr": {"N": {"i": "2"}, "axis": {"i": "0"}, "T": {"type": "DT_INT32"}}}, {"name": "StatefulPartitionedCall/CNN_BiLSTM_MHA_Classifier_1/bilstm_2_1/backward_lstm_3_1/zeros_1/packed", "op": "Pack", "input": ["StatefulPartitionedCall/CNN_BiLSTM_MHA_Classifier_1/bilstm_2_1/backward_lstm_3_1/strided_slice", "StatefulPartitionedCall/CNN_BiLSTM_MHA_Classifier_1/bilstm_2_1/backward_lstm_3_1/zeros_1/packed/1"], "attr": {"N": {"i": "2"}, "axis": {"i": "0"}, "T": {"type": "DT_INT32"}}}, {"name": "StatefulPartitionedCall/CNN_BiLSTM_MHA_Classifier_1/bilstm_2_1/forward_lstm_3_1/zeros/packed", "op": "Pack", "input": ["StatefulPartitionedCall/CNN_BiLSTM_MHA_Classifier_1/bilstm_2_1/forward_lstm_3_1/strided_slice", "StatefulPartitionedCall/CNN_BiLSTM_MHA_Classifier_1/bilstm_2_1/forward_lstm_3_1/zeros/packed/1"], "attr": {"N": {"i": "2"}, "axis": {"i": "0"}, "T": {"type": "DT_INT32"}}}, {"name": "StatefulPartitionedCall/CNN_BiLSTM_MHA_Classifier_1/bilstm_2_1/forward_lstm_3_1/zeros_1/packed", "op": "Pack", "input": ["StatefulPartitionedCall/CNN_BiLSTM_MHA_Classifier_1/bilstm_2_1/forward_lstm_3_1/strided_slice", "StatefulPartitionedCall/CNN_BiLSTM_MHA_Classifier_1/bilstm_2_1/forward_lstm_3_1/zeros_1/packed/1"], "attr": {"N": {"i": "2"}, "axis": {"i": "0"}, "T": {"type": "DT_INT32"}}}, {"name": "StatefulPartitionedCall/CNN_BiLSTM_MHA_Classifier_1/bilstm_1_1/forward_lstm_2_1/while/body/_48/CNN_BiLSTM_MHA_Classifier_1/bilstm_1_1/forward_lstm_2_1/while/lstm_cell_1/mul", "op": "Mul", "input": ["StatefulPartitionedCall/CNN_BiLSTM_MHA_Classifier_1/bilstm_1_1/forward_lstm_2_1/while/body/_48/CNN_BiLSTM_MHA_Classifier_1/bilstm_1_1/forward_lstm_2_1/while/lstm_cell_1/Sigmoid_1", "StatefulPartitionedCall/CNN_BiLSTM_MHA_Classifier_1/bilstm_1_1/forward_lstm_2_1/while/StatefulPartitionedCall/CNN_BiLSTM_MHA_Classifier_1/bilstm_1_1/forward_lstm_2_1/zeros_1_switch/_73:1"], "attr": {"T": {"type": "DT_FLOAT"}}}, {"name": "StatefulPartitionedCall/CNN_BiLSTM_MHA_Classifier_1/bilstm_1_1/forward_lstm_2_1/while/body/_48/CNN_BiLSTM_MHA_Classifier_1/bilstm_1_1/forward_lstm_2_1/while/lstm_cell_1/mul_1", "op": "Mul", "input": ["StatefulPartitionedCall/CNN_BiLSTM_MHA_Classifier_1/bilstm_1_1/forward_lstm_2_1/while/body/_48/CNN_BiLSTM_MHA_Classifier_1/bilstm_1_1/forward_lstm_2_1/while/lstm_cell_1/Sigmoid", "StatefulPartitionedCall/CNN_BiLSTM_MHA_Classifier_1/bilstm_1_1/forward_lstm_2_1/while/body/_48/CNN_BiLSTM_MHA_Classifier_1/bilstm_1_1/forward_lstm_2_1/while/lstm_cell_1/Tanh"], "attr": {"T": {"type": "DT_FLOAT"}}}, {"name": "StatefulPartitionedCall/CNN_BiLSTM_MHA_Classifier_1/bilstm_1_1/backward_lstm_2_1/while/body/_92/CNN_BiLSTM_MHA_Classifier_1/bilstm_1_1/backward_lstm_2_1/while/lstm_cell_1/mul", "op": "Mul", "input": ["StatefulPartitionedCall/CNN_BiLSTM_MHA_Classifier_1/bilstm_1_1/backward_lstm_2_1/while/body/_92/CNN_BiLSTM_MHA_Classifier_1/bilstm_1_1/backward_lstm_2_1/while/lstm_cell_1/Sigmoid_1", "StatefulPartitionedCall/CNN_BiLSTM_MHA_Classifier_1/bilstm_1_1/backward_lstm_2_1/while/StatefulPartitionedCall/CNN_BiLSTM_MHA_Classifier_1/bilstm_1_1/backward_lstm_2_1/zeros_1_switch/_117:1"], "attr": {"T": {"type": "DT_FLOAT"}}}, {"name": "StatefulPartitionedCall/CNN_BiLSTM_MHA_Classifier_1/bilstm_1_1/backward_lstm_2_1/while/body/_92/CNN_BiLSTM_MHA_Classifier_1/bilstm_1_1/backward_lstm_2_1/while/lstm_cell_1/mul_1", "op": "Mul", "input": ["StatefulPartitionedCall/CNN_BiLSTM_MHA_Classifier_1/bilstm_1_1/backward_lstm_2_1/while/body/_92/CNN_BiLSTM_MHA_Classifier_1/bilstm_1_1/backward_lstm_2_1/while/lstm_cell_1/Sigmoid", "StatefulPartitionedCall/CNN_BiLSTM_MHA_Classifier_1/bilstm_1_1/backward_lstm_2_1/while/body/_92/CNN_BiLSTM_MHA_Classifier_1/bilstm_1_1/backward_lstm_2_1/while/lstm_cell_1/Tanh"], "attr": {"T": {"type": "DT_FLOAT"}}}, {"name": "StatefulPartitionedCall/CNN_BiLSTM_MHA_Classifier_1/bilstm_2_1/backward_lstm_3_1/zeros", "op": "Fill", "input": ["StatefulPartitionedCall/CNN_BiLSTM_MHA_Classifier_1/bilstm_2_1/backward_lstm_3_1/zeros/packed", "StatefulPartitionedCall/CNN_BiLSTM_MHA_Classifier_1/bilstm_2_1/backward_lstm_3_1/zeros/Const"], "attr": {"_has_manual_control_dependencies": {"b": true}, "T": {"type": "DT_FLOAT"}, "index_type": {"type": "DT_INT32"}}}, {"name": "StatefulPartitionedCall/CNN_BiLSTM_MHA_Classifier_1/bilstm_2_1/backward_lstm_3_1/zeros_1", "op": "Fill", "input": ["StatefulPartitionedCall/CNN_BiLSTM_MHA_Classifier_1/bilstm_2_1/backward_lstm_3_1/zeros_1/packed", "StatefulPartitionedCall/CNN_BiLSTM_MHA_Classifier_1/bilstm_2_1/backward_lstm_3_1/zeros_1/Const"], "attr": {"_has_manual_control_dependencies": {"b": true}, "T": {"type": "DT_FLOAT"}, "index_type": {"type": "DT_INT32"}}}, {"name": "StatefulPartitionedCall/CNN_BiLSTM_MHA_Classifier_1/bilstm_2_1/forward_lstm_3_1/zeros", "op": "Fill", "input": ["StatefulPartitionedCall/CNN_BiLSTM_MHA_Classifier_1/bilstm_2_1/forward_lstm_3_1/zeros/packed", "StatefulPartitionedCall/CNN_BiLSTM_MHA_Classifier_1/bilstm_2_1/forward_lstm_3_1/zeros/Const"], "attr": {"_has_manual_control_dependencies": {"b": true}, "T": {"type": "DT_FLOAT"}, "index_type": {"type": "DT_INT32"}}}, {"name": "StatefulPartitionedCall/CNN_BiLSTM_MHA_Classifier_1/bilstm_2_1/forward_lstm_3_1/zeros_1", "op": "Fill", "input": ["StatefulPartitionedCall/CNN_BiLSTM_MHA_Classifier_1/bilstm_2_1/forward_lstm_3_1/zeros_1/packed", "StatefulPartitionedCall/CNN_BiLSTM_MHA_Classifier_1/bilstm_2_1/forward_lstm_3_1/zeros_1/Const"], "attr": {"_has_manual_control_dependencies": {"b": true}, "T": {"type": "DT_FLOAT"}, "index_type": {"type": "DT_INT32"}}}, {"name": "StatefulPartitionedCall/CNN_BiLSTM_MHA_Classifier_1/bilstm_1_1/forward_lstm_2_1/while/body/_48/CNN_BiLSTM_MHA_Classifier_1/bilstm_1_1/forward_lstm_2_1/while/lstm_cell_1/add_2", "op": "AddV2", "input": ["StatefulPartitionedCall/CNN_BiLSTM_MHA_Classifier_1/bilstm_1_1/forward_lstm_2_1/while/body/_48/CNN_BiLSTM_MHA_Classifier_1/bilstm_1_1/forward_lstm_2_1/while/lstm_cell_1/mul", "StatefulPartitionedCall/CNN_BiLSTM_MHA_Classifier_1/bilstm_1_1/forward_lstm_2_1/while/body/_48/CNN_BiLSTM_MHA_Classifier_1/bilstm_1_1/forward_lstm_2_1/while/lstm_cell_1/mul_1"], "attr": {"T": {"type": "DT_FLOAT"}}}, {"name": "StatefulPartitionedCall/CNN_BiLSTM_MHA_Classifier_1/bilstm_1_1/backward_lstm_2_1/while/body/_92/CNN_BiLSTM_MHA_Classifier_1/bilstm_1_1/backward_lstm_2_1/while/lstm_cell_1/add_2", "op": "AddV2", "input": ["StatefulPartitionedCall/CNN_BiLSTM_MHA_Classifier_1/bilstm_1_1/backward_lstm_2_1/while/body/_92/CNN_BiLSTM_MHA_Classifier_1/bilstm_1_1/backward_lstm_2_1/while/lstm_cell_1/mul", "StatefulPartitionedCall/CNN_BiLSTM_MHA_Classifier_1/bilstm_1_1/backward_lstm_2_1/while/body/_92/CNN_BiLSTM_MHA_Classifier_1/bilstm_1_1/backward_lstm_2_1/while/lstm_cell_1/mul_1"], "attr": {"T": {"type": "DT_FLOAT"}}}, {"name": "StatefulPartitionedCall/CNN_BiLSTM_MHA_Classifier_1/bilstm_2_1/backward_lstm_3_1/while/LoopControlInputs/_191", "op": "NoOp", "input": [], "attr": {"_has_manual_control_dependencies": {"b": true}}}, {"name": "StatefulPartitionedCall/CNN_BiLSTM_MHA_Classifier_1/bilstm_2_1/forward_lstm_3_1/while/LoopControlInputs/_147", "op": "NoOp", "input": [], "attr": {"_has_manual_control_dependencies": {"b": true}}}, {"name": "StatefulPartitionedCall/CNN_BiLSTM_MHA_Classifier_1/bilstm_1_1/forward_lstm_2_1/while/body/_48/CNN_BiLSTM_MHA_Classifier_1/bilstm_1_1/forward_lstm_2_1/while/lstm_cell_1/Tanh_1", "op": "Tanh", "input": ["StatefulPartitionedCall/CNN_BiLSTM_MHA_Classifier_1/bilstm_1_1/forward_lstm_2_1/while/body/_48/CNN_BiLSTM_MHA_Classifier_1/bilstm_1_1/forward_lstm_2_1/while/lstm_cell_1/add_2"], "attr": {"T": {"type": "DT_FLOAT"}}}, {"name": "StatefulPartitionedCall/CNN_BiLSTM_MHA_Classifier_1/bilstm_1_1/forward_lstm_2_1/while/next_iteration/_89", "op": "NextIteration", "input": ["StatefulPartitionedCall/CNN_BiLSTM_MHA_Classifier_1/bilstm_1_1/forward_lstm_2_1/while/body/_48/CNN_BiLSTM_MHA_Classifier_1/bilstm_1_1/forward_lstm_2_1/while/lstm_cell_1/add_2"], "attr": {"T": {"type": "DT_FLOAT"}}}, {"name": "StatefulPartitionedCall/CNN_BiLSTM_MHA_Classifier_1/bilstm_1_1/backward_lstm_2_1/while/body/_92/CNN_BiLSTM_MHA_Classifier_1/bilstm_1_1/backward_lstm_2_1/while/lstm_cell_1/Tanh_1", "op": "Tanh", "input": ["StatefulPartitionedCall/CNN_BiLSTM_MHA_Classifier_1/bilstm_1_1/backward_lstm_2_1/while/body/_92/CNN_BiLSTM_MHA_Classifier_1/bilstm_1_1/backward_lstm_2_1/while/lstm_cell_1/add_2"], "attr": {"T": {"type": "DT_FLOAT"}}}, {"name": "StatefulPartitionedCall/CNN_BiLSTM_MHA_Classifier_1/bilstm_1_1/backward_lstm_2_1/while/next_iteration/_133", "op": "NextIteration", "input": ["StatefulPartitionedCall/CNN_BiLSTM_MHA_Classifier_1/bilstm_1_1/backward_lstm_2_1/while/body/_92/CNN_BiLSTM_MHA_Classifier_1/bilstm_1_1/backward_lstm_2_1/while/lstm_cell_1/add_2"], "attr": {"T": {"type": "DT_FLOAT"}}}, {"name": "StatefulPartitionedCall/CNN_BiLSTM_MHA_Classifier_1/bilstm_2_1/backward_lstm_3_1/while/enter/_186", "op": "Enter", "input": ["StatefulPartitionedCall/CNN_BiLSTM_MHA_Classifier_1/bilstm_2_1/backward_lstm_3_1/zeros_1"], "attr": {"is_constant": {"b": false}, "frame_name": {"s": "U3RhdGVmdWxQYXJ0aXRpb25lZENhbGwvQ05OX0JpTFNUTV9NSEFfQ2xhc3NpZmllcl8xL2JpbHN0bV8yXzEvYmFja3dhcmRfbHN0bV8zXzEvd2hpbGU="}, "T": {"type": "DT_FLOAT"}, "parallel_iterations": {"i": "32"}}}, {"name": "StatefulPartitionedCall/CNN_BiLSTM_MHA_Classifier_1/bilstm_2_1/backward_lstm_3_1/while/enter/_187", "op": "Enter", "input": ["StatefulPartitionedCall/CNN_BiLSTM_MHA_Classifier_1/bilstm_2_1/backward_lstm_3_1/TensorArrayUnstack/TensorListFromTensor"], "attr": {"is_constant": {"b": false}, "frame_name": {"s": "U3RhdGVmdWxQYXJ0aXRpb25lZENhbGwvQ05OX0JpTFNUTV9NSEFfQ2xhc3NpZmllcl8xL2JpbHN0bV8yXzEvYmFja3dhcmRfbHN0bV8zXzEvd2hpbGU="}, "T": {"type": "DT_VARIANT"}, "parallel_iterations": {"i": "32"}}}, {"name": "StatefulPartitionedCall/CNN_BiLSTM_MHA_Classifier_1/bilstm_2_1/backward_lstm_3_1/while/enter/_182", "op": "Enter", "input": ["StatefulPartitionedCall/CNN_BiLSTM_MHA_Classifier_1/bilstm_2_1/backward_lstm_3_1/Max"], "attr": {"is_constant": {"b": false}, "frame_name": {"s": "U3RhdGVmdWxQYXJ0aXRpb25lZENhbGwvQ05OX0JpTFNUTV9NSEFfQ2xhc3NpZmllcl8xL2JpbHN0bV8yXzEvYmFja3dhcmRfbHN0bV8zXzEvd2hpbGU="}, "T": {"type": "DT_INT32"}, "parallel_iterations": {"i": "32"}}}, {"name": "StatefulPartitionedCall/CNN_BiLSTM_MHA_Classifier_1/bilstm_2_1/backward_lstm_3_1/while/enter/_184", "op": "Enter", "input": ["StatefulPartitionedCall/CNN_BiLSTM_MHA_Classifier_1/bilstm_2_1/backward_lstm_3_1/TensorArrayV2_1"], "attr": {"is_constant": {"b": false}, "frame_name": {"s": "U3RhdGVmdWxQYXJ0aXRpb25lZENhbGwvQ05OX0JpTFNUTV9NSEFfQ2xhc3NpZmllcl8xL2JpbHN0bV8yXzEvYmFja3dhcmRfbHN0bV8zXzEvd2hpbGU="}, "T": {"type": "DT_VARIANT"}, "parallel_iterations": {"i": "32"}}}, {"name": "StatefulPartitionedCall/CNN_BiLSTM_MHA_Classifier_1/bilstm_2_1/backward_lstm_3_1/while/enter/_181", "op": "Enter", "input": ["StatefulPartitionedCall/CNN_BiLSTM_MHA_Classifier_1/bilstm_2_1/backward_lstm_3_1/while/loop_counter"], "attr": {"is_constant": {"b": false}, "frame_name": {"s": "U3RhdGVmdWxQYXJ0aXRpb25lZENhbGwvQ05OX0JpTFNUTV9NSEFfQ2xhc3NpZmllcl8xL2JpbHN0bV8yXzEvYmFja3dhcmRfbHN0bV8zXzEvd2hpbGU="}, "T": {"type": "DT_INT32"}, "parallel_iterations": {"i": "32"}}}, {"name": "StatefulPartitionedCall/CNN_BiLSTM_MHA_Classifier_1/bilstm_2_1/backward_lstm_3_1/while/enter/_185", "op": "Enter", "input": ["StatefulPartitionedCall/CNN_BiLSTM_MHA_Classifier_1/bilstm_2_1/backward_lstm_3_1/zeros"], "attr": {"is_constant": {"b": false}, "frame_name": {"s": "U3RhdGVmdWxQYXJ0aXRpb25lZENhbGwvQ05OX0JpTFNUTV9NSEFfQ2xhc3NpZmllcl8xL2JpbHN0bV8yXzEvYmFja3dhcmRfbHN0bV8zXzEvd2hpbGU="}, "T": {"type": "DT_FLOAT"}, "parallel_iterations": {"i": "32"}}}, {"name": "StatefulPartitionedCall/CNN_BiLSTM_MHA_Classifier_1/bilstm_2_1/backward_lstm_3_1/while/enter/_183", "op": "Enter", "input": ["StatefulPartitionedCall/CNN_BiLSTM_MHA_Classifier_1/bilstm_2_1/backward_lstm_3_1/time"], "attr": {"is_constant": {"b": false}, "frame_name": {"s": "U3RhdGVmdWxQYXJ0aXRpb25lZENhbGwvQ05OX0JpTFNUTV9NSEFfQ2xhc3NpZmllcl8xL2JpbHN0bV8yXzEvYmFja3dhcmRfbHN0bV8zXzEvd2hpbGU="}, "T": {"type": "DT_INT32"}, "parallel_iterations": {"i": "32"}}}, {"name": "StatefulPartitionedCall/CNN_BiLSTM_MHA_Classifier_1/bilstm_2_1/backward_lstm_3_1/while/enter/_188", "op": "Enter", "input": ["Func/StatefulPartitionedCall/input/_28"], "attr": {"is_constant": {"b": true}, "_has_manual_control_dependencies": {"b": true}, "T": {"type": "DT_FLOAT"}, "frame_name": {"s": "U3RhdGVmdWxQYXJ0aXRpb25lZENhbGwvQ05OX0JpTFNUTV9NSEFfQ2xhc3NpZmllcl8xL2JpbHN0bV8yXzEvYmFja3dhcmRfbHN0bV8zXzEvd2hpbGU="}, "parallel_iterations": {"i": "32"}}}, {"name": "StatefulPartitionedCall/CNN_BiLSTM_MHA_Classifier_1/bilstm_2_1/backward_lstm_3_1/while/enter/_189", "op": "Enter", "input": ["Func/StatefulPartitionedCall/input/_29"], "attr": {"is_constant": {"b": true}, "frame_name": {"s": "U3RhdGVmdWxQYXJ0aXRpb25lZENhbGwvQ05OX0JpTFNUTV9NSEFfQ2xhc3NpZmllcl8xL2JpbHN0bV8yXzEvYmFja3dhcmRfbHN0bV8zXzEvd2hpbGU="}, "T": {"type": "DT_FLOAT"}, "_has_manual_control_dependencies": {"b": true}, "parallel_iterations": {"i": "32"}}}, {"name": "StatefulPartitionedCall/CNN_BiLSTM_MHA_Classifier_1/bilstm_2_1/backward_lstm_3_1/while/enter/_190", "op": "Enter", "input": ["Func/StatefulPartitionedCall/input/_30"], "attr": {"is_constant": {"b": true}, "frame_name": {"s": "U3RhdGVmdWxQYXJ0aXRpb25lZENhbGwvQ05OX0JpTFNUTV9NSEFfQ2xhc3NpZmllcl8xL2JpbHN0bV8yXzEvYmFja3dhcmRfbHN0bV8zXzEvd2hpbGU="}, "T": {"type": "DT_FLOAT"}, "_has_manual_control_dependencies": {"b": true}, "parallel_iterations": {"i": "32"}}}, {"name": "StatefulPartitionedCall/CNN_BiLSTM_MHA_Classifier_1/bilstm_2_1/forward_lstm_3_1/while/enter/_138", "op": "Enter", "input": ["StatefulPartitionedCall/CNN_BiLSTM_MHA_Classifier_1/bilstm_2_1/forward_lstm_3_1/Max"], "attr": {"is_constant": {"b": false}, "frame_name": {"s": "U3RhdGVmdWxQYXJ0aXRpb25lZENhbGwvQ05OX0JpTFNUTV9NSEFfQ2xhc3NpZmllcl8xL2JpbHN0bV8yXzEvZm9yd2FyZF9sc3RtXzNfMS93aGlsZQ=="}, "T": {"type": "DT_INT32"}, "parallel_iterations": {"i": "32"}}}, {"name": "StatefulPartitionedCall/CNN_BiLSTM_MHA_Classifier_1/bilstm_2_1/forward_lstm_3_1/while/enter/_143", "op": "Enter", "input": ["StatefulPartitionedCall/CNN_BiLSTM_MHA_Classifier_1/bilstm_2_1/forward_lstm_3_1/TensorArrayUnstack/TensorListFromTensor"], "attr": {"is_constant": {"b": false}, "frame_name": {"s": "U3RhdGVmdWxQYXJ0aXRpb25lZENhbGwvQ05OX0JpTFNUTV9NSEFfQ2xhc3NpZmllcl8xL2JpbHN0bV8yXzEvZm9yd2FyZF9sc3RtXzNfMS93aGlsZQ=="}, "T": {"type": "DT_VARIANT"}, "parallel_iterations": {"i": "32"}}}, {"name": "StatefulPartitionedCall/CNN_BiLSTM_MHA_Classifier_1/bilstm_2_1/forward_lstm_3_1/while/enter/_140", "op": "Enter", "input": ["StatefulPartitionedCall/CNN_BiLSTM_MHA_Classifier_1/bilstm_2_1/forward_lstm_3_1/TensorArrayV2_1"], "attr": {"is_constant": {"b": false}, "frame_name": {"s": "U3RhdGVmdWxQYXJ0aXRpb25lZENhbGwvQ05OX0JpTFNUTV9NSEFfQ2xhc3NpZmllcl8xL2JpbHN0bV8yXzEvZm9yd2FyZF9sc3RtXzNfMS93aGlsZQ=="}, "T": {"type": "DT_VARIANT"}, "parallel_iterations": {"i": "32"}}}, {"name": "StatefulPartitionedCall/CNN_BiLSTM_MHA_Classifier_1/bilstm_2_1/forward_lstm_3_1/while/enter/_137", "op": "Enter", "input": ["StatefulPartitionedCall/CNN_BiLSTM_MHA_Classifier_1/bilstm_2_1/forward_lstm_3_1/while/loop_counter"], "attr": {"is_constant": {"b": false}, "frame_name": {"s": "U3RhdGVmdWxQYXJ0aXRpb25lZENhbGwvQ05OX0JpTFNUTV9NSEFfQ2xhc3NpZmllcl8xL2JpbHN0bV8yXzEvZm9yd2FyZF9sc3RtXzNfMS93aGlsZQ=="}, "T": {"type": "DT_INT32"}, "parallel_iterations": {"i": "32"}}}, {"name": "StatefulPartitionedCall/CNN_BiLSTM_MHA_Classifier_1/bilstm_2_1/forward_lstm_3_1/while/enter/_141", "op": "Enter", "input": ["StatefulPartitionedCall/CNN_BiLSTM_MHA_Classifier_1/bilstm_2_1/forward_lstm_3_1/zeros"], "attr": {"is_constant": {"b": false}, "frame_name": {"s": "U3RhdGVmdWxQYXJ0aXRpb25lZENhbGwvQ05OX0JpTFNUTV9NSEFfQ2xhc3NpZmllcl8xL2JpbHN0bV8yXzEvZm9yd2FyZF9sc3RtXzNfMS93aGlsZQ=="}, "T": {"type": "DT_FLOAT"}, "parallel_iterations": {"i": "32"}}}, {"name": "StatefulPartitionedCall/CNN_BiLSTM_MHA_Classifier_1/bilstm_2_1/forward_lstm_3_1/while/enter/_142", "op": "Enter", "input": ["StatefulPartitionedCall/CNN_BiLSTM_MHA_Classifier_1/bilstm_2_1/forward_lstm_3_1/zeros_1"], "attr": {"is_constant": {"b": false}, "frame_name": {"s": "U3RhdGVmdWxQYXJ0aXRpb25lZENhbGwvQ05OX0JpTFNUTV9NSEFfQ2xhc3NpZmllcl8xL2JpbHN0bV8yXzEvZm9yd2FyZF9sc3RtXzNfMS93aGlsZQ=="}, "T": {"type": "DT_FLOAT"}, "parallel_iterations": {"i": "32"}}}, {"name": "StatefulPartitionedCall/CNN_BiLSTM_MHA_Classifier_1/bilstm_2_1/forward_lstm_3_1/while/enter/_139", "op": "Enter", "input": ["StatefulPartitionedCall/CNN_BiLSTM_MHA_Classifier_1/bilstm_2_1/forward_lstm_3_1/time"], "attr": {"is_constant": {"b": false}, "frame_name": {"s": "U3RhdGVmdWxQYXJ0aXRpb25lZENhbGwvQ05OX0JpTFNUTV9NSEFfQ2xhc3NpZmllcl8xL2JpbHN0bV8yXzEvZm9yd2FyZF9sc3RtXzNfMS93aGlsZQ=="}, "T": {"type": "DT_INT32"}, "parallel_iterations": {"i": "32"}}}, {"name": "StatefulPartitionedCall/CNN_BiLSTM_MHA_Classifier_1/bilstm_2_1/forward_lstm_3_1/while/enter/_144", "op": "Enter", "input": ["Func/StatefulPartitionedCall/input/_25"], "attr": {"is_constant": {"b": true}, "frame_name": {"s": "U3RhdGVmdWxQYXJ0aXRpb25lZENhbGwvQ05OX0JpTFNUTV9NSEFfQ2xhc3NpZmllcl8xL2JpbHN0bV8yXzEvZm9yd2FyZF9sc3RtXzNfMS93aGlsZQ=="}, "T": {"type": "DT_FLOAT"}, "parallel_iterations": {"i": "32"}}}, {"name": "StatefulPartitionedCall/CNN_BiLSTM_MHA_Classifier_1/bilstm_2_1/forward_lstm_3_1/while/enter/_145", "op": "Enter", "input": ["Func/StatefulPartitionedCall/input/_26"], "attr": {"is_constant": {"b": true}, "frame_name": {"s": "U3RhdGVmdWxQYXJ0aXRpb25lZENhbGwvQ05OX0JpTFNUTV9NSEFfQ2xhc3NpZmllcl8xL2JpbHN0bV8yXzEvZm9yd2FyZF9sc3RtXzNfMS93aGlsZQ=="}, "T": {"type": "DT_FLOAT"}, "parallel_iterations": {"i": "32"}}}, {"name": "StatefulPartitionedCall/CNN_BiLSTM_MHA_Classifier_1/bilstm_2_1/forward_lstm_3_1/while/enter/_146", "op": "Enter", "input": ["Func/StatefulPartitionedCall/input/_27"], "attr": {"is_constant": {"b": true}, "frame_name": {"s": "U3RhdGVmdWxQYXJ0aXRpb25lZENhbGwvQ05OX0JpTFNUTV9NSEFfQ2xhc3NpZmllcl8xL2JpbHN0bV8yXzEvZm9yd2FyZF9sc3RtXzNfMS93aGlsZQ=="}, "T": {"type": "DT_FLOAT"}, "parallel_iterations": {"i": "32"}}}, {"name": "StatefulPartitionedCall/CNN_BiLSTM_MHA_Classifier_1/bilstm_1_1/forward_lstm_2_1/while/body/_48/CNN_BiLSTM_MHA_Classifier_1/bilstm_1_1/forward_lstm_2_1/while/lstm_cell_1/mul_2", "op": "Mul", "input": ["StatefulPartitionedCall/CNN_BiLSTM_MHA_Classifier_1/bilstm_1_1/forward_lstm_2_1/while/body/_48/CNN_BiLSTM_MHA_Classifier_1/bilstm_1_1/forward_lstm_2_1/while/lstm_cell_1/Sigmoid_2", "StatefulPartitionedCall/CNN_BiLSTM_MHA_Classifier_1/bilstm_1_1/forward_lstm_2_1/while/body/_48/CNN_BiLSTM_MHA_Classifier_1/bilstm_1_1/forward_lstm_2_1/while/lstm_cell_1/Tanh_1"], "attr": {"T": {"type": "DT_FLOAT"}}}, {"name": "StatefulPartitionedCall/CNN_BiLSTM_MHA_Classifier_1/bilstm_1_1/backward_lstm_2_1/while/body/_92/CNN_BiLSTM_MHA_Classifier_1/bilstm_1_1/backward_lstm_2_1/while/lstm_cell_1/mul_2", "op": "Mul", "input": ["StatefulPartitionedCall/CNN_BiLSTM_MHA_Classifier_1/bilstm_1_1/backward_lstm_2_1/while/body/_92/CNN_BiLSTM_MHA_Classifier_1/bilstm_1_1/backward_lstm_2_1/while/lstm_cell_1/Sigmoid_2", "StatefulPartitionedCall/CNN_BiLSTM_MHA_Classifier_1/bilstm_1_1/backward_lstm_2_1/while/body/_92/CNN_BiLSTM_MHA_Classifier_1/bilstm_1_1/backward_lstm_2_1/while/lstm_cell_1/Tanh_1"], "attr": {"T": {"type": "DT_FLOAT"}}}, {"name": "StatefulPartitionedCall/CNN_BiLSTM_MHA_Classifier_1/bilstm_2_1/backward_lstm_3_1/while/merge/_197", "op": "Merge", "input": ["StatefulPartitionedCall/CNN_BiLSTM_MHA_Classifier_1/bilstm_2_1/backward_lstm_3_1/while/enter/_186", "StatefulPartitionedCall/CNN_BiLSTM_MHA_Classifier_1/bilstm_2_1/backward_lstm_3_1/while/next_iteration/_221"], "attr": {"N": {"i": "2"}, "_has_manual_control_dependencies": {"b": true}, "T": {"type": "DT_FLOAT"}}}, {"name": "StatefulPartitionedCall/CNN_BiLSTM_MHA_Classifier_1/bilstm_2_1/backward_lstm_3_1/while/merge/_198", "op": "Merge", "input": ["StatefulPartitionedCall/CNN_BiLSTM_MHA_Classifier_1/bilstm_2_1/backward_lstm_3_1/while/enter/_187", "StatefulPartitionedCall/CNN_BiLSTM_MHA_Classifier_1/bilstm_2_1/backward_lstm_3_1/while/next_iteration/_222"], "attr": {"N": {"i": "2"}, "_has_manual_control_dependencies": {"b": true}, "T": {"type": "DT_VARIANT"}}}, {"name": "StatefulPartitionedCall/CNN_BiLSTM_MHA_Classifier_1/bilstm_2_1/backward_lstm_3_1/while/merge/_193", "op": "Merge", "input": ["StatefulPartitionedCall/CNN_BiLSTM_MHA_Classifier_1/bilstm_2_1/backward_lstm_3_1/while/enter/_182", "StatefulPartitionedCall/CNN_BiLSTM_MHA_Classifier_1/bilstm_2_1/backward_lstm_3_1/while/next_iteration/_217"], "attr": {"N": {"i": "2"}, "_has_manual_control_dependencies": {"b": true}, "T": {"type": "DT_INT32"}}}, {"name": "StatefulPartitionedCall/CNN_BiLSTM_MHA_Classifier_1/bilstm_2_1/backward_lstm_3_1/while/merge/_195", "op": "Merge", "input": ["StatefulPartitionedCall/CNN_BiLSTM_MHA_Classifier_1/bilstm_2_1/backward_lstm_3_1/while/enter/_184", "StatefulPartitionedCall/CNN_BiLSTM_MHA_Classifier_1/bilstm_2_1/backward_lstm_3_1/while/next_iteration/_219"], "attr": {"N": {"i": "2"}, "_has_manual_control_dependencies": {"b": true}, "T": {"type": "DT_VARIANT"}}}, {"name": "StatefulPartitionedCall/CNN_BiLSTM_MHA_Classifier_1/bilstm_2_1/backward_lstm_3_1/while/merge/_192", "op": "Merge", "input": ["StatefulPartitionedCall/CNN_BiLSTM_MHA_Classifier_1/bilstm_2_1/backward_lstm_3_1/while/enter/_181", "StatefulPartitionedCall/CNN_BiLSTM_MHA_Classifier_1/bilstm_2_1/backward_lstm_3_1/while/next_iteration/_216"], "attr": {"N": {"i": "2"}, "_has_manual_control_dependencies": {"b": true}, "T": {"type": "DT_INT32"}}}, {"name": "StatefulPartitionedCall/CNN_BiLSTM_MHA_Classifier_1/bilstm_2_1/backward_lstm_3_1/while/merge/_196", "op": "Merge", "input": ["StatefulPartitionedCall/CNN_BiLSTM_MHA_Classifier_1/bilstm_2_1/backward_lstm_3_1/while/enter/_185", "StatefulPartitionedCall/CNN_BiLSTM_MHA_Classifier_1/bilstm_2_1/backward_lstm_3_1/while/next_iteration/_220"], "attr": {"N": {"i": "2"}, "_has_manual_control_dependencies": {"b": true}, "T": {"type": "DT_FLOAT"}}}, {"name": "StatefulPartitionedCall/CNN_BiLSTM_MHA_Classifier_1/bilstm_2_1/backward_lstm_3_1/while/merge/_194", "op": "Merge", "input": ["StatefulPartitionedCall/CNN_BiLSTM_MHA_Classifier_1/bilstm_2_1/backward_lstm_3_1/while/enter/_183", "StatefulPartitionedCall/CNN_BiLSTM_MHA_Classifier_1/bilstm_2_1/backward_lstm_3_1/while/next_iteration/_218"], "attr": {"N": {"i": "2"}, "_has_manual_control_dependencies": {"b": true}, "T": {"type": "DT_INT32"}}}, {"name": "StatefulPartitionedCall/CNN_BiLSTM_MHA_Classifier_1/bilstm_2_1/forward_lstm_3_1/while/merge/_149", "op": "Merge", "input": ["StatefulPartitionedCall/CNN_BiLSTM_MHA_Classifier_1/bilstm_2_1/forward_lstm_3_1/while/enter/_138", "StatefulPartitionedCall/CNN_BiLSTM_MHA_Classifier_1/bilstm_2_1/forward_lstm_3_1/while/next_iteration/_173"], "attr": {"N": {"i": "2"}, "_has_manual_control_dependencies": {"b": true}, "T": {"type": "DT_INT32"}}}, {"name": "StatefulPartitionedCall/CNN_BiLSTM_MHA_Classifier_1/bilstm_2_1/forward_lstm_3_1/while/merge/_154", "op": "Merge", "input": ["StatefulPartitionedCall/CNN_BiLSTM_MHA_Classifier_1/bilstm_2_1/forward_lstm_3_1/while/enter/_143", "StatefulPartitionedCall/CNN_BiLSTM_MHA_Classifier_1/bilstm_2_1/forward_lstm_3_1/while/next_iteration/_178"], "attr": {"N": {"i": "2"}, "T": {"type": "DT_VARIANT"}}}, {"name": "StatefulPartitionedCall/CNN_BiLSTM_MHA_Classifier_1/bilstm_2_1/forward_lstm_3_1/while/merge/_151", "op": "Merge", "input": ["StatefulPartitionedCall/CNN_BiLSTM_MHA_Classifier_1/bilstm_2_1/forward_lstm_3_1/while/enter/_140", "StatefulPartitionedCall/CNN_BiLSTM_MHA_Classifier_1/bilstm_2_1/forward_lstm_3_1/while/next_iteration/_175"], "attr": {"N": {"i": "2"}, "_has_manual_control_dependencies": {"b": true}, "T": {"type": "DT_VARIANT"}}}, {"name": "StatefulPartitionedCall/CNN_BiLSTM_MHA_Classifier_1/bilstm_2_1/forward_lstm_3_1/while/merge/_148", "op": "Merge", "input": ["StatefulPartitionedCall/CNN_BiLSTM_MHA_Classifier_1/bilstm_2_1/forward_lstm_3_1/while/enter/_137", "StatefulPartitionedCall/CNN_BiLSTM_MHA_Classifier_1/bilstm_2_1/forward_lstm_3_1/while/next_iteration/_172"], "attr": {"N": {"i": "2"}, "_has_manual_control_dependencies": {"b": true}, "T": {"type": "DT_INT32"}}}, {"name": "StatefulPartitionedCall/CNN_BiLSTM_MHA_Classifier_1/bilstm_2_1/forward_lstm_3_1/while/merge/_152", "op": "Merge", "input": ["StatefulPartitionedCall/CNN_BiLSTM_MHA_Classifier_1/bilstm_2_1/forward_lstm_3_1/while/enter/_141", "StatefulPartitionedCall/CNN_BiLSTM_MHA_Classifier_1/bilstm_2_1/forward_lstm_3_1/while/next_iteration/_176"], "attr": {"N": {"i": "2"}, "_has_manual_control_dependencies": {"b": true}, "T": {"type": "DT_FLOAT"}}}, {"name": "StatefulPartitionedCall/CNN_BiLSTM_MHA_Classifier_1/bilstm_2_1/forward_lstm_3_1/while/merge/_153", "op": "Merge", "input": ["StatefulPartitionedCall/CNN_BiLSTM_MHA_Classifier_1/bilstm_2_1/forward_lstm_3_1/while/enter/_142", "StatefulPartitionedCall/CNN_BiLSTM_MHA_Classifier_1/bilstm_2_1/forward_lstm_3_1/while/next_iteration/_177"], "attr": {"N": {"i": "2"}, "_has_manual_control_dependencies": {"b": true}, "T": {"type": "DT_FLOAT"}}}, {"name": "StatefulPartitionedCall/CNN_BiLSTM_MHA_Classifier_1/bilstm_2_1/forward_lstm_3_1/while/merge/_150", "op": "Merge", "input": ["StatefulPartitionedCall/CNN_BiLSTM_MHA_Classifier_1/bilstm_2_1/forward_lstm_3_1/while/enter/_139", "StatefulPartitionedCall/CNN_BiLSTM_MHA_Classifier_1/bilstm_2_1/forward_lstm_3_1/while/next_iteration/_174"], "attr": {"N": {"i": "2"}, "_has_manual_control_dependencies": {"b": true}, "T": {"type": "DT_INT32"}}}, {"name": "StatefulPartitionedCall/CNN_BiLSTM_MHA_Classifier_1/bilstm_1_1/forward_lstm_2_1/while/body/_48/CNN_BiLSTM_MHA_Classifier_1/bilstm_1_1/forward_lstm_2_1/while/TensorArrayV2Write/TensorListSetItem", "op": "TensorListSetItem", "input": ["StatefulPartitionedCall/CNN_BiLSTM_MHA_Classifier_1/bilstm_1_1/forward_lstm_2_1/while/StatefulPartitionedCall/CNN_BiLSTM_MHA_Classifier_1/bilstm_1_1/forward_lstm_2_1/TensorArrayV2_1_switch/_71:1", "Func/StatefulPartitionedCall/CNN_BiLSTM_MHA_Classifier_1/bilstm_1_1/forward_lstm_2_1/while/body/_48/input/_238", "StatefulPartitionedCall/CNN_BiLSTM_MHA_Classifier_1/bilstm_1_1/forward_lstm_2_1/while/body/_48/CNN_BiLSTM_MHA_Classifier_1/bilstm_1_1/forward_lstm_2_1/while/lstm_cell_1/mul_2"], "attr": {"element_dtype": {"type": "DT_FLOAT"}, "resize_if_index_out_of_bounds": {"b": false}}, "experimentalType": {"typeId": "TFT_PRODUCT", "args": [{"typeId": "TFT_ARRAY", "args": [{"typeId": "TFT_TENSOR", "args": [{"typeId": "TFT_FLOAT"}]}]}]}}, {"name": "StatefulPartitionedCall/CNN_BiLSTM_MHA_Classifier_1/bilstm_1_1/forward_lstm_2_1/while/next_iteration/_88", "op": "NextIteration", "input": ["StatefulPartitionedCall/CNN_BiLSTM_MHA_Classifier_1/bilstm_1_1/forward_lstm_2_1/while/body/_48/CNN_BiLSTM_MHA_Classifier_1/bilstm_1_1/forward_lstm_2_1/while/lstm_cell_1/mul_2"], "attr": {"T": {"type": "DT_FLOAT"}}}, {"name": "StatefulPartitionedCall/CNN_BiLSTM_MHA_Classifier_1/bilstm_1_1/backward_lstm_2_1/while/body/_92/CNN_BiLSTM_MHA_Classifier_1/bilstm_1_1/backward_lstm_2_1/while/TensorArrayV2Write/TensorListSetItem", "op": "TensorListSetItem", "input": ["StatefulPartitionedCall/CNN_BiLSTM_MHA_Classifier_1/bilstm_1_1/backward_lstm_2_1/while/StatefulPartitionedCall/CNN_BiLSTM_MHA_Classifier_1/bilstm_1_1/backward_lstm_2_1/TensorArrayV2_1_switch/_115:1", "Func/StatefulPartitionedCall/CNN_BiLSTM_MHA_Classifier_1/bilstm_1_1/backward_lstm_2_1/while/body/_92/input/_272", "StatefulPartitionedCall/CNN_BiLSTM_MHA_Classifier_1/bilstm_1_1/backward_lstm_2_1/while/body/_92/CNN_BiLSTM_MHA_Classifier_1/bilstm_1_1/backward_lstm_2_1/while/lstm_cell_1/mul_2"], "attr": {"element_dtype": {"type": "DT_FLOAT"}, "resize_if_index_out_of_bounds": {"b": false}}, "experimentalType": {"typeId": "TFT_PRODUCT", "args": [{"typeId": "TFT_ARRAY", "args": [{"typeId": "TFT_TENSOR", "args": [{"typeId": "TFT_FLOAT"}]}]}]}}, {"name": "StatefulPartitionedCall/CNN_BiLSTM_MHA_Classifier_1/bilstm_1_1/backward_lstm_2_1/while/next_iteration/_132", "op": "NextIteration", "input": ["StatefulPartitionedCall/CNN_BiLSTM_MHA_Classifier_1/bilstm_1_1/backward_lstm_2_1/while/body/_92/CNN_BiLSTM_MHA_Classifier_1/bilstm_1_1/backward_lstm_2_1/while/lstm_cell_1/mul_2"], "attr": {"T": {"type": "DT_FLOAT"}}}, {"name": "Func/StatefulPartitionedCall/CNN_BiLSTM_MHA_Classifier_1/bilstm_2_1/backward_lstm_3_1/while/cond/_179/input_control_node/_325", "op": "NoOp", "input": [], "attr": {"_has_manual_control_dependencies": {"b": true}}}, {"name": "Func/StatefulPartitionedCall/CNN_BiLSTM_MHA_Classifier_1/bilstm_2_1/forward_lstm_3_1/while/cond/_135/input_control_node/_291", "op": "NoOp", "input": [], "attr": {"_has_manual_control_dependencies": {"b": true}}}, {"name": "StatefulPartitionedCall/CNN_BiLSTM_MHA_Classifier_1/bilstm_1_1/forward_lstm_2_1/while/next_iteration/_87", "op": "NextIteration", "input": ["StatefulPartitionedCall/CNN_BiLSTM_MHA_Classifier_1/bilstm_1_1/forward_lstm_2_1/while/body/_48/CNN_BiLSTM_MHA_Classifier_1/bilstm_1_1/forward_lstm_2_1/while/TensorArrayV2Write/TensorListSetItem"], "attr": {"T": {"type": "DT_VARIANT"}}}, {"name": "StatefulPartitionedCall/CNN_BiLSTM_MHA_Classifier_1/bilstm_1_1/backward_lstm_2_1/while/next_iteration/_131", "op": "NextIteration", "input": ["StatefulPartitionedCall/CNN_BiLSTM_MHA_Classifier_1/bilstm_1_1/backward_lstm_2_1/while/body/_92/CNN_BiLSTM_MHA_Classifier_1/bilstm_1_1/backward_lstm_2_1/while/TensorArrayV2Write/TensorListSetItem"], "attr": {"T": {"type": "DT_VARIANT"}}}, {"name": "StatefulPartitionedCall/CNN_BiLSTM_MHA_Classifier_1/bilstm_2_1/backward_lstm_3_1/while/cond/_179/CNN_BiLSTM_MHA_Classifier_1/bilstm_2_1/backward_lstm_3_1/while/Less_1", "op": "Less", "input": ["StatefulPartitionedCall/CNN_BiLSTM_MHA_Classifier_1/bilstm_2_1/backward_lstm_3_1/while/merge/_192", "StatefulPartitionedCall/CNN_BiLSTM_MHA_Classifier_1/bilstm_2_1/backward_lstm_3_1/while/merge/_193"], "attr": {"T": {"type": "DT_INT32"}}}, {"name": "StatefulPartitionedCall/CNN_BiLSTM_MHA_Classifier_1/bilstm_2_1/backward_lstm_3_1/while/cond/_179/CNN_BiLSTM_MHA_Classifier_1/bilstm_2_1/backward_lstm_3_1/while/Less/y", "op": "Const", "input": [], "attr": {"value": {"tensor": {"dtype": "DT_INT32", "tensorShape": {}}}, "dtype": {"type": "DT_INT32"}}}, {"name": "StatefulPartitionedCall/CNN_BiLSTM_MHA_Classifier_1/bilstm_2_1/forward_lstm_3_1/while/cond/_135/CNN_BiLSTM_MHA_Classifier_1/bilstm_2_1/forward_lstm_3_1/while/Less_1", "op": "Less", "input": ["StatefulPartitionedCall/CNN_BiLSTM_MHA_Classifier_1/bilstm_2_1/forward_lstm_3_1/while/merge/_148", "StatefulPartitionedCall/CNN_BiLSTM_MHA_Classifier_1/bilstm_2_1/forward_lstm_3_1/while/merge/_149"], "attr": {"T": {"type": "DT_INT32"}}}, {"name": "StatefulPartitionedCall/CNN_BiLSTM_MHA_Classifier_1/bilstm_2_1/forward_lstm_3_1/while/cond/_135/CNN_BiLSTM_MHA_Classifier_1/bilstm_2_1/forward_lstm_3_1/while/Less/y", "op": "Const", "input": [], "attr": {"value": {"tensor": {"dtype": "DT_INT32", "tensorShape": {}}}, "dtype": {"type": "DT_INT32"}}}, {"name": "StatefulPartitionedCall/CNN_BiLSTM_MHA_Classifier_1/bilstm_2_1/backward_lstm_3_1/while/cond/_179/CNN_BiLSTM_MHA_Classifier_1/bilstm_2_1/backward_lstm_3_1/while/Less", "op": "Less", "input": ["StatefulPartitionedCall/CNN_BiLSTM_MHA_Classifier_1/bilstm_2_1/backward_lstm_3_1/while/merge/_194", "StatefulPartitionedCall/CNN_BiLSTM_MHA_Classifier_1/bilstm_2_1/backward_lstm_3_1/while/cond/_179/CNN_BiLSTM_MHA_Classifier_1/bilstm_2_1/backward_lstm_3_1/while/Less/y"], "attr": {"T": {"type": "DT_INT32"}}}, {"name": "StatefulPartitionedCall/CNN_BiLSTM_MHA_Classifier_1/bilstm_2_1/forward_lstm_3_1/while/cond/_135/CNN_BiLSTM_MHA_Classifier_1/bilstm_2_1/forward_lstm_3_1/while/Less", "op": "Less", "input": ["StatefulPartitionedCall/CNN_BiLSTM_MHA_Classifier_1/bilstm_2_1/forward_lstm_3_1/while/merge/_150", "StatefulPartitionedCall/CNN_BiLSTM_MHA_Classifier_1/bilstm_2_1/forward_lstm_3_1/while/cond/_135/CNN_BiLSTM_MHA_Classifier_1/bilstm_2_1/forward_lstm_3_1/while/Less/y"], "attr": {"T": {"type": "DT_INT32"}}}, {"name": "StatefulPartitionedCall/CNN_BiLSTM_MHA_Classifier_1/bilstm_2_1/backward_lstm_3_1/while/cond/_179/CNN_BiLSTM_MHA_Classifier_1/bilstm_2_1/backward_lstm_3_1/while/LogicalAnd", "op": "LogicalAnd", "input": ["StatefulPartitionedCall/CNN_BiLSTM_MHA_Classifier_1/bilstm_2_1/backward_lstm_3_1/while/cond/_179/CNN_BiLSTM_MHA_Classifier_1/bilstm_2_1/backward_lstm_3_1/while/Less_1", "StatefulPartitionedCall/CNN_BiLSTM_MHA_Classifier_1/bilstm_2_1/backward_lstm_3_1/while/cond/_179/CNN_BiLSTM_MHA_Classifier_1/bilstm_2_1/backward_lstm_3_1/while/Less"]}, {"name": "StatefulPartitionedCall/CNN_BiLSTM_MHA_Classifier_1/bilstm_2_1/forward_lstm_3_1/while/cond/_135/CNN_BiLSTM_MHA_Classifier_1/bilstm_2_1/forward_lstm_3_1/while/LogicalAnd", "op": "LogicalAnd", "input": ["StatefulPartitionedCall/CNN_BiLSTM_MHA_Classifier_1/bilstm_2_1/forward_lstm_3_1/while/cond/_135/CNN_BiLSTM_MHA_Classifier_1/bilstm…
 "attr": {"T": {"type": "DT_FLOAT"}}}, {"name": "StatefulPartitionedCall/CNN_BiLSTM_MHA_Classifier_1/mha_block_1/mha_core_1/value_1/Add", "op": "AddV2", "input": ["StatefulPartitionedCall/CNN_BiLSTM_MHA_Classifier_1/mha_block_1/mha_core_1/value_1/Reshape_1", "StatefulPartitionedCall/CNN_BiLSTM_MHA_Classifier_1/mha_block_1/mha_core_1/value_1/Add/ReadVariableOp"], "attr": {"T": {"type": "DT_FLOAT"}}}, {"name": "StatefulPartitionedCall/CNN_BiLSTM_MHA_Classifier_1/bilstm_2_1/backward_lstm_3_1/while/body/_180/CNN_BiLSTM_MHA_Classifier_1/bilstm_2_1/backward_lstm_3_1/while/lstm_cell_1/Sigmoid", "op": "Sigmoid", "input": ["StatefulPartitionedCall/CNN_BiLSTM_MHA_Classifier_1/bilstm_2_1/backward_lstm_3_1/while/body/_180/CNN_BiLSTM_MHA_Classifier_1/bilstm_2_1/backward_lstm_3_1/while/lstm_cell_1/split"], "attr": {"T": {"type": "DT_FLOAT"}}}, {"name": "StatefulPartitionedCall/CNN_BiLSTM_MHA_Classifier_1/bilstm_2_1/backward_lstm_3_1/while/body/_180/CNN_BiLSTM_MHA_Classifier_1/bilstm_2_1/backward_lstm_3_1/while/lstm_cell_1/Sigmoid_1", "op": "Sigmoid", "input": ["StatefulPartitionedCall/CNN_BiLSTM_MHA_Classifier_1/bilstm_2_1/backward_lstm_3_1/while/body/_180/CNN_BiLSTM_MHA_Classifier_1/bilstm_2_1/backward_lstm_3_1/while/lstm_cell_1/split:1"], "attr": {"T": {"type": "DT_FLOAT"}}}, {"name": "StatefulPartitionedCall/CNN_BiLSTM_MHA_Classifier_1/bilstm_2_1/backward_lstm_3_1/while/body/_180/CNN_BiLSTM_MHA_Classifier_1/bilstm_2_1/backward_lstm_3_1/while/lstm_cell_1/Tanh", "op": "Tanh", "input": ["StatefulPartitionedCall/CNN_BiLSTM_MHA_Classifier_1/bilstm_2_1/backward_lstm_3_1/while/body/_180/CNN_BiLSTM_MHA_Classifier_1/bilstm_2_1/backward_lstm_3_1/while/lstm_cell_1/split:2"], "attr": {"T": {"type": "DT_FLOAT"}}}, {"name": "StatefulPartitionedCall/CNN_BiLSTM_MHA_Classifier_1/bilstm_2_1/backward_lstm_3_1/while/body/_180/CNN_BiLSTM_MHA_Classifier_1/bilstm_2_1/backward_lstm_3_1/while/lstm_cell_1/Sigmoid_2", "op": "Sigmoid", "input": ["StatefulPartitionedCall/CNN_BiLSTM_MHA_Classifier_1/bilstm_2_1/backward_lstm_3_1/while/body/_180/CNN_BiLSTM_MHA_Classifier_1/bilstm_2_1/backward_lstm_3_1/while/lstm_cell_1/split:3"], "attr": {"T": {"type": "DT_FLOAT"}}}, {"name": "StatefulPartitionedCall/CNN_BiLSTM_MHA_Classifier_1/bilstm_2_1/forward_lstm_3_1/while/body/_136/CNN_BiLSTM_MHA_Classifier_1/bilstm_2_1/forward_lstm_3_1/while/lstm_cell_1/Sigmoid", "op": "Sigmoid", "input": ["StatefulPartitionedCall/CNN_BiLSTM_MHA_Classifier_1/bilstm_2_1/forward_lstm_3_1/while/body/_136/CNN_BiLSTM_MHA_Classifier_1/bilstm_2_1/forward_lstm_3_1/while/lstm_cell_1/split"], "attr": {"T": {"type": "DT_FLOAT"}}}, {"name": "StatefulPartitionedCall/CNN_BiLSTM_MHA_Classifier_1/bilstm_2_1/forward_lstm_3_1/while/body/_136/CNN_BiLSTM_MHA_Classifier_1/bilstm_2_1/forward_lstm_3_1/while/lstm_cell_1/Sigmoid_1", "op": "Sigmoid", "input": ["StatefulPartitionedCall/CNN_BiLSTM_MHA_Classifier_1/bilstm_2_1/forward_lstm_3_1/while/body/_136/CNN_BiLSTM_MHA_Classifier_1/bilstm_2_1/forward_lstm_3_1/while/lstm_cell_1/split:1"], "attr": {"T": {"type": "DT_FLOAT"}}}, {"name": "StatefulPartitionedCall/CNN_BiLSTM_MHA_Classifier_1/bilstm_2_1/forward_lstm_3_1/while/body/_136/CNN_BiLSTM_MHA_Classifier_1/bilstm_2_1/forward_lstm_3_1/while/lstm_cell_1/Tanh", "op": "Tanh", "input": ["StatefulPartitionedCall/CNN_BiLSTM_MHA_Classifier_1/bilstm_2_1/forward_lstm_3_1/while/body/_136/CNN_BiLSTM_MHA_Classifier_1/bilstm_2_1/forward_lstm_3_1/while/lstm_cell_1/split:2"], "attr": {"T": {"type": "DT_FLOAT"}}}, {"name": "StatefulPartitionedCall/CNN_BiLSTM_MHA_Classifier_1/bilstm_2_1/forward_lstm_3_1/while/body/_136/CNN_BiLSTM_MHA_Classifier_1/bilstm_2_1/forward_lstm_3_1/while/lstm_cell_1/Sigmoid_2", "op": "Sigmoid", "input": ["StatefulPartitionedCall/CNN_BiLSTM_MHA_Classifier_1/bilstm_2_1/forward_lstm_3_1/while/body/_136/CNN_BiLSTM_MHA_Classifier_1/bilstm_2_1/forward_lstm_3_1/while/lstm_cell_1/split:3"], "attr": {"T": {"type": "DT_FLOAT"}}}, {"name": "StatefulPartitionedCall/CNN_BiLSTM_MHA_Classifier_1/mha_block_1/mha_core_1/transpose", "op": "Transpose", "input": ["StatefulPartitionedCall/CNN_BiLSTM_MHA_Classifier_1/mha_block_1/mha_core_1/key_1/Add", "StatefulPartitionedCall/CNN_BiLSTM_MHA_Classifier_1/mha_block_1/mha_core_1/transpose/perm"], "attr": {"Tperm": {"type": "DT_INT32"}, "T": {"type": "DT_FLOAT"}}}, {"name": "StatefulPartitionedCall/CNN_BiLSTM_MHA_Classifier_1/mha_block_1/mha_core_1/Mul", "op": "Mul", "input": ["StatefulPartitionedCall/CNN_BiLSTM_MHA_Classifier_1/mha_block_1/mha_core_1/query_1/Add", "StatefulPartitionedCall/CNN_BiLSTM_MHA_Classifier_1/mha_block_1/mha_core_1/Cast/x"], "attr": {"T": {"type": "DT_FLOAT"}}}, {"name": "StatefulPartitionedCall/CNN_BiLSTM_MHA_Classifier_1/mha_block_1/mha_core_1/transpose_3", "op": "Transpose", "input": ["StatefulPartitionedCall/CNN_BiLSTM_MHA_Classifier_1/mha_block_1/mha_core_1/value_1/Add", "StatefulPartitionedCall/CNN_BiLSTM_MHA_Classifier_1/mha_block_1/mha_core_1/transpose_3/perm"], "attr": {"Tperm": {"type": "DT_INT32"}, "T": {"type": "DT_FLOAT"}}}, {"name": "StatefulPartitionedCall/CNN_BiLSTM_MHA_Classifier_1/bilstm_2_1/backward_lstm_3_1/while/body/_180/CNN_BiLSTM_MHA_Classifier_1/bilstm_2_1/backward_lstm_3_1/while/lstm_cell_1/mul", "op": "Mul", "input": ["StatefulPartitionedCall/CNN_BiLSTM_MHA_Classifier_1/bilstm_2_1/backward_lstm_3_1/while/body/_180/CNN_BiLSTM_MHA_Classifier_1/bilstm_2_1/backward_lstm_3_1/while/lstm_cell_1/Sigmoid_1", "StatefulPartitionedCall/CNN_BiLSTM_MHA_Classifier_1/bilstm_2_1/backward_lstm_3_1/while/StatefulPartitionedCall/CNN_BiLSTM_MHA_Classifier_1/bilstm_2_1/backward_lstm_3_1/zeros_1_switch/_205:1"], "attr": {"T": {"type": "DT_FLOAT"}}}, {"name": "StatefulPartitionedCall/CNN_BiLSTM_MHA_Classifier_1/bilstm_2_1/backward_lstm_3_1/while/body/_180/CNN_BiLSTM_MHA_Classifier_1/bilstm_2_1/backward_lstm_3_1/while/lstm_cell_1/mul_1", "op": "Mul", "input": ["StatefulPartitionedCall/CNN_BiLSTM_MHA_Classifier_1/bilstm_2_1/backward_lstm_3_1/while/body/_180/CNN_BiLSTM_MHA_Classifier_1/bilstm_2_1/backward_lstm_3_1/while/lstm_cell_1/Sigmoid", "StatefulPartitionedCall/CNN_BiLSTM_MHA_Classifier_1/bilstm_2_1/backward_lstm_3_1/while/body/_180/CNN_BiLSTM_MHA_Classifier_1/bilstm_2_1/backward_lstm_3_1/while/lstm_cell_1/Tanh"], "attr": {"T": {"type": "DT_FLOAT"}}}, {"name": "StatefulPartitionedCall/CNN_BiLSTM_MHA_Classifier_1/bilstm_2_1/forward_lstm_3_1/while/body/_136/CNN_BiLSTM_MHA_Classifier_1/bilstm_2_1/forward_lstm_3_1/while/lstm_cell_1/mul", "op": "Mul", "input": ["StatefulPartitionedCall/CNN_BiLSTM_MHA_Classifier_1/bilstm_2_1/forward_lstm_3_1/while/body/_136/CNN_BiLSTM_MHA_Classifier_1/bilstm_2_1/forward_lstm_3_1/while/lstm_cell_1/Sigmoid_1", "StatefulPartitionedCall/CNN_BiLSTM_MHA_Classifier_1/bilstm_2_1/forward_lstm_3_1/while/StatefulPartitionedCall/CNN_BiLSTM_MHA_Classifier_1/bilstm_2_1/forward_lstm_3_1/zeros_1_switch/_161:1"], "attr": {"T": {"type": "DT_FLOAT"}}}, {"name": "StatefulPartitionedCall/CNN_BiLSTM_MHA_Classifier_1/bilstm_2_1/forward_lstm_3_1/while/body/_136/CNN_BiLSTM_MHA_Classifier_1/bilstm_2_1/forward_lstm_3_1/while/lstm_cell_1/mul_1", "op": "Mul", "input": ["StatefulPartitionedCall/CNN_BiLSTM_MHA_Classifier_1/bilstm_2_1/forward_lstm_3_1/while/body/_136/CNN_BiLSTM_MHA_Classifier_1/bilstm_2_1/forward_lstm_3_1/while/lstm_cell_1/Sigmoid", "StatefulPartitionedCall/CNN_BiLSTM_MHA_Classifier_1/bilstm_2_1/forward_lstm_3_1/while/body/_136/CNN_BiLSTM_MHA_Classifier_1/bilstm_2_1/forward_lstm_3_1/while/lstm_cell_1/Tanh"], "attr": {"T": {"type": "DT_FLOAT"}}}, {"name": "StatefulPartitionedCall/CNN_BiLSTM_MHA_Classifier_1/mha_block_1/mha_core_1/transpose_1", "op": "Transpose", "input": ["StatefulPartitionedCall/CNN_BiLSTM_MHA_Classifier_1/mha_block_1/mha_core_1/Mul", "StatefulPartitionedCall/CNN_BiLSTM_MHA_Classifier_1/mha_block_1/mha_core_1/transpose_1/perm"], "attr": {"Tperm": {"type": "DT_INT32"}, "T": {"type": "DT_FLOAT"}}}, {"name": "StatefulPartitionedCall/CNN_BiLSTM_MHA_Classifier_1/bilstm_2_1/backward_lstm_3_1/while/body/_180/CNN_BiLSTM_MHA_Classifier_1/bilstm_2_1/backward_lstm_3_1/while/lstm_cell_1/add_2", "op": "AddV2", "input": ["StatefulPartitionedCall/CNN_BiLSTM_MHA_Classifier_1/bilstm_2_1/backward_lstm_3_1/while/body/_180/CNN_BiLSTM_MHA_Classifier_1/bilstm_2_1/backward_lstm_3_1/while/lstm_cell_1/mul", "StatefulPartitionedCall/CNN_BiLSTM_MHA_Classifier_1/bilstm_2_1/backward_lstm_3_1/while/body/_180/CNN_BiLSTM_MHA_Classifier_1/bilstm_2_1/backward_lstm_3_1/while/lstm_cell_1/mul_1"], "attr": {"T": {"type": "DT_FLOAT"}}}, {"name": "StatefulPartitionedCall/CNN_BiLSTM_MHA_Classifier_1/bilstm_2_1/forward_lstm_3_1/while/body/_136/CNN_BiLSTM_MHA_Classifier_1/bilstm_2_1/forward_lstm_3_1/while/lstm_cell_1/add_2", "op": "AddV2", "input": ["StatefulPartitionedCall/CNN_BiLSTM_MHA_Classifier_1/bilstm_2_1/forward_lstm_3_1/while/body/_136/CNN_BiLSTM_MHA_Classifier_1/bilstm_2_1/forward_lstm_3_1/while/lstm_cell_1/mul", "StatefulPartitionedCall/CNN_BiLSTM_MHA_Classifier_1/bilstm_2_1/forward_lstm_3_1/while/body/_136/CNN_BiLSTM_MHA_Classifier_1/bilstm_2_1/forward_lstm_3_1/while/lstm_cell_1/mul_1"], "attr": {"T": {"type": "DT_FLOAT"}}}, {"name": "StatefulPartitionedCall/CNN_BiLSTM_MHA_Classifier_1/mha_block_1/mha_core_1/MatMul", "op": "BatchMatMulV2", "input": ["StatefulPartitionedCall/CNN_BiLSTM_MHA_Classifier_1/mha_block_1/mha_core_1/transpose", "StatefulPartitionedCall/CNN_BiLSTM_MHA_Classifier_1/mha_block_1/mha_core_1/transpose_1"], "attr": {"adj_x": {"b": false}, "grad_y": {"b": false}, "T": {"type": "DT_FLOAT"}, "grad_x": {"b": false}, "adj_y": {"b": false}}}, {"name": "StatefulPartitionedCall/CNN_BiLSTM_MHA_Classifier_1/bilstm_2_1/backward_lstm_3_1/while/body/_180/CNN_BiLSTM_MHA_Classifier_1/bilstm_2_1/backward_lstm_3_1/while/lstm_cell_1/Tanh_1", "op": "Tanh", "input": ["StatefulPartitionedCall/CNN_BiLSTM_MHA_Classifier_1/bilstm_2_1/backward_lstm_3_1/while/body/_180/CNN_BiLSTM_MHA_Classifier_1/bilstm_2_1/backward_lstm_3_1/while/lstm_cell_1/add_2"], "attr": {"T": {"type": "DT_FLOAT"}}}, {"name": "StatefulPartitionedCall/CNN_BiLSTM_MHA_Classifier_1/bilstm_2_1/backward_lstm_3_1/while/next_iteration/_221", "op": "NextIteration", "input": ["StatefulPartitionedCall/CNN_BiLSTM_MHA_Classifier_1/bilstm_2_1/backward_lstm_3_1/while/body/_180/CNN_BiLSTM_MHA_Classifier_1/bilstm_2_1/backward_lstm_3_1/while/lstm_cell_1/add_2"], "attr": {"T": {"type": "DT_FLOAT"}}}, {"name": "StatefulPartitionedCall/CNN_BiLSTM_MHA_Classifier_1/bilstm_2_1/forward_lstm_3_1/while/body/_136/CNN_BiLSTM_MHA_Classifier_1/bilstm_2_1/forward_lstm_3_1/while/lstm_cell_1/Tanh_1", "op": "Tanh", "input": ["StatefulPartitionedCall/CNN_BiLSTM_MHA_Classifier_1/bilstm_2_1/forward_lstm_3_1/while/body/_136/CNN_BiLSTM_MHA_Classifier_1/bilstm_2_1/forward_lstm_3_1/while/lstm_cell_1/add_2"], "attr": {"T": {"type": "DT_FLOAT"}}}, {"name": "StatefulPartitionedCall/CNN_BiLSTM_MHA_Classifier_1/bilstm_2_1/forward_lstm_3_1/while/next_iteration/_177", "op": "NextIteration", "input": ["StatefulPartitionedCall/CNN_BiLSTM_MHA_Classifier_1/bilstm_2_1/forward_lstm_3_1/while/body/_136/CNN_BiLSTM_MHA_Classifier_1/bilstm_2_1/forward_lstm_3_1/while/lstm_cell_1/add_2"], "attr": {"T": {"type": "DT_FLOAT"}}}, {"name": "StatefulPartitionedCall/CNN_BiLSTM_MHA_Classifier_1/mha_block_1/mha_core_1/transpose_2", "op": "Transpose", "input": ["StatefulPartitionedCall/CNN_BiLSTM_MHA_Classifier_1/mha_block_1/mha_core_1/MatMul", "StatefulPartitionedCall/CNN_BiLSTM_MHA_Classifier_1/mha_block_1/mha_core_1/transpose_2/perm"], "attr": {"Tperm": {"type": "DT_INT32"}, "T": {"type": "DT_FLOAT"}}}, {"name": "StatefulPartitionedCall/CNN_BiLSTM_MHA_Classifier_1/bilstm_2_1/backward_lstm_3_1/while/body/_180/CNN_BiLSTM_MHA_Classifier_1/bilstm_2_1/backward_lstm_3_1/while/lstm_cell_1/mul_2", "op": "Mul", "input": ["StatefulPartitionedCall/CNN_BiLSTM_MHA_Classifier_1/bilstm_2_1/backward_lstm_3_1/while/body/_180/CNN_BiLSTM_MHA_Classifier_1/bilstm_2_1/backward_lstm_3_1/while/lstm_cell_1/Sigmoid_2", "StatefulPartitionedCall/CNN_BiLSTM_MHA_Classifier_1/bilstm_2_1/backward_lstm_3_1/while/body/_180/CNN_BiLSTM_MHA_Classifier_1/bilstm_2_1/backward_lstm_3_1/while/lstm_cell_1/Tanh_1"], "attr": {"T": {"type": "DT_FLOAT"}}}, {"name": "StatefulPartitionedCall/CNN_BiLSTM_MHA_Classifier_1/bilstm_2_1/forward_lstm_3_1/while/body/_136/CNN_BiLSTM_MHA_Classifier_1/bilstm_2_1/forward_lstm_3_1/while/lstm_cell_1/mul_2", "op": "Mul", "input": ["StatefulPartitionedCall/CNN_BiLSTM_MHA_Classifier_1/bilstm_2_1/forward_lstm_3_1/while/body/_136/CNN_BiLSTM_MHA_Classifier_1/bilstm_2_1/forward_lstm_3_1/while/lstm_cell_1/Sigmoid_2", "StatefulPartitionedCall/CNN_BiLSTM_MHA_Classifier_1/bilstm_2_1/forward_lstm_3_1/while/body/_136/CNN_BiLSTM_MHA_Classifier_1/bilstm_2_1/forward_lstm_3_1/while/lstm_cell_1/Tanh_1"], "attr": {"T": {"type": "DT_FLOAT"}}}, {"name": "StatefulPartitionedCall/CNN_BiLSTM_MHA_Classifier_1/mha_block_1/mha_core_1/softmax_1/Softmax", "op": "Softmax", "input": ["StatefulPartitionedCall/CNN_BiLSTM_MHA_Classifier_1/mha_block_1/mha_core_1/transpose_2"], "attr": {"T": {"type": "DT_FLOAT"}}}, {"name": "StatefulPartitionedCall/CNN_BiLSTM_MHA_Classifier_1/bilstm_2_1/backward_lstm_3_1/while/body/_180/CNN_BiLSTM_MHA_Classifier_1/bilstm_2_1/backward_lstm_3_1/while/TensorArrayV2Write/TensorListSetItem", "op": "TensorListSetItem", "input": ["StatefulPartitionedCall/CNN_BiLSTM_MHA_Classifier_1/bilstm_2_1/backward_lstm_3_1/while/StatefulPartitionedCall/CNN_BiLSTM_MHA_Classifier_1/bilstm_2_1/backward_lstm_3_1/TensorArrayV2_1_switch/_203:1", "Func/StatefulPartitionedCall/CNN_BiLSTM_MHA_Classifier_1/bilstm_2_1/backward_lstm_3_1/while/body/_180/input/_340", "StatefulPartitionedCall/CNN_BiLSTM_MHA_Classifier_1/bilstm_2_1/backward_lstm_3_1/while/body/_180/CNN_BiLSTM_MHA_Classifier_1/bilstm_2_1/backward_lstm_3_1/while/lstm_cell_1/mul_2"], "attr": {"element_dtype": {"type": "DT_FLOAT"}, "resize_if_index_out_of_bounds": {"b": false}}, "experimentalType": {"typeId": "TFT_PRODUCT", "args": [{"typeId": "TFT_ARRAY", "args": [{"typeId": "TFT_TENSOR", "args": [{"typeId": "TFT_FLOAT"}]}]}]}}, {"name": "StatefulPartitionedCall/CNN_BiLSTM_MHA_Classifier_1/bilstm_2_1/backward_lstm_3_1/while/next_iteration/_220", "op": "NextIteration", "input": ["StatefulPartitionedCall/CNN_BiLSTM_MHA_Classifier_1/bilstm_2_1/backward_lstm_3_1/while/body/_180/CNN_BiLSTM_MHA_Classifier_1/bilstm_2_1/backward_lstm_3_1/while/lstm_cell_1/mul_2"], "attr": {"T": {"type": "DT_FLOAT"}}}, {"name": "StatefulPartitionedCall/CNN_BiLSTM_MHA_Classifier_1/bilstm_2_1/forward_lstm_3_1/while/body/_136/CNN_BiLSTM_MHA_Classifier_1/bilstm_2_1/forward_lstm_3_1/while/TensorArrayV2Write/TensorListSetItem", "op": "TensorListSetItem", "input": ["StatefulPartitionedCall/CNN_BiLSTM_MHA_Classifier_1/bilstm_2_1/forward_lstm_3_1/while/StatefulPartitionedCall/CNN_BiLSTM_MHA_Classifier_1/bilstm_2_1/forward_lstm_3_1/TensorArrayV2_1_switch/_159:1", "Func/StatefulPartitionedCall/CNN_BiLSTM_MHA_Classifier_1/bilstm_2_1/forward_lstm_3_1/while/body/_136/input/_306", "StatefulPartitionedCall/CNN_BiLSTM_MHA_Classifier_1/bilstm_2_1/forward_lstm_3_1/while/body/_136/CNN_BiLSTM_MHA_Classifier_1/bilstm_2_1/forward_lstm_3_1/while/lstm_cell_1/mul_2"], "attr": {"element_dtype": {"type": "DT_FLOAT"}, "resize_if_index_out_of_bounds": {"b": false}}, "experimentalType": {"typeId": "TFT_PRODUCT", "args": [{"typeId": "TFT_ARRAY", "args": [{"typeId": "TFT_TENSOR", "args": [{"typeId": "TFT_FLOAT"}]}]}]}}, {"name": "StatefulPartitionedCall/CNN_BiLSTM_MHA_Classifier_1/bilstm_2_1/forward_lstm_3_1/while/next_iteration/_176", "op": "NextIteration", "input": ["StatefulPartitionedCall/CNN_BiLSTM_MHA_Classifier_1/bilstm_2_1/forward_lstm_3_1/while/body/_136/CNN_BiLSTM_MHA_Classifier_1/bilstm_2_1/forward_lstm_3_1/while/lstm_cell_1/mul_2"], "attr": {"T": {"type": "DT_FLOAT"}}}, {"name": "StatefulPartitionedCall/CNN_BiLSTM_MHA_Classifier_1/mha_block_1/mha_core_1/MatMul_1", "op": "BatchMatMulV2", "input": ["StatefulPartitionedCall/CNN_BiLSTM_MHA_Classifier_1/mha_block_1/mha_core_1/softmax_1/Softmax", "StatefulPartitionedCall/CNN_BiLSTM_MHA_Classifier_1/mha_block_1/mha_core_1/transpose_3"], "attr": {"grad_y": {"b": false}, "adj_x": {"b": false}, "T": {"type": "DT_FLOAT"}, "grad_x": {"b": false}, "adj_y": {"b": false}}}, {"name": "StatefulPartitionedCall/CNN_BiLSTM_MHA_Classifier_1/bilstm_2_1/backward_lstm_3_1/while/next_iteration/_219", "op": "NextIteration", "input": ["StatefulPartitionedCall/CNN_BiLSTM_MHA_Classifier_1/bilstm_2_1/backward_lstm_3_1/while/body/_180/CNN_BiLSTM_MHA_Classifier_1/bilstm_2_1/backward_lstm_3_1/while/TensorArrayV2Write/TensorListSetItem"], "attr": {"T": {"type": "DT_VARIANT"}}}, {"name": "StatefulPartitionedCall/CNN_BiLSTM_MHA_Classifier_1/bilstm_2_1/forward_lstm_3_1/while/next_iteration/_175", "op": "NextIteration", "input": ["StatefulPartitionedCall/CNN_BiLSTM_MHA_Classifier_1/bilstm_2_1/forward_lstm_3_1/while/body/_136/CNN_BiLSTM_MHA_Classifier_1/bilstm_2_1/forward_lstm_3_1/while/TensorArrayV2Write/TensorListSetItem"], "attr": {"T": {"type": "DT_VARIANT"}}}, {"name": "StatefulPartitionedCall/CNN_BiLSTM_MHA_Classifier_1/mha_block_1/mha_core_1/transpose_4", "op": "Transpose", "input": ["StatefulPartitionedCall/CNN_BiLSTM_MHA_Classifier_1/mha_block_1/mha_core_1/MatMul_1", "StatefulPartitionedCall/CNN_BiLSTM_MHA_Classifier_1/mha_block_1/mha_core_1/transpose_4/perm"], "attr": {"Tperm": {"type": "DT_INT32"}, "T": {"type": "DT_FLOAT"}}}, {"name": "StatefulPartitionedCall/CNN_BiLSTM_MHA_Classifier_1/mha_block_1/mha_core_1/attention_output_1/Reshape", "op": "Reshape", "input": ["StatefulPartitionedCall/CNN_BiLSTM_MHA_Classifier_1/mha_block_1/mha_core_1/transpose_4", "StatefulPartitionedCall/CNN_BiLSTM_MHA_Classifier_1/mha_block_1/mha_core_1/attention_output_1/Reshape/shape"], "attr": {"T": {"type": "DT_FLOAT"}, "Tshape": {"type": "DT_INT32"}}}, {"name": "StatefulPartitionedCall/CNN_BiLSTM_MHA_Classifier_1/mha_block_1/mha_core_1/attention_output_1/MatMul", "op": "BatchMatMulV2", "input": ["StatefulPartitionedCall/CNN_BiLSTM_MHA_Classifier_1/mha_block_1/mha_core_1/attention_output_1/Reshape", "StatefulPartitionedCall/CNN_BiLSTM_MHA_Classifier_1/mha_block_1/mha_core_1/attention_output_1/Reshape_1"], "attr": {"grad_y": {"b": false}, "adj_x": {"b": false}, "T": {"type": "DT_FLOAT"}, "grad_x": {"b": false}, "adj_y": {"b": false}}}, {"name": "StatefulPartitionedCall/CNN_BiLSTM_MHA_Classifier_1/mha_block_1/mha_core_1/attention_output_1/BiasAdd", "op": "BiasAdd", "input": ["StatefulPartitionedCall/CNN_BiLSTM_MHA_Classifier_1/mha_block_1/mha_core_1/attention_output_1/MatMul", "StatefulPartitionedCall/CNN_BiLSTM_MHA_Classifier_1/mha_block_1/mha_core_1/attention_output_1/BiasAdd/ReadVariableOp"], "attr": {"data_format": {"s": "TkhXQw=="}, "T": {"type": "DT_FLOAT"}}}, {"name": "StatefulPartitionedCall/CNN_BiLSTM_MHA_Classifier_1/mha_block_1/add", "op": "AddV2", "input": ["StatefulPartitionedCall/CNN_BiLSTM_MHA_Classifier_1/bilstm_2_1/concat", "StatefulPartitionedCall/CNN_BiLSTM_MHA_Classifier_1/mha_block_1/mha_core_1/attention_output_1/BiasAdd"], "attr": {"T": {"type": "DT_FLOAT"}}}, {"name": "StatefulPartitionedCall/CNN_BiLSTM_MHA_Classifier_1/mha_block_1/mha_layernorm_1/moments/mean", "op": "Mean", "input": ["StatefulPartitionedCall/CNN_BiLSTM_MHA_Classifier_1/mha_block_1/add", "StatefulPartitionedCall/CNN_BiLSTM_MHA_Classifier_1/mha_block_1/mha_layernorm_1/moments/mean/reduction_indices"], "attr": {"T": {"type": "DT_FLOAT"}, "Tidx": {"type": "DT_INT32"}, "keep_dims": {"b": true}}}, {"name": "StatefulPartitionedCall/CNN_BiLSTM_MHA_Classifier_1/mha_block_1/mha_layernorm_1/Neg", "op": "Neg", "input": ["StatefulPartitionedCall/CNN_BiLSTM_MHA_Classifier_1/mha_block_1/mha_layernorm_1/moments/mean"], "attr": {"T": {"type": "DT_FLOAT"}}}, {"name": "StatefulPartitionedCall/CNN_BiLSTM_MHA_Classifier_1/mha_block_1/mha_layernorm_1/moments/SquaredDifference", "op": "SquaredDifference", "input": ["StatefulPartitionedCall/CNN_BiLSTM_MHA_Classifier_1/mha_block_1/add", "StatefulPartitionedCall/CNN_BiLSTM_MHA_Classifier_1/mha_block_1/mha_layernorm_1/moments/mean"], "attr": {"T": {"type": "DT_FLOAT"}}}, {"name": "StatefulPartitionedCall/CNN_BiLSTM_MHA_Classifier_1/mha_block_1/mha_layernorm_1/moments/variance", "op": "Mean", "input": ["StatefulPartitionedCall/CNN_BiLSTM_MHA_Classifier_1/mha_block_1/mha_layernorm_1/moments/SquaredDifference", "StatefulPartitionedCall/CNN_BiLSTM_MHA_Classifier_1/mha_block_1/mha_layernorm_1/moments/variance/reduction_indices"], "attr": {"Tidx": {"type": "DT_INT32"}, "T": {"type": "DT_FLOAT"}, "keep_dims": {"b": true}}}, {"name": "StatefulPartitionedCall/CNN_BiLSTM_MHA_Classifier_1/mha_block_1/mha_layernorm_1/add", "op": "AddV2", "input": ["StatefulPartitionedCall/CNN_BiLSTM_MHA_Classifier_1/mha_block_1/mha_layernorm_1/moments/variance", "StatefulPartitionedCall/CNN_BiLSTM_MHA_Classifier_1/mha_block_1/mha_layernorm_1/add/y"], "attr": {"T": {"type": "DT_FLOAT"}}}, {"name": "StatefulPartitionedCall/CNN_BiLSTM_MHA_Classifier_1/mha_block_1/mha_layernorm_1/Rsqrt", "op": "Rsqrt", "input": ["StatefulPartitionedCall/CNN_BiLSTM_MHA_Classifier_1/mha_block_1/mha_layernorm_1/add"], "attr": {"T": {"type": "DT_FLOAT"}}}, {"name": "StatefulPartitionedCall/CNN_BiLSTM_MHA_Classifier_1/mha_block_1/mha_layernorm_1/mul", "op": "Mul", "input": ["StatefulPartitionedCall/CNN_BiLSTM_MHA_Classifier_1/mha_block_1/mha_layernorm_1/Rsqrt", "StatefulPartitionedCall/CNN_BiLSTM_MHA_Classifier_1/mha_block_1/mha_layernorm_1/Reshape"], "attr": {"T": {"type": "DT_FLOAT"}}}, {"name": "StatefulPartitionedCall/CNN_BiLSTM_MHA_Classifier_1/mha_block_1/mha_layernorm_1/mul_1", "op": "Mul", "input": ["StatefulPartitionedCall/CNN_BiLSTM_MHA_Classifier_1/mha_block_1/mha_layernorm_1/Neg", "StatefulPartitionedCall/CNN_BiLSTM_MHA_Classifier_1/mha_block_1/mha_layernorm_1/mul"], "attr": {"T": {"type": "DT_FLOAT"}}}, {"name": "StatefulPartitionedCall/CNN_BiLSTM_MHA_Classifier_1/mha_block_1/mha_layernorm_1/mul_2", "op": "Mul", "input": ["StatefulPartitionedCall/CNN_BiLSTM_MHA_Classifier_1/mha_block_1/add", "StatefulPartitionedCall/CNN_BiLSTM_MHA_Classifier_1/mha_block_1/mha_layernorm_1/mul"], "attr": {"T": {"type": "DT_FLOAT"}}}, {"name": "StatefulPartitionedCall/CNN_BiLSTM_MHA_Classifier_1/mha_block_1/mha_layernorm_1/ArithmeticOptimizer/AddOpsRewrite_Leaf_1_add_2", "op": "AddN", "input": ["StatefulPartitionedCall/CNN_BiLSTM_MHA_Classifier_1/mha_block_1/mha_layernorm_1/mul_2", "StatefulPartitionedCall/CNN_BiLSTM_MHA_Classifier_1/mha_block_1/mha_layernorm_1/mul_1"], "attr": {"N": {"i": "2"}, "T": {"type": "DT_FLOAT"}, "_grappler_ArithmeticOptimizer_AddOpsRewriteStage": {"b": true}}}, {"name": "StatefulPartitionedCall/CNN_BiLSTM_MHA_Classifier_1/mha_block_1/mha_layernorm_1/ArithmeticOptimizer/AddOpsRewrite_add_2", "op": "AddV2", "input": ["StatefulPartitionedCall/CNN_BiLSTM_MHA_Classifier_1/mha_block_1/mha_layernorm_1/Reshape_1", "StatefulPartitionedCall/CNN_BiLSTM_MHA_Classifier_1/mha_block_1/mha_layernorm_1/ArithmeticOptimizer/AddOpsRewrite_Leaf_1_add_2"], "attr": {"T": {"type": "DT_FLOAT"}, "_grappler_ArithmeticOptimizer_AddOpsRewriteStage": {"b": true}}}, {"name": "StatefulPartitionedCall/CNN_BiLSTM_MHA_Classifier_1/gap_1/Mean", "op": "Mean", "input": ["StatefulPartitionedCall/CNN_BiLSTM_MHA_Classifier_1/mha_block_1/mha_layernorm_1/ArithmeticOptimizer/AddOpsRewrite_add_2", "StatefulPartitionedCall/CNN_BiLSTM_MHA_Classifier_1/gap_1/Mean/reduction_indices"], "attr": {"T": {"type": "DT_FLOAT"}, "Tidx": {"type": "DT_INT32"}, "keep_dims": {"b": false}}}, {"name": "StatefulPartitionedCall/CNN_BiLSTM_MHA_Classifier_1/fc_act_1/LeakyRelu", "op": "_FusedMatMul", "input": ["StatefulPartitionedCall/CNN_BiLSTM_MHA_Classifier_1/gap_1/Mean", "StatefulPartitionedCall/CNN_BiLSTM_MHA_Classifier_1/fc_hidden_1/Cast/ReadVariableOp", "StatefulPartitionedCall/CNN_BiLSTM_MHA_Classifier_1/fc_hidden_1/BiasAdd/ReadVariableOp"], "device": "/device:CPU:0", "attr": {"transpose_a": {"b": false}, "transpose_b": {"b": false}, "fused_ops": {"list": {"s": ["Qmlhc0FkZA==", "TGVha3lSZWx1"]}}, "num_args": {"i": "1"}, "leakyrelu_alpha": {"f": 0.01}, "epsilon": {"f": 0.0}, "T": {"type": "DT_FLOAT"}}}, {"name": "StatefulPartitionedCall/CNN_BiLSTM_MHA_Classifier_1/classifier_head_1/BiasAdd", "op": "_FusedMatMul", "input": ["StatefulPartitionedCall/CNN_BiLSTM_MHA_Classifier_1/fc_act_1/LeakyRelu", "StatefulPartitionedCall/CNN_BiLSTM_MHA_Classifier_1/classifier_head_1/Cast/ReadVariableOp", "StatefulPartitionedCall/CNN_BiLSTM_MHA_Classifier_1/classifier_head_1/BiasAdd/ReadVariableOp"], "device": "/device:CPU:0", "attr": {"transpose_a": {"b": false}, "transpose_b": {"b": false}, "fused_ops": {"list": {"s": ["Qmlhc0FkZA=="]}}, "leakyrelu_alpha": {"f": 0.2}, "num_args": {"i": "1"}, "epsilon": {"f": 0.0}, "T": {"type": "DT_FLOAT"}}}, {"name": "StatefulPartitionedCall/CNN_BiLSTM_MHA_Classifier_1/classifier_head_1/Sigmoid", "op": "Sigmoid", "input": ["StatefulPartitionedCall/CNN_BiLSTM_MHA_Classifier_1/classifier_head_1/BiasAdd"], "attr": {"T": {"type": "DT_FLOAT"}}}, {"name": "Identity", "op": "Identity", "input": ["StatefulPartitionedCall/CNN_BiLSTM_MHA_Classifier_1/classifier_head_1/Sigmoid"], "attr": {"T": {"type": "DT_FLOAT"}}}], "library": {}, "versions": {"producer": 2129}}, "weightsManifest": [{"paths": ["group1-shard1of1.bin"], "weights": [{"name": "StatefulPartitionedCall/CNN_BiLSTM_MHA_Classifier_1/mha_block_1/mha_layernorm_1/Reshape_1", "shape": [1, 1, 64], "dtype": "float32"}, {"name": "StatefulPartitionedCall/CNN_BiLSTM_MHA_Classifier_1/mha_block_1/mha_core_1/key_1/Reshape", "shape": [64, 64], "dtype": "float32"}, {"name": "StatefulPartitionedCall/CNN_BiLSTM_MHA_Classifier_1/mha_block_1/mha_core_1/key_1/Reshape_1/shape", "shape": [4], "dtype": "int32"}, {"name": "StatefulPartitionedCall/CNN_BiLSTM_MHA_Classifier_1/mha_block_1/mha_core_1/key_1/Add/ReadVariableOp", "shape": [4, 16], "dtype": "float32"}, {"name": "StatefulPartitionedCall/CNN_BiLSTM_MHA_Classifier_1/mha_block_1/mha_core_1/transpose/perm", "shape": [4], "dtype": "int32"}, {"name": "StatefulPartitionedCall/CNN_BiLSTM_MHA_Classifier_1/mha_block_1/mha_core_1/query_1/Reshape", "shape": [64, 64], "dtype": "float32"}, {"name": "StatefulPartitionedCall/CNN_BiLSTM_MHA_Classifier_1/mha_block_1/mha_core_1/query_1/Reshape_1/shape", "shape": [4], "dtype": "int32"}, {"name": "StatefulPartitionedCall/CNN_BiLSTM_MHA_Classifier_1/mha_block_1/mha_core_1/query_1/Add/ReadVariableOp", "shape": [4, 16], "dtype": "float32"}, {"name": "StatefulPartitionedCall/CNN_BiLSTM_MHA_Classifier_1/mha_block_1/mha_core_1/Cast/x", "shape": [], "dtype": "float32"}, {"name": "StatefulPartitionedCall/CNN_BiLSTM_MHA_Classifier_1/mha_block_1/mha_core_1/transpose_1/perm", "shape": [4], "dtype": "int32"}, {"name": "StatefulPartitionedCall/CNN_BiLSTM_MHA_Classifier_1/mha_block_1/mha_core_1/transpose_2/perm", "shape": [4], "dtype": "int32"}, {"name": "StatefulPartitionedCall/CNN_BiLSTM_MHA_Classifier_1/bilstm_2_1/forward_lstm_3_1/TensorArrayV2Stack/TensorListStack/element_shape", "shape": [2], "dtype": "int32"}, {"name": "StatefulPartitionedCall/CNN_BiLSTM_MHA_Classifier_1/bilstm_2_1/forward_lstm_3_1/transpose_1/perm", "shape": [3], "dtype": "int32"}, {"name": "StatefulPartitionedCall/CNN_BiLSTM_MHA_Classifier_1/bilstm_2_1/backward_lstm_3_1/TensorArrayV2Stack/TensorListStack/element_shape", "shape": [2], "dtype": "int32"}, {"name": "StatefulPartitionedCall/CNN_BiLSTM_MHA_Classifier_1/bilstm_2_1/backward_lstm_3_1/transpose_1/perm", "shape": [3], "dtype": "int32"}, {"name": "StatefulPartitionedCall/CNN_BiLSTM_MHA_Classifier_1/bilstm_2_1/ReverseV2/axis", "shape": [1], "dtype": "int32"}, {"name": "StatefulPartitionedCall/CNN_BiLSTM_MHA_Classifier_1/bilstm_2_1/concat/axis", "shape": [], "dtype": "int32"}, {"name": "StatefulPartitionedCall/CNN_BiLSTM_MHA_Classifier_1/mha_block_1/mha_core_1/value_1/Reshape", "shape": [64, 64], "dtype": "float32"}, {"name": "StatefulPartitionedCall/CNN_BiLSTM_MHA_Classifier_1/mha_block_1/mha_core_1/value_1/Reshape_1/shape", "shape": [4], "dtype": "int32"}, {"name": "StatefulPartitionedCall/CNN_BiLSTM_MHA_Classifier_1/mha_block_1/mha_core_1/value_1/Add/ReadVariableOp", "shape": [4, 16], "dtype": "float32"}, {"name": "StatefulPartitionedCall/CNN_BiLSTM_MHA_Classifier_1/mha_block_1/mha_core_1/transpose_3/perm", "shape": [4], "dtype": "int32"}, {"name": "StatefulPartitionedCall/CNN_BiLSTM_MHA_Classifier_1/mha_block_1/mha_core_1/transpose_4/perm", "shape": [4], "dtype": "int32"}, {"name": "StatefulPartitionedCall/CNN_BiLSTM_MHA_Classifier_1/mha_block_1/mha_core_1/attention_output_1/Reshape/shape", "shape": [3], "dtype": "int32"}, {"name": "StatefulPartitionedCall/CNN_BiLSTM_MHA_Classifier_1/mha_block_1/mha_core_1/attention_output_1/Reshape_1", "shape": [64, 64], "dtype": "float32"}, {"name": "StatefulPartitionedCall/CNN_BiLSTM_MHA_Classifier_1/mha_block_1/mha_core_1/attention_output_1/BiasAdd/ReadVariableOp", "shape": [64], "dtype": "float32"}, {"name": "StatefulPartitionedCall/CNN_BiLSTM_MHA_Classifier_1/mha_block_1/mha_layernorm_1/moments/mean/reduction_indices", "shape": [1], "dtype": "int32"}, {"name": "StatefulPartitionedCall/CNN_BiLSTM_MHA_Classifier_1/mha_block_1/mha_layernorm_1/moments/variance/reduction_indices", "shape": [1], "dtype": "int32"}, {"name": "StatefulPartitionedCall/CNN_BiLSTM_MHA_Classifier_1/mha_block_1/mha_layernorm_1/add/y", "shape": [], "dtype": "float32"}, {"name": "StatefulPartitionedCall/CNN_BiLSTM_MHA_Classifier_1/mha_block_1/mha_layernorm_1/Reshape", "shape": [1, 1, 64], "dtype": "float32"}, {"name": "StatefulPartitionedCall/CNN_BiLSTM_MHA_Classifier_1/gap_1/Mean/reduction_indices", "shape": [], "dtype": "int32"}, {"name": "StatefulPartitionedCall/CNN_BiLSTM_MHA_Classifier_1/fc_hidden_1/Cast/ReadVariableOp", "shape": [64, 64], "dtype": "float32"}, {"name": "StatefulPartitionedCall/CNN_BiLSTM_MHA_Classifier_1/fc_hidden_1/BiasAdd/ReadVariableOp", "shape": [64], "dtype": "float32"}, {"name": "StatefulPartitionedCall/CNN_BiLSTM_MHA_Classifier_1/classifier_head_1/Cast/ReadVariableOp", "shape": [64, 4], "dtype": "float32"}, {"name": "StatefulPartitionedCall/CNN_BiLSTM_MHA_Classifier_1/classifier_head_1/BiasAdd/ReadVariableOp", "shape": [4], "dtype": "float32"}, {"name": "StatefulPartitionedCall/CNN_BiLSTM_MHA_Classifier_1/bilstm_2_1/backward_lstm_3_1/Max", "shape": [], "dtype": "int32"}, {"name": "StatefulPartitionedCall/CNN_BiLSTM_MHA_Classifier_1/bilstm_2_1/backward_lstm_3_1/while/loop_counter", "shape": [], "dtype": "int32"}, {"name": "StatefulPartitionedCall/CNN_BiLSTM_MHA_Classifier_1/bilstm_2_1/backward_lstm_3_1/time", "shape": [], "dtype": "int32"}, {"name": "Func/StatefulPartitionedCall/input/_28", "shape": [128, 128], "dtype": "float32"}, {"name": "Func/StatefulPartitionedCall/input/_29", "shape": [32, 128], "dtype": "float32"}, {"name": "Func/StatefulPartitionedCall/input/_30", "shape": [128], "dtype": "float32"}, {"name": "StatefulPartitionedCall/CNN_BiLSTM_MHA_Classifier_1/bilstm_2_1/backward_lstm_3_1/transpose/perm", "shape": [3], "dtype": "int32"}, {"name": "StatefulPartitionedCall/CNN_BiLSTM_MHA_Classifier_1/bilstm_2_1/backward_lstm_3_1/ReverseV2/axis", "shape": [1], "dtype": "int32"}, {"name": "StatefulPartitionedCall/CNN_BiLSTM_MHA_Classifier_1/bilstm_2_1/backward_lstm_3_1/TensorArrayUnstack/TensorListFromTensor/element_shape", "shape": [2], "dtype": "int32"}, {"name": "StatefulPartitionedCall/CNN_BiLSTM_MHA_Classifier_1/bilstm_2_1/backward_lstm_3_1/TensorArrayV2_1/element_shape", "shape": [2], "dtype": "int32"}, {"name": "StatefulPartitionedCall/CNN_BiLSTM_MHA_Classifier_1/bilstm_2_1/backward_lstm_3_1/TensorArrayV2_1/num_elements", "shape": [], "dtype": "int32"}, {"name": "StatefulPartitionedCall/CNN_BiLSTM_MHA_Classifier_1/bilstm_2_1/backward_lstm_3_1/zeros/packed/1", "shape": [], "dtype": "int32"}, {"name": "StatefulPartitionedCall/CNN_BiLSTM_MHA_Classifier_1/bilstm_2_1/backward_lstm_3_1/zeros/Const", "shape": [], "dtype": "float32"}, {"name": "StatefulPartitionedCall/CNN_BiLSTM_MHA_Classifier_1/bilstm_2_1/backward_lstm_3_1/strided_slice/stack", "shape": [1], "dtype": "int32"}, {"name": "StatefulPartitionedCall/CNN_BiLSTM_MHA_Classifier_1/bilstm_2_1/backward_lstm_3_1/strided_slice/stack_1", "shape": [1], "dtype": "int32"}, {"name": "StatefulPartitionedCall/CNN_BiLSTM_MHA_Classifier_1/bilstm_2_1/backward_lstm_3_1/strided_slice/stack_2", "shape": [1], "dtype": "int32"}, {"name": "StatefulPartitionedCall/CNN_BiLSTM_MHA_Classifier_1/bilstm_2_1/backward_lstm_3_1/zeros_1/packed/1", "shape": [], "dtype": "int32"}, {"name": "StatefulPartitionedCall/CNN_BiLSTM_MHA_Classifier_1/bilstm_2_1/backward_lstm_3_1/zeros_1/Const", "shape": [], "dtype": "float32"}, {"name": "StatefulPartitionedCall/CNN_BiLSTM_MHA_Classifier_1/bilstm_2_1/forward_lstm_3_1/Max", "shape": [], "dtype": "int32"}, {"name": "StatefulPartitionedCall/CNN_BiLSTM_MHA_Classifier_1/bilstm_2_1/forward_lstm_3_1/while/loop_counter", "shape": [], "dtype": "int32"}, {"name": "StatefulPartitionedCall/CNN_BiLSTM_MHA_Classifier_1/bilstm_2_1/forward_lstm_3_1/time", "shape": [], "dtype": "int32"}, {"name": "Func/StatefulPartitionedCall/input/_25", "shape": [128, 128], "dtype": "float32"}, {"name": "Func/StatefulPartitionedCall/input/_26", "shape": [32, 128], "dtype": "float32"}, {"name": "Func/StatefulPartitionedCall/input/_27", "shape": [128], "dtype": "float32"}, {"name": "StatefulPartitionedCall/CNN_BiLSTM_MHA_Classifier_1/bilstm_2_1/forward_lstm_3_1/transpose/perm", "shape": [3], "dtype": "int32"}, {"name": "StatefulPartitionedCall/CNN_BiLSTM_MHA_Classifier_1/bilstm_2_1/forward_lstm_3_1/TensorArrayUnstack/TensorListFromTensor/element_shape", "shape": [2], "dtype": "int32"}, {"name": "StatefulPartitionedCall/CNN_BiLSTM_MHA_Classifier_1/bilstm_2_1/forward_lstm_3_1/TensorArrayV2_1/element_shape", "shape": [2], "dtype": "int32"}, {"name": "StatefulPartitionedCall/CNN_BiLSTM_MHA_Classifier_1/bilstm_2_1/forward_lstm_3_1/TensorArrayV2_1/num_elements", "shape": [], "dtype": "int32"}, {"name": "StatefulPartitionedCall/CNN_BiLSTM_MHA_Classifier_1/bilstm_2_1/forward_lstm_3_1/zeros/packed/1", "shape": [], "dtype": "int32"}, {"name": "StatefulPartitionedCall/CNN_BiLSTM_MHA_Classifier_1/bilstm_2_1/forward_lstm_3_1/zeros/Const", "shape": [], "dtype": "float32"}, {"name": "StatefulPartitionedCall/CNN_BiLSTM_MHA_Classifier_1/bilstm_1_1/forward_lstm_2_1/Max", "shape": [], "dtype": "int32"}, {"name": "StatefulPartitionedCall/CNN_BiLSTM_MHA_Classifier_1/bilstm_1_1/forward_lstm_2_1/while/loop_counter", "shape": [], "dtype": "int32"}, {"name": "StatefulPartitionedCall/CNN_BiLSTM_MHA_Classifier_1/bilstm_1_1/forward_lstm_2_1/time", "shape": [], "dtype": "int32"}, {"name": "Func/StatefulPartitionedCall/input/_19", "shape": [96, 256], "dtype": "float32"}, {"name": "Func/StatefulPartitionedCall/input/_20", "shape": [64, 256], "dtype": "float32"}, {"name": "Func/StatefulPartitionedCall/input/_21", "shape": [256], "dtype": "float32"}, {"name": "StatefulPartitionedCall/CNN_BiLSTM_MHA_Classifier_1/bilstm_1_1/forward_lstm_2_1/transpose/perm", "shape": [3], "dtype": "int32"}, {"name": "StatefulPartitionedCall/CNN_BiLSTM_MHA_Classifier_1/bilstm_1_1/forward_lstm_2_1/TensorArrayUnstack/TensorListFromTensor/element_shape", "shape": [2], "dtype": "int32"}, {"name": "StatefulPartitionedCall/CNN_BiLSTM_MHA_Classifier_1/bilstm_1_1/forward_lstm_2_1/TensorArrayV2_1/element_shape", "shape": [2], "dtype": "int32"}, {"name": "StatefulPartitionedCall/CNN_BiLSTM_MHA_Classifier_1/bilstm_1_1/forward_lstm_2_1/TensorArrayV2_1/num_elements", "shape": [], "dtype": "int32"}, {"name": "StatefulPartitionedCall/CNN_BiLSTM_MHA_Classifier_1/bilstm_1_1/forward_lstm_2_1/zeros/packed/1", "shape": [], "dtype": "int32"}, {"name": "StatefulPartitionedCall/CNN_BiLSTM_MHA_Classifier_1/bilstm_1_1/forward_lstm_2_1/zeros/Const", "shape": [], "dtype": "float32"}, {"name": "StatefulPartitionedCall/CNN_BiLSTM_MHA_Classifier_1/bilstm_1_1/forward_lstm_2_1/strided_slice/stack", "shape": [1], "dtype": "int32"}, {"name": "StatefulPartitionedCall/CNN_BiLSTM_MHA_Classifier_1/bilstm_1_1/forward_lstm_2_1/strided_slice/stack_1", "shape": [1], "dtype": "int32"}, {"name": "StatefulPartitionedCall/CNN_BiLSTM_MHA_Classifier_1/bilstm_1_1/forward_lstm_2_1/strided_slice/stack_2", "shape": [1], "dtype": "int32"}, {"name": "StatefulPartitionedCall/CNN_BiLSTM_MHA_Classifier_1/bilstm_1_1/forward_lstm_2_1/zeros_1/packed/1", "shape": [], "dtype": "int32"}, {"name": "StatefulPartitionedCall/CNN_BiLSTM_MHA_Classifier_1/bilstm_1_1/forward_lstm_2_1/zeros_1/Const", "shape": [], "dtype": "float32"}, {"name": "StatefulPartitionedCall/CNN_BiLSTM_MHA_Classifier_1/bilstm_1_1/forward_lstm_2_1/TensorArrayV2Stack/TensorListStack/element_shape", "shape": [2], "dtype": "int32"}, {"name": "StatefulPartitionedCall/CNN_BiLSTM_MHA_Classifier_1/bilstm_1_1/forward_lstm_2_1/transpose_1/perm", "shape": [3], "dtype": "int32"}, {"name": "StatefulPartitionedCall/CNN_BiLSTM_MHA_Classifier_1/bilstm_1_1/backward_lstm_2_1/Max", "shape": [], "dtype": "int32"}, {"name": "StatefulPartitionedCall/CNN_BiLSTM_MHA_Classifier_1/bilstm_1_1/backward_lstm_2_1/while/loop_counter", "shape": [], "dtype": "int32"}, {"name": "StatefulPartitionedCall/CNN_BiLSTM_MHA_Classifier_1/bilstm_1_1/backward_lstm_2_1/time", "shape": [], "dtype": "int32"}, {"name": "Func/StatefulPartitionedCall/input/_22", "shape": [96, 256], "dtype": "float32"}, {"name": "Func/StatefulPartitionedCall/input/_23", "shape": [64, 256], "dtype": "float32"}, {"name": "Func/StatefulPartitionedCall/input/_24", "shape": [256], "dtype": "float32"}, {"name": "StatefulPartitionedCall/CNN_BiLSTM_MHA_Classifier_1/bilstm_1_1/backward_lstm_2_1/transpose/perm", "shape": [3], "dtype": "int32"}, {"name": "StatefulPartitionedCall/CNN_BiLSTM_MHA_Classifier_1/bilstm_1_1/backward_lstm_2_1/ReverseV2/axis", "shape": [1], "dtype": "int32"}, {"name": "StatefulPartitionedCall/CNN_BiLSTM_MHA_Classifier_1/bilstm_1_1/backward_lstm_2_1/TensorArrayUnstack/TensorListFromTensor/element_shape", "shape": [2], "dtype": "int32"}, {"name": "StatefulPartitionedCall/CNN_BiLSTM_MHA_Classifier_1/bilstm_1_1/backward_lstm_2_1/TensorArrayV2_1/element_shape", "shape": [2], "dtype": "int32"}, {"name": "StatefulPartitionedCall/CNN_BiLSTM_MHA_Classifier_1/bilstm_1_1/backward_lstm_2_1/TensorArrayV2_1/num_elements", "shape": [], "dtype": "int32"}, {"name": "StatefulPartitionedCall/CNN_BiLSTM_MHA_Classifier_1/bilstm_1_1/backward_lstm_2_1/zeros/packed/1", "shape": [], "dtype": "int32"}, {"name": "StatefulPartitionedCall/CNN_BiLSTM_MHA_Classifier_1/bilstm_1_1/backward_lstm_2_1/zeros/Const", "shape": [], "dtype": "float32"}, {"name": "StatefulPartitionedCall/CNN_BiLSTM_MHA_Classifier_1/conv1d_k3_1/convolution/ExpandDims/dim", "shape": [], "dtype": "int32"}, {"name": "StatefulPartitionedCall/CNN_BiLSTM_MHA_Classifier_1/conv1d_k3_1/convolution/ExpandDims_1", "shape": [1, 3, 16, 32], "dtype": "float32"}, {"name": "StatefulPartitionedCall/CNN_BiLSTM_MHA_Classifier_1/conv1d_k3_1/Squeeze", "shape": [32], "dtype": "float32"}, {"name": "StatefulPartitionedCall/CNN_BiLSTM_MHA_Classifier_1/bn_k3_1/batchnorm/mul", "shape": [32], "dtype": "float32"}, {"name": "StatefulPartitionedCall/CNN_BiLSTM_MHA_Classifier_1/bn_k3_1/batchnorm/sub", "shape": [32], "dtype": "float32"}, {"name": "StatefulPartitionedCall/CNN_BiLSTM_MHA_Classifier_1/conv1d_k5_1/convolution/ExpandDims/dim", "shape": [], "dtype": "int32"}, {"name": "StatefulPartitionedCall/CNN_BiLSTM_MHA_Classifier_1/conv1d_k5_1/convolution/ExpandDims_1", "shape": [1, 5, 16, 32], "dtype": "float32"}, {"name": "StatefulPartitionedCall/CNN_BiLSTM_MHA_Classifier_1/conv1d_k5_1/Squeeze", "shape": [32], "dtype": "float32"}, {"name": "StatefulPartitionedCall/CNN_BiLSTM_MHA_Classifier_1/bn_k5_1/batchnorm/mul", "shape": [32], "dtype": "float32"}, {"name": "StatefulPartitionedCall/CNN_BiLSTM_MHA_Classifier_1/bn_k5_1/batchnorm/sub", "shape": [32], "dtype": "float32"}, {"name": "StatefulPartitionedCall/CNN_BiLSTM_MHA_Classifier_1/conv1d_k7_1/convolution/ExpandDims/dim", "shape": [], "dtype": "int32"}, {"name": "StatefulPartitionedCall/CNN_BiLSTM_MHA_Classifier_1/conv1d_k7_1/convolution/ExpandDims_1", "shape": [1, 7, 16, 32], "dtype": "float32"}, {"name": "StatefulPartitionedCall/CNN_BiLSTM_MHA_Classifier_1/conv1d_k7_1/Squeeze", "shape": [32], "dtype": "float32"}, {"name": "StatefulPartitionedCall/CNN_BiLSTM_MHA_Classifier_1/bn_k7_1/batchnorm/mul", "shape": [32], "dtype": "float32"}, {"name": "StatefulPartitionedCall/CNN_BiLSTM_MHA_Classifier_1/bn_k7_1/batchnorm/sub", "shape": [32], "dtype": "float32"}, {"name": "StatefulPartitionedCall/CNN_BiLSTM_MHA_Classifier_1/cnn_concat_1/concat/axis", "shape": [], "dtype": "int32"}, {"name": "StatefulPartitionedCall/CNN_BiLSTM_MHA_Classifier_1/cnn_pool_1/MaxPool1d/ExpandDims/dim", "shape": [], "dtype": "int32"}, {"name": "StatefulPartitionedCall/CNN_BiLSTM_MHA_Classifier_1/bilstm_1_1/backward_lstm_2_1/strided_slice/stack", "shape": [1], "dtype": "int32"}, {"name": "StatefulPartitionedCall/CNN_BiLSTM_MHA_Classifier_1/bilstm_1_1/backward_lstm_2_1/strided_slice/stack_1", "shape": [1], "dtype": "int32"}, {"name": "StatefulPartitionedCall/CNN_BiLSTM_MHA_Classifier_1/bilstm_1_1/backward_lstm_2_1/strided_slice/stack_2", "shape": [1], "dtype": "int32"}, {"name": "StatefulPartitionedCall/CNN_BiLSTM_MHA_Classifier_1/bilstm_1_1/backward_lstm_2_1/zeros_1/packed/1", "shape": [], "dtype": "int32"}, {"name": "StatefulPartitionedCall/CNN_BiLSTM_MHA_Classifier_1/bilstm_1_1/backward_lstm_2_1/zeros_1/Const", "shape": [], "dtype": "float32"}, {"name": "StatefulPartitionedCall/CNN_BiLSTM_MHA_Classifier_1/bilstm_1_1/backward_lstm_2_1/TensorArrayV2Stack/TensorListStack/element_shape", "shape": [2], "dtype": "int32"}, {"name": "StatefulPartitionedCall/CNN_BiLSTM_MHA_Classifier_1/bilstm_1_1/backward_lstm_2_1/transpose_1/perm", "shape": [3], "dtype": "int32"}, {"name": "StatefulPartitionedCall/CNN_BiLSTM_MHA_Classifier_1/bilstm_1_1/ReverseV2/axis", "shape": [1], "dtype": "int32"}, {"name": "StatefulPartitionedCall/CNN_BiLSTM_MHA_Classifier_1/bilstm_1_1/concat/axis", "shape": [], "dtype": "int32"}, {"name": "StatefulPartitionedCall/CNN_BiLSTM_MHA_Classifier_1/bilstm_2_1/forward_lstm_3_1/strided_slice/stack", "shape": [1], "dtype": "int32"}, {"name": "StatefulPartitionedCall/CNN_BiLSTM_MHA_Classifier_1/bilstm_2_1/forward_lstm_3_1/strided_slice/stack_1", "shape": [1], "dtype": "int32"}, {"name": "StatefulPartitionedCall/CNN_BiLSTM_MHA_Classifier_1/bilstm_2_1/forward_lstm_3_1/strided_slice/stack_2", "shape": [1], "dtype": "int32"}, {"name": "StatefulPartitionedCall/CNN_BiLSTM_MHA_Classifier_1/bilstm_2_1/forward_lstm_3_1/zeros_1/packed/1", "shape": [], "dtype": "int32"}, {"name": "StatefulPartitionedCall/CNN_BiLSTM_MHA_Classifier_1/bilstm_2_1/forward_lstm_3_1/zeros_1/Const", "shape": [], "dtype": "float32"}, {"name": "StatefulPartitionedCall/CNN_BiLSTM_MHA_Classifier_1/bilstm_1_1/forward_lstm_2_1/while/cond/_47/CNN_BiLSTM_MHA_Classifier_1/bilstm_1_1/forward_lstm_2_1/while/Less/y", "shape": [], "dtype": "int32"}, {"name": "StatefulPartitionedCall/CNN_BiLSTM_MHA_Classifier_1/bilstm_1_1/backward_lstm_2_1/while/cond/_91/CNN_BiLSTM_MHA_Classifier_1/bilstm_1_1/backward_lstm_2_1/while/Less/y", "shape": [], "dtype": "int32"}, {"name": "StatefulPartitionedCall/CNN_BiLSTM_MHA_Classifier_1/bilstm_1_1/forward_lstm_2_1/while/body/_48/CNN_BiLSTM_MHA_Classifier_1/bilstm_1_1/forward_lstm_2_1/while/add_1/y", "shape": [], "dtype": "int32"}, {"name": "StatefulPartitionedCall/CNN_BiLSTM_MHA_Classifier_1/bilstm_1_1/forward_lstm_2_1/while/body/_48/CNN_BiLSTM_MHA_Classifier_1/bilstm_1_1/forward_lstm_2_1/while/lstm_cell_1/split/split_dim", "shape": [], "dtype": "int32"}, {"name": "StatefulPartitionedCall/CNN_BiLSTM_MHA_Classifier_1/bilstm_1_1/forward_lstm_2_1/while/body/_48/CNN_BiLSTM_MHA_Classifier_1/bilstm_1_1/forward_lstm_2_1/while/add/y", "shape": [], "dtype": "int32"}, {"name": "StatefulPartitionedCall/CNN_BiLSTM_MHA_Classifier_1/bilstm_1_1/forward_lstm_2_1/while/body/_48/CNN_BiLSTM_MHA_Classifier_1/bilstm_1_1/forward_lstm_2_1/while/TensorArrayV2Read/TensorListGetItem/element_shape", "shape": [2], "dtype": "int32"}, {"name": "StatefulPartitionedCall/CNN_BiLSTM_MHA_Classifier_1/bilstm_1_1/forward_lstm_2_1/while/body/_48/CNN_BiLSTM_MHA_Classifier_1/bilstm_1_1/forward_lstm_2_1/while/lstm_cell_1/Cast/ReadVariableOp", "shape": [96, 256], "dtype": "float32"}, {"name": "StatefulPartitionedCall/CNN_BiLSTM_MHA_Classifier_1/bilstm_1_1/forward_lstm_2_1/while/body/_48/CNN_BiLSTM_MHA_Classifier_1/bilstm_1_1/forward_lstm_2_1/while/lstm_cell_1/Cast_1/ReadVariableOp", "shape": [64, 256], "dtype": "float32"}, {"name": "StatefulPartitionedCall/CNN_BiLSTM_MHA_Classifier_1/bilstm_1_1/forward_lstm_2_1/while/body/_48/CNN_BiLSTM_MHA_Classifier_1/bilstm_1_1/forward_lstm_2_1/while/lstm_cell_1/add_1/ReadVariableOp", "shape": [256], "dtype": "float32"}, {"name": "StatefulPartitionedCall/CNN_BiLSTM_MHA_Classifier_1/bilstm_1_1/backward_lstm_2_1/while/body/_92/CNN_BiLSTM_MHA_Classifier_1/bilstm_1_1/backward_lstm_2_1/while/add_1/y", "shape": [], "dtype": "int32"}, {"name": "StatefulPartitionedCall/CNN_BiLSTM_MHA_Classifier_1/bilstm_1_1/backward_lstm_2_1/while/body/_92/CNN_BiLSTM_MHA_Classifier_1/bilstm_1_1/backward_lstm_2_1/while/lstm_cell_1/split/split_dim", "shape": [], "dtype": "int32"}, {"name": "StatefulPartitionedCall/CNN_BiLSTM_MHA_Classifier_1/bilstm_1_1/backward_lstm_2_1/while/body/_92/CNN_BiLSTM_MHA_Classifier_1/bilstm_1_1/backward_lstm_2_1/while/add/y", "shape": [], "dtype": "int32"}, {"name": "StatefulPartitionedCall/CNN_BiLSTM_MHA_Classifier_1/bilstm_1_1/backward_lstm_2_1/while/body/_92/CNN_BiLSTM_MHA_Classifier_1/bilstm_1_1/backward_lstm_2_1/while/TensorArrayV2Read/TensorListGetItem/element_shape", "shape": [2], "dtype": "int32"}, {"name": "StatefulPartitionedCall/CNN_BiLSTM_MHA_Classifier_1/bilstm_1_1/backward_lstm_2_1/while/body/_92/CNN_BiLSTM_MHA_Classifier_1/bilstm_1_1/backward_lstm_2_1/while/lstm_cell_1/Cast/ReadVariableOp", "shape": [96, 256], "dtype": "float32"}, {"name": "StatefulPartitionedCall/CNN_BiLSTM_MHA_Classifier_1/bilstm_1_1/backward_lstm_2_1/while/body/_92/CNN_BiLSTM_MHA_Classifier_1/bilstm_1_1/backward_lstm_2_1/while/lstm_cell_1/Cast_1/ReadVariableOp", "shape": [64, 256], "dtype": "float32"}, {"name": "StatefulPartitionedCall/CNN_BiLSTM_MHA_Classifier_1/bilstm_1_1/backward_lstm_2_1/while/body/_92/CNN_BiLSTM_MHA_Classifier_1/bilstm_1_1/backward_lstm_2_1/while/lstm_cell_1/add_1/ReadVariableOp", "shape": [256], "dtype": "float32"}, {"name": "StatefulPartitionedCall/CNN_BiLSTM_MHA_Classifier_1/bilstm_2_1/backward_lstm_3_1/while/cond/_179/CNN_BiLSTM_MHA_Classifier_1/bilstm_2_1/backward_lstm_3_1/while/Less/y", "shape": [], "dtype": "int32"}, {"name": "StatefulPartitionedCall/CNN_BiLSTM_MHA_Classifier_1/bilstm_2_1/forward_lstm_3_1/while/cond/_135/CNN_BiLSTM_MHA_Classifier_1/bilstm_2_1/forward_lstm_3_1/while/Less/y", "shape": [], "dtype": "int32"}, {"name": "StatefulPartitionedCall/CNN_BiLSTM_MHA_Classifier_1/bilstm_2_1/backward_lstm_3_1/while/body/_180/CNN_BiLSTM_MHA_Classifier_1/bilstm_2_1/backward_lstm_3_1/while/add_1/y", "shape": [], "dtype": "int32"}, {"name": "StatefulPartitionedCall/CNN_BiLSTM_MHA_Classifier_1/bilstm_2_1/backward_lstm_3_1/while/body/_180/CNN_BiLSTM_MHA_Classifier_1/bilstm_2_1/backward_lstm_3_1/while/lstm_cell_1/split/split_dim", "shape": [], "dtype": "int32"}, {"name": "StatefulPartitionedCall/CNN_BiLSTM_MHA_Classifier_1/bilstm_2_1/backward_lstm_3_1/while/body/_180/CNN_BiLSTM_MHA_Classifier_1/bilstm_2_1/backward_lstm_3_1/while/add/y", "shape": [], "dtype": "int32"}, {"name": "StatefulPartitionedCall/CNN_BiLSTM_MHA_Classifier_1/bilstm_2_1/backward_lstm_3_1/while/body/_180/CNN_BiLSTM_MHA_Classifier_1/bilstm_2_1/backward_lstm_3_1/while/TensorArrayV2Read/TensorListGetItem/element_shape", "shape": [2], "dtype": "int32"}, {"name": "StatefulPartitionedCall/CNN_BiLSTM_MHA_Classifier_1/bilstm_2_1/backward_lstm_3_1/while/body/_180/CNN_BiLSTM_MHA_Classifier_1/bilstm_2_1/backward_lstm_3_1/while/lstm_cell_1/Cast/ReadVariableOp", "shape": [128, 128], "dtype": "float32"}, {"name": "StatefulPartitionedCall/CNN_BiLSTM_MHA_Classifier_1/bilstm_2_1/backward_lstm_3_1/while/body/_180/CNN_BiLSTM_MHA_Classifier_1/bilstm_2_1/backward_lstm_3_1/while/lstm_cell_1/Cast_1/ReadVariableOp", "shape": [32, 128], "dtype": "float32"}, {"name": "StatefulPartitionedCall/CNN_BiLSTM_MHA_Classifier_1/bilstm_2_1/backward_lstm_3_1/while/body/_180/CNN_BiLSTM_MHA_Classifier_1/bilstm_2_1/backward_lstm_3_1/while/lstm_cell_1/add_1/ReadVariableOp", "shape": [128], "dtype": "float32"}, {"name": "StatefulPartitionedCall/CNN_BiLSTM_MHA_Classifier_1/bilstm_2_1/forward_lstm_3_1/while/body/_136/CNN_BiLSTM_MHA_Classifier_1/bilstm_2_1/forward_lstm_3_1/while/add_1/y", "shape": [], "dtype": "int32"}, {"name": "StatefulPartitionedCall/CNN_BiLSTM_MHA_Classifier_1/bilstm_2_1/forward_lstm_3_1/while/body/_136/CNN_BiLSTM_MHA_Classifier_1/bilstm_2_1/forward_lstm_3_1/while/lstm_cell_1/split/split_dim", "shape": [], "dtype": "int32"}, {"name": "StatefulPartitionedCall/CNN_BiLSTM_MHA_Classifier_1/bilstm_2_1/forward_lstm_3_1/while/body/_136/CNN_BiLSTM_MHA_Classifier_1/bilstm_2_1/forward_lstm_3_1/while/add/y", "shape": [], "dtype": "int32"}, {"name": "StatefulPartitionedCall/CNN_BiLSTM_MHA_Classifier_1/bilstm_2_1/forward_lstm_3_1/while/body/_136/CNN_BiLSTM_MHA_Classifier_1/bilstm_2_1/forward_lstm_3_1/while/TensorArrayV2Read/TensorListGetItem/element_shape", "shape": [2], "dtype": "int32"}, {"name": "StatefulPartitionedCall/CNN_BiLSTM_MHA_Classifier_1/bilstm_2_1/forward_lstm_3_1/while/body/_136/CNN_BiLSTM_MHA_Classifier_1/bilstm_2_1/forward_lstm_3_1/while/lstm_cell_1/Cast/ReadVariableOp", "shape": [128, 128], "dtype": "float32"}, {"name": "StatefulPartitionedCall/CNN_BiLSTM_MHA_Classifier_1/bilstm_2_1/forward_lstm_3_1/while/body/_136/CNN_BiLSTM_MHA_Classifier_1/bilstm_2_1/forward_lstm_3_1/while/lstm_cell_1/Cast_1/ReadVariableOp", "shape": [32, 128], "dtype": "float32"}, {"name": "StatefulPartitionedCall/CNN_BiLSTM_MHA_Classifier_1/bilstm_2_1/forward_lstm_3_1/while/body/_136/CNN_BiLSTM_MHA_Classifier_1/bilstm_2_1/forward_lstm_3_1/while/lstm_cell_1/add_1/ReadVariableOp", "shape": [128], "dtype": "float32"}]}]}